src/test_model_pth/continue/test_pendulum_ddpg.pth (torch, 581282 bytes, 40 tensors)

weight f4 [128, 3]
0	0xbcafade6	-0.021445226
1	0x3e9641e3	0.29347143
2	0xbefd2fdc	-0.49450576
3	0xbee6d923	-0.45087537
4	0xbe48fd50	-0.19627881
5	0x3e38ab46	0.18034086
6	0x3ca7cae0	0.02048248
7	0x3f053286	0.5203022
8	0xbd89d846	-0.06730704
9	0x3df75eb1	0.12078608
10	0xbe4f336e	-0.20234463
11	0xbd747872	-0.059685178
12	0xbf228b02	-0.6349336
13	0xbeac1bc9	-0.33614948
14	0xbe56bb42	-0.2096987
15	0x3cff067e	0.031131025
16	0x3eaec82d	0.34137097
17	0x3ea682b8	0.32521605
18	0xbeb3b943	-0.3510228
19	0xbe5dbf16	-0.21654925
20	0x3e8a109a	0.2696579
21	0x3ee716e4	0.45134652
22	0xbdc95aea	-0.098317936
23	0x3ee36aed	0.44417515
24	0xbdade251	-0.08490432
25	0x3dd557dc	0.104171485
26	0x3f07f65f	0.5311031
27	0xbf2a5660	-0.6653805
28	0xbe948742	-0.29009444
29	0xbd8967db	-0.06709262
30	0xbe97713d	-0.2957858
31	0x3ef5e3e1	0.4802542
32	0xbed90510	-0.42386675
33	0xbea10e80	-0.31456375
34	0xbeda27d3	-0.42608508
35	0xbefda532	-0.49540097
36	0xbea864e5	-0.32889476
37	0x3f0c7a78	0.5487437
38	0x3e8a7c86	0.2704813
39	0x3e2fb42c	0.17158574
40	0xbd8789b2	-0.0661806
41	0xbea81de4	-0.32835305
42	0x3da74d6e	0.081690654
43	0xbf2361f9	-0.6382137
44	0xbed22d0c	-0.41049993
45	0xbe68d6e6	-0.22738227
46	0x3ef402eb	0.47658476
47	0x3e9db3d5	0.30801263
48	0xbe89abbf	-0.26888844
49	0x3c440565	0.011964177
50	0x3ec5f10c	0.38660467
51	0x3f1e1fcb	0.6176726
52	0x3e398193	0.18115835
53	0x3db24f8f	0.08706581
54	0x3e912db5	0.28355184
55	0xbecc7787	-0.39934942
56	0x3e20f2a2	0.15717557
57	0xbf07487a	-0.52844965
58	0xbeb1bc5e	-0.34714025
59	0xbe85fe1f	-0.26170442
60	0x3e8658c5	0.262396
61	0x3e81ff65	0.25390163
62	0xbebba90a	-0.36652404
63	0x3d8ca53b	0.06867453
64	0x3ee71bc9	0.45138386
65	0xbe2bf1e8	-0.16791499
66	0x3b87397c	0.0041267257
67	0x3e190541	0.1494341
68	0x3ebb3d89	0.36570385
69	0x3ef92c3c	0.4866656
70	0xbf07316b	-0.5280978
71	0xbe2a564d	-0.16634484
72	0x3e53d874	0.20688039
73	0x3f07f5db	0.5310952
74	0x3f03875e	0.5137843
75	0x3ef6f9d8	0.4823749
76	0x3df806b0	0.121106505
77	0xbf0b33b6	-0.5437578
78	0xbe01ec01	-0.12687685
79	0xbeedd537	-0.46451733
80	0xbf15b717	-0.584825
81	0x3f00bc11	0.50286967
82	0x3ef6d545	0.48209587
83	0xbf1e0986	-0.6173328
84	0x3dc9f0b9	0.09860367
85	0xbdb4c754	-0.08827081
86	0xbda3a495	-0.07990376
87	0xbe9e61ef	-0.30934092
88	0x3e53271a	0.20620385
89	0xbeb66b3a	-0.35628682
90	0x3e3eea4e	0.18644068
91	0x3eae5b01	0.34053805
92	0x3edac686	0.42729586
93	0x3e7eec72	0.24894884
94	0xbf24a95c	-0.6432092
95	0xbec1f931	-0.3788543
96	0x3e89fd2b	0.26950964
97	0x3d4b1796	0.04958304
98	0xbf05ac49	-0.5221601
99	0xbe9b53a8	-0.30337262
100	0x3f28d3ca	0.65948164
101	0x3ebf9101	0.37415317
102	0xbe80cb8a	-0.25155288
103	0xbe6ae994	-0.22940665
104	0xbf1d5c0b	-0.6146857
105	0xbd0b8142	-0.034058817
106	0xbf0b3d6c	-0.543906
107	0xbec62f7a	-0.38708097
108	0xbd681d43	-0.05666853
109	0x3d6a1826	0.057151936
110	0xbe8776dc	-0.2645787
111	0x3e9f2f34	0.310907
112	0xbeacb578	-0.337322
113	0x3f0c779e	0.5487002
114	0x3eeb9b73	0.46017036
115	0xbf13e316	-0.5776838
116	0xbe116f9c	-0.14202732
117	0x3d06c7cd	0.03290539
118	0x3e650288	0.22364247
119	0x3dcbea8f	0.09956848
120	0x3e8487fd	0.25885
121	0xbd19eb3e	-0.03757786
122	0xbe8ff01a	-0.2811287
123	0x3e615e34	0.22008592
124	0xbf1ff194	-0.62477994
125	0xbeb7cb80	-0.35897446
126	0xbe81e5e0	-0.25370693
127	0xbeb5ba61	-0.35493758
128	0xbe2bff4c	-0.16796607
129	0xbf0130af	-0.5046491
130	0xbd88cc8d	-0.0667964
131	0x3e051306	0.12995538
132	0xbecff712	-0.40618187
133	0x3df65361	0.12027622
134	0x3ecf3a23	0.40474042
135	0xbd808181	-0.06274701
136	0x3d397e02	0.045286186
137	0xbd2be7e6	-0.041969202
138	0x3dc57142	0.09640743
139	0x3ed04b13	0.40682277
140	0x3f10090f	0.5626382
141	0x3ebc3c74	0.36764872
142	0x3f1654c4	0.5872309
143	0x3cad5ec8	0.02116336
144	0xbefa3340	-0.48867226
145	0xbe883299	-0.26601103
146	0x3ee3f34b	0.44521555
147	0xbc01009b	-0.0078736795
148	0xbed68ced	-0.41904393
149	0xbee1ddbe	-0.44114488
150	0xbf25bb23	-0.6473867
151	0xbee37cce	-0.44431156
152	0xbde82e2f	-0.11336934
153	0x3e7a6809	0.24453749
154	0x3eb454d2	0.35220963
155	0xbf19827e	-0.5996474
156	0x3ec8a9b7	0.39191982
157	0xbefaad21	-0.48960212
158	0xbe04a072	-0.1295183
159	0xbecd311d	-0.40076533
160	0xbe6b8da3	-0.23003249
161	0xbe17c611	-0.1482165
162	0xbf05071f	-0.5196399
163	0xbf0a5816	-0.5404066
164	0xbd980532	-0.07422866
165	0xbcff2129	-0.031143742
166	0xbe8e0e33	-0.27745208
167	0x3e63f90d	0.22262974
168	0xbf15259a	-0.582605
169	0x3b858c1c	0.00407554
170	0x3f00eb01	0.5035859
171	0xbe8ee702	-0.2791062
172	0x3f13b269	0.5769411
173	0x3e790ede	0.24322078
174	0xbef05999	-0.46943358
175	0x3eecaff1	0.46227983
176	0xbde7e21a	-0.11322422
177	0xbe7b277a	-0.24526778
178	0x3efab6d3	0.4896761
179	0xbeeb2b19	-0.45931318
180	0x3ca70c2a	0.020391542
181	0xbdca0963	-0.098650716
182	0x3edde026	0.43335074
183	0x3e64aea7	0.2233225
184	0x3ecdf219	0.40223768
185	0x3e3aecac	0.18254346
186	0xbe59a26b	-0.21253364
187	0xbe67700c	-0.22601336
188	0xbf035218	-0.5129714
189	0x3ea019b7	0.3126962
190	0x3effe7e1	0.49981597
191	0x3ec7f4dd	0.39054003
192	0xbee838b6	-0.45355767
193	0x3d0f092b	0.034920853
194	0xbed0e74c	-0.40801466
195	0xbebed76d	-0.37273732
196	0xbe94a0ca	-0.29028922
197	0x3e505f4d	0.20348854
198	0xbec25067	-0.37951967
199	0x3c929e74	0.017897822
200	0x3d8f140b	0.06986245
201	0x3eaae70c	0.333794
202	0xbf08400f	-0.53222746
203	0xbec62867	-0.387027
204	0xbea535d2	-0.32267624
205	0x3f010233	0.5039398
206	0xbe74bc2a	-0.23899904
207	0x3ef8bd05	0.4858171
208	0x3e50b87f	0.2038288
209	0x3cac2a5b	0.02101629
210	0xbcc65745	-0.024211535
211	0xbe197251	-0.14985014
212	0x3db89727	0.09013205
213	0xbe298369	-0.16554035
214	0x3cf9a664	0.030474849
215	0x3db7ffe9	0.08984358
216	0xbeef5969	-0.46747902
217	0xbe897f31	-0.26854852
218	0x3ef7b7c7	0.48382398
219	0xbef37fc7	-0.47558424
220	0x3573aef0	9.077912e-07
221	0x3f160587	0.58602184
222	0x3e3a5a0b	0.18198411
223	0x3c1ccb30	0.009569928
224	0xbf088958	-0.5333457
225	0x3eb4c1d8	0.3530414
226	0xbeff1949	-0.4982398
227	0xbe1b4163	-0.15161662
228	0xbe465c08	-0.19371045
229	0xbdaf19bc	-0.0854983
230	0x3bcef000	0.0063152313
231	0x3eea8c8e	0.4581036
232	0x3dae40c1	0.085084446
233	0x3f01f758	0.5076804
234	0x3e928093	0.2861372
235	0xbedc0619	-0.42973402
236	0x3e8b618b	0.27222857
237	0xbefcace8	-0.49350667
238	0xbdaecc32	-0.08535041
239	0x3e38f35e	0.18061587
240	0x3e36d5d3	0.17855005
241	0x3ef822b5	0.4846398
242	0xbe378da7	-0.1792513
243	0xbc492098	-0.012275837
244	0x3e9cf0c4	0.3065244
245	0xbf117d8d	-0.568322
246	0x3ece0308	0.40236688
247	0xbf16d42f	-0.58917516
248	0x3cc82cb5	0.02443538
249	0xbe350335	-0.17677005
250	0xbea1b8f5	-0.31586424
251	0x3e07033c	0.13184828
252	0x3eef6d10	0.46762896
253	0xbe18ad57	-0.14909874
254	0xbec42146	-0.38306636
255	0xbea6a216	-0.32545537

bias f4 [128]
0	0x3e477ef6	0.19482026
1	0x3f1ac303	0.60453814
2	0x3e8f36e5	0.2797157
3	0x3ec6f073	0.38855323
4	0xbe54a9b5	-0.20767863
5	0x3e9ac91e	0.30231565
6	0x3d22b237	0.03972074
7	0xbe087265	-0.13324888
8	0xbea11e24	-0.31468308
9	0xbe7e3985	-0.2482663
10	0xbec7fda5	-0.39060703
11	0x3ed7f460	0.4217863
12	0x3ed4217c	0.41431797
13	0x3a990848	0.0011675442
14	0xbeac8414	-0.33694518
15	0x3ed208df	0.41022393
16	0x3ec6362c	0.38713205
17	0x3cf2ecfa	0.029654015
18	0xbe695ac7	-0.22788535
19	0x3f106197	0.5639891
20	0x3e7549dd	0.23953958
21	0xbea61634	-0.32438815
22	0x3f12b77b	0.5731122
23	0x3f0e163b	0.5550267
24	0xbe45383e	-0.19259736
25	0x3eb82ab2	0.35970074
26	0xbe39968f	-0.1812384
27	0xbd88ef20	-0.066862345
28	0x3f017d3a	0.50581706
29	0x3d1981a1	0.03747714
30	0xbec8c588	-0.39213204
31	0xbe389c96	-0.18028483
32	0xbdcb7d07	-0.099359564
33	0xbdf4078f	-0.11915504
34	0x3c8acba8	0.016942814
35	0x3f09de67	0.53854984
36	0x3cd07aca	0.025449175
37	0xbea89e99	-0.329335
38	0x3dfee7ff	0.124465935
39	0x3e93fbf9	0.28903177
40	0x3e915863	0.28387746
41	0xbf031b57	-0.5121359
42	0xbcf07ced	-0.029356444
43	0xbecbac42	-0.3977986
44	0xbe597c1a	-0.21238747
45	0x3e66a2dd	0.22523065
46	0xbec78761	-0.38970473
47	0x3e87ebe5	0.2654716
48	0x3ef23f91	0.47314122
49	0x3d61e30b	0.055148166
50	0xbea89ba4	-0.32931244
51	0xbe1bcf27	-0.15215741
52	0x3e35fed9	0.17772998
53	0xbe9dd3d6	-0.3082568
54	0x3ea0c5c9	0.31400898
55	0xbf018fbe	-0.5060996
56	0xbf0244e0	-0.50886345
57	0xbf057974	-0.5213845
58	0xbe0b1ff0	-0.13586402
59	0x3ec8b105	0.39197555
60	0xbf08a187	-0.5337147
61	0x3ee978f3	0.4560009
62	0xbe4dc17e	-0.20093343
63	0x3e26b6ee	0.1628072
64	0x3d10efb7	0.03538486
65	0xbf00d690	-0.50327396
66	0x3f0349d7	0.51284546
67	0x3eca456c	0.3950609
68	0x3f116282	0.56790936
69	0x3ea9cb1c	0.33162773
70	0xbeb64835	-0.35601965
71	0x3f02f8f9	0.5116115
72	0x3d3f8ab3	0.046763133
73	0x3e8fbaa5	0.28072086
74	0xbee82def	-0.45347545
75	0xbe07a395	-0.13245995
76	0xbf111f86	-0.56688726
77	0xbe63b194	-0.2223571
78	0x3e30df06	0.17272577
79	0xbebcc0d2	-0.3686586
80	0x3e5a5c06	0.21324167
81	0x3ea36f96	0.3192107
82	0x3e1ec4ec	0.15504807
83	0xbea04727	-0.31304285
84	0xbecdf012	-0.40222222
85	0xbd86ec84	-0.065880805
86	0x3e8b9a07	0.2726595
87	0x3f1630ab	0.5866801
88	0x3ec1dec8	0.3786528
89	0xbd64e934	-0.055886462
90	0x3e541545	0.20711239
91	0xbefc3941	-0.4926243
92	0xbed5a0bc	-0.41724193
93	0x3e90ec29	0.28305176
94	0xbe8ea3a6	-0.2785923
95	0x3eaed436	0.3414628
96	0xbe974c3d	-0.29550353
97	0xbe277a6b	-0.16355292
98	0xbeeaee3f	-0.45884892
99	0x3ea16229	0.31520203
100	0xbd1565c7	-0.036474016
101	0x3edcd852	0.4313379
102	0x3eb404c7	0.35159895
103	0x3ea99e67	0.33128664
104	0x3ce67d3f	0.028135894
105	0xbdeb81ed	-0.11499391
106	0xbd6f590c	-0.05843453
107	0x3e261242	0.16217902
108	0x3e997b44	0.29976857
109	0xbebd1941	-0.3693333
110	0x3efe0122	0.4961024
111	0xbcb42a14	-0.02199272
112	0xbeeef011	-0.4666753
113	0xbe6d4b37	-0.23173223
114	0x3f0c2ce5	0.54756004
115	0x3f084ff5	0.53247005
116	0xbeeb3ce4	-0.45944893
117	0x3eea7d9b	0.45798954
118	0x3e93804c	0.2880882
119	0x3ecc0d51	0.3985391
120	0x3f06cbdd	0.5265482
121	0xbe95f546	-0.2928869
122	0x3ea59d30	0.32346487
123	0x3e8c9b19	0.2746208
124	0xbe1bd240	-0.15216923
125	0x3e5055f6	0.20345291
126	0xbe1ba738	-0.15200508
127	0x3ec06b4f	0.3758187

weight f4 [128, 128]
0	0xbceb3217	-0.028710408
1	0xbc8b4204	-0.016999252
2	0x3c4d02a2	0.012512835
3	0x3d70409f	0.058655377
4	0xbdd922af	-0.106023185
5	0x3bffbd60	0.0078045577
6	0x3d826ada	0.063680366
7	0xbc41022d	-0.011780304
8	0x3c9ff021	0.019523682
9	0xbd134806	-0.03595736
10	0x3cdb6a94	0.026784219
11	0xbe071670	-0.13192153
12	0xbd5880af	-0.052857097
13	0xbd855201	-0.06509782
14	0x3bee6202	0.007274867
15	0xbcbd6365	-0.023118684
16	0x3c09c9d8	0.00840994
17	0xbd9df158	-0.07712048
18	0x3dbe362e	0.09287678
19	0x3e06bb0e	0.13157293
20	0xbd7da4da	-0.061924793
21	0xbd94f4e5	-0.072732724
22	0xbd78e90f	-0.060769137
23	0x3ce3d2f1	0.027810546
24	0xbd5c677b	-0.053809624
25	0xbdb1551b	-0.08658811
26	0xbdb99ab5	-0.09062711
27	0x3c520397	0.012818239
28	0xbc7fb70c	-0.015607607
29	0x3c713805	0.014722829
30	0xbd72829a	-0.059206583
31	0xbdf9ea56	-0.12202899
32	0x3c032de4	0.008006547
33	0x3d2696cd	0.04067116
34	0xbdfd0536	-0.123545095
35	0x3b4096ec	0.0029386831
36	0xbd176a2d	-0.03696649
37	0x3db3d169	0.08780176
38	0xbd6692d1	-0.05629236
39	0xbda92732	-0.08259429
40	0x3cc2490d	0.023716474
41	0xbdc6a066	-0.09698562
42	0xbd6309b1	-0.055429164
43	0x3c1cce9b	0.009570743
44	0xbc909f46	-0.017654072
45	0x3cecdd3d	0.028914088
46	0x3cdb960d	0.026804948
47	0xbcc272ec	-0.02373644
48	0xbd974410	-0.07386029
49	0xbe19a17e	-0.1500301
50	0xbd694b02	-0.0569563
51	0x3d26616c	0.040620252
52	0xbceafb1b	-0.02868419
53	0x3d2859ac	0.041101143
54	0x3ccf90ec	0.025337659
55	0xbcf7d9f9	-0.030255305
56	0x3d8993d6	0.067176506
57	0x3cd5ee33	0.026114559
58	0x3d8d006e	0.068848476
59	0x3d270cc5	0.040783662
60	0xbd2a3bcf	-0.041560944
61	0xbd7ad7d5	-0.06124099
62	0xbc632c06	-0.0138654765
63	0x3d5f6a6a	0.054544844
64	0xbd9b6549	-0.07587678
65	0xbd9c4979	-0.07631201
66	0x3d6350d5	0.05549701
67	0x3d7b0d83	0.061292183
68	0xbdca7fc2	-0.09887649
69	0xbdaaa236	-0.083317205
70	0xbdf165a0	-0.117869616
71	0x3d1283d9	0.03577027
72	0x3b6020e9	0.0034199303
73	0xbd166fe1	-0.03672779
74	0x3c674ef9	0.01411795
75	0x3cf68b61	0.030095758
76	0x3d8ff7d5	0.07029692
77	0x3d66d9c7	0.056360032
78	0xbba1054f	-0.004913963
79	0xbd89f0d5	-0.06735388
80	0xbdb68184	-0.08911422
81	0x3d93bbf8	0.072135866
82	0x3d643dd0	0.05572301
83	0x3d566bfa	0.05234907
84	0xbda1d449	-0.07901818
85	0x3dc770b1	0.09738291
86	0x3d39dee7	0.045378592
87	0x3da461b3	0.08026447
88	0xbd1ea6a6	-0.038733147
89	0xbd9549e8	-0.07289487
90	0xbe1f142d	-0.1553504
91	0x3da2f990	0.079577565
92	0xbd28c79e	-0.041205995
93	0xbe05a008	-0.13049328
94	0x3bbbfe6a	0.0057371156
95	0xbd070427	-0.032962944
96	0xbd4326ba	-0.047644354
97	0xbbfd5830	-0.00773146
98	0xbb3b5db8	-0.0028589796
99	0xbe0b1ea0	-0.13585901
100	0x3d60416f	0.054749902
101	0xbe0065a1	-0.12538768
102	0x3cf782ec	0.030213796
103	0x3dd6d3ad	0.10489593
104	0x3d4b6983	0.04966117
105	0x3ceaeaec	0.028676473
106	0x3d55b7a4	0.052177086
107	0x3ce91696	0.028453153
108	0xbd82f124	-0.0639365
109	0x3da37a38	0.07982296
110	0x3d06708b	0.032822173
111	0xbda275b2	-0.07932605
112	0xbd985990	-0.07438958
113	0xbd283e4a	-0.04107503
114	0x3d14da9f	0.036341306
115	0xbc840161	-0.016113939
116	0xbdae0214	-0.0849649
117	0x3abb30a6	0.0014281466
118	0x3d496ec5	0.049177904
119	0x3d175e49	0.03695515
120	0x3cca5bdd	0.024702007
121	0xbc8e8c1c	-0.017400794
122	0x3c4d0ae0	0.0125148
123	0xbc34f169	-0.011043885
124	0xbde71acf	-0.1128441
125	0xbdb185bd	-0.08668087
126	0xbdc05888	-0.09391886
127	0x3d2973dc	0.041370258
128	0xbd03fc7f	-0.03222322
129	0xbd0eb347	-0.03483894
130	0x3cab3c57	0.020902796
131	0x3ce6f50a	0.028193016
132	0xbd58c9f5	-0.052926976
133	0x3d7d601f	0.061859246
134	0xbd8c59c8	-0.06853062
135	0x3da57939	0.08079762
136	0xbdc706a3	-0.09718063
137	0xbd3c812c	-0.046021625
138	0x3d8cdbd7	0.068778686
139	0xbc7dde45	-0.015494888
140	0x3cab331e	0.020898398
141	0xbcdbcf0a	-0.026832122
142	0xbd1619a9	-0.036645565
143	0xbdafc220	-0.08581948
144	0xbc2c9093	-0.010532516
145	0x3d8a8d66	0.06765251
146	0x3c1c7a06	0.009550577
147	0x3d3d8d44	0.0462773
148	0x3b4c4ce0	0.003117375
149	0x3d921a07	0.071338706
150	0x3d50749b	0.050892454
151	0xbd0582c6	-0.03259542
152	0xbcc6fbea	-0.024290044
153	0x3de65cc2	0.11248161
154	0x3c93811d	0.018005902
155	0x3dc9bf0d	0.09850893
156	0xbc2ea798	-0.010660075
157	0x3db180b7	0.086671285
158	0xbde62845	-0.112381496
159	0x3ce13e64	0.02749557
160	0x3c66d8e2	0.014089795
161	0xbd0fe8c5	-0.035134096
162	0x3d5e47b8	0.054267615
163	0x3dba0631	0.09083212
164	0x3bcf9f05	0.0063360953
165	0x3b8be116	0.0042687757
166	0x3dd56d09	0.104211874
167	0xbd3ae74a	-0.04563073
168	0x3dd6a8a7	0.10481387
169	0xbbd2b11c	-0.0064298045
170	0x3cbd2d09	0.023092763
171	0xbc524035	-0.012832691
172	0x396edcd3	0.00022779712
173	0x3d856626	0.06513624
174	0xbd390b12	-0.045176573
175	0xbd9cc7dd	-0.076553084
176	0x3cab5679	0.020915257
177	0x3d4ea62f	0.050451454
178	0x3c7ee4a0	0.015557438
179	0xbcd3ce6d	-0.025855267
180	0x3dc22d1b	0.094812594
181	0x3dab4c6b	0.08364185
182	0x3c93842d	0.018007362
183	0xbd7535e4	-0.059865847
184	0x3cfd4614	0.030917205
185	0xbe2a01f0	-0.16602302
186	0x3c8261de	0.015915807
187	0x3ce4399f	0.027859507
188	0xbd4393dc	-0.04774843
189	0xb9243a70	-0.00015662028
190	0xbd6597fe	-0.056053154
191	0xbab36a16	-0.0013688232
192	0xbd25f814	-0.04051979
193	0xba200535	-0.00061042915
194	0xbc35379d	-0.0110606225
195	0x3dddf4d1	0.10837711
196	0xbd1c2531	-0.038121406
197	0x3d12ff54	0.03588803
198	0x3d1c277a	0.038123585
199	0xbd9cfe12	-0.076656476
200	0xbdc8716f	-0.09787261
201	0xbde6682c	-0.11250338
202	0x3df1b43f	0.11801957
203	0x3d2781c9	0.040895257
204	0x3b90aad0	0.0044148937
205	0x3cb5d343	0.022195464
206	0x3daa85d0	0.08326304
207	0x3d8d2204	0.068912536
208	0x3db50a0a	0.088398054
209	0xbd3890d4	-0.045059994
210	0x3d827767	0.063704304
211	0xbbe0f42d	-0.0068650455
212	0xbc307564	-0.010770176
213	0x3d141b3d	0.03615879
214	0x3dcee8f3	0.10103025
215	0xbdade1c6	-0.084903285
216	0x3da21274	0.07913676
217	0xbdd72708	-0.105054915
218	0x3b8216e0	0.003970012
219	0x3ddca0ae	0.10772835
220	0x3da8aa08	0.08235556
221	0x3d115044	0.035476938
222	0xbe140129	-0.14453568
223	0x3dc81f3b	0.09771582
224	0x3c6209eb	0.01379631
225	0xbd22448f	-0.039616164
226	0x3cb722bd	0.022355432
227	0xbd6184fd	-0.055058468
228	0xbd68533a	-0.056719996
229	0x3ceff8fc	0.02929353
230	0x3d41580d	0.047203112
231	0xb88a2a1c	-6.588196e-05
232	0x3d57461b	0.052557092
233	0x3e17ac61	0.14811851
234	0x3dc1bd4e	0.09459935
235	0x3cdf7efc	0.02728223
236	0xbd03c433	-0.032169532
237	0x3c3ef6c2	0.011655511
238	0xbd9d1d87	-0.076716475
239	0x3cf70234	0.030152418
240	0x3d0f5440	0.034992456
241	0x3de688e7	0.11256581
242	0x3d03bc15	0.03216179
243	0x3a4b7921	0.0007761885
244	0xbd02cfa4	-0.031936303
245	0x3d9833f4	0.07431784
246	0xbcae1299	-0.021249102
247	0xbbb78ccc	-0.005601501
248	0x3d04cfe7	0.032424834
249	0x3d1ccaad	0.038279224
250	0xbd2cc3a1	-0.042178754
251	0x3da4ce90	0.08047211
252	0x3d5834c8	0.05278471
253	0xbddba94b	-0.107256494
254	0xbd2b75fa	-0.041860558
255	0x3d42345e	0.047413222

bias f4 [128]
0	0xbcb2fe4d	-0.021849776
1	0xbd9e400e	-0.07727061
2	0xbd79220b	-0.06082348
3	0x3b254020	0.0025215223
4	0xbd56a8a6	-0.05240693
5	0xbd7cb16c	-0.06169264
6	0x3dc5fd1d	0.09667418
7	0xbdb2e8d2	-0.08735813
8	0xbbd346d1	-0.006447651
9	0x3d4d9dde	0.050199382
10	0xbd2a3f42	-0.041564234
11	0x3d565330	0.052325428
12	0xbd32feea	-0.043700136
13	0x3b863485	0.0040956163
14	0x3d857512	0.0651647
15	0xbce18513	-0.027529275
16	0xbd4ed1ba	-0.05049298
17	0xbb7120ac	-0.0036793156
18	0xba515f7c	-0.00079869456
19	0x3d86cf5e	0.06582521
20	0x3cc91130	0.024544328
21	0x3da45478	0.08023924
22	0xbd2a2186	-0.041535877
23	0xbd0d1205	-0.034441013
24	0xbbe1c51b	-0.006889952
25	0x3d78f688	0.060781986
26	0x3dbf139a	0.093299106
27	0x3d7a1b56	0.061061226
28	0xbccfe606	-0.025378238
29	0xb9abb952	-0.00032753736
30	0x3da07eaa	0.07836659
31	0x3d88bb36	0.06676333
32	0x3de6f49a	0.11277123
33	0x3d74d3a6	0.059772156
34	0xbc326940	-0.010889351
35	0x3d84c812	0.06483473
36	0x3cc29bee	0.023755994
37	0xbced3d27	-0.028959824
38	0x3dbcec71	0.09224785
39	0xbb72a916	-0.0037027053
40	0x3deb81a3	0.114993356
41	0x3d7c4359	0.061587665
42	0xbc71355d	-0.014722195
43	0xbda69e4f	-0.08135664
44	0xbdb193bf	-0.086707585
45	0xbcdebb95	-0.027189055
46	0x3d289212	0.04115493
47	0x3c2ec553	0.010667163
48	0x3cbdf282	0.023186926
49	0xbd586b96	-0.052836977
50	0x3d5e0512	0.054204054
51	0xbcb9b56f	-0.022669522
52	0x3ca053c3	0.01957119
53	0xbd5c1b42	-0.053736933
54	0x3c1b7f4a	0.009490797
55	0x3d1eafcd	0.038741875
56	0x3d2c7b3e	0.04210972
57	0xbdb4fd29	-0.08837349
58	0x3db7cb97	0.089743786
59	0xbd15276d	-0.036414552
60	0xbdaf4eb3	-0.085599326
61	0xbd5156c4	-0.051108137
62	0xbdc004d7	-0.09375923
63	0x3d007ba9	0.03136793
64	0x3d90e0b6	0.0707411
65	0x3da0f753	0.07859673
66	0x3d4403f5	0.047855336
67	0xbcd551dc	-0.02604001
68	0x3cff92d2	0.031197939
69	0x3d11b377	0.03557154
70	0xbd6cb307	-0.05778792
71	0xbc5c8a97	-0.013460777
72	0x3cb4e6a0	0.022082627
73	0x3db5ab7e	0.088706
74	0x3d60180b	0.05471043
75	0xbcffd53a	-0.031229604
76	0x3d0661eb	0.032808226
77	0x3d8154ac	0.06314978
78	0x3db66b30	0.08907163
79	0xbd424b6d	-0.047435213
80	0x3de0b399	0.109717555
81	0xbc4630af	-0.012096568
82	0xbd22df48	-0.03976372
83	0x3c04fac5	0.008116429
84	0x3da707c8	0.08155781
85	0xbd4ebd8d	-0.05047374
86	0x3a77c6ad	0.0009451907
87	0xbd683322	-0.05668939
88	0x3b68f26d	0.0035544888
89	0x3d9aedef	0.075649135
90	0xbd2632f8	-0.04057595
91	0xbd1adb9a	-0.037807085
92	0x3b7faf36	0.0039014346
93	0x3d46766c	0.04845278
94	0x3c44f964	0.01202235
95	0xbc664061	-0.014053435
96	0x3d057df0	0.032590806
97	0x3d1df8a6	0.038567208
98	0x3dab2669	0.083569355
99	0x3d2b0f25	0.04176249
100	0x3d4b73ee	0.049671106
101	0x3d0456b6	0.032309256
102	0x3c8cd112	0.017189536
103	0x3c4e2d90	0.012584105
104	0xbd21c644	-0.03949572
105	0xbce61c52	-0.028089676
106	0x3cb973fb	0.022638312
107	0x3d04e392	0.03244359
108	0xbcc00552	-0.023440037
109	0xbccae93b	-0.024769416
110	0x3db33282	0.08749868
111	0x3c7b4f2d	0.015338701
112	0x3d50b863	0.050957095
113	0x3d830cbb	0.063989125
114	0x3ce24a2f	0.027623264
115	0x3c570679	0.013124102
116	0xbc92173b	-0.017833343
117	0x3d8590c4	0.065217525
118	0xbd189f3a	-0.037261225
119	0xbcd86264	-0.026414104
120	0xbd827258	-0.063694656
121	0x3c788cb9	0.01517027
122	0xbd7efc3c	-0.06225227
123	0xbc3060e3	-0.010765287
124	0xbd088999	-0.03333435
125	0x3d71dfee	0.059051447
126	0x3d6be95e	0.057595603
127	0x3dbb7c58	0.09154576

weight f4 [1, 128]
0	0xbdc3b20c	-0.09555444
1	0x3e0d19db	0.13779394
2	0xbd933f50	-0.0718981
3	0x3d033125	0.03202929
4	0x3cbffcac	0.023435913
5	0xbdd77ea8	-0.10522205
6	0x3dbe68af	0.092973106
7	0x3d6e931e	0.05824577
8	0x3e2c5f43	0.16833214
9	0x3d9c05da	0.076183036
10	0x3d31c9ee	0.043405466
11	0xbdbe52ab	-0.092931114
12	0x3dc7f8c2	0.09764244
13	0xbdbb75fe	-0.091533646
14	0x3dfeaa04	0.12434772
15	0xbe1f345e	-0.1554732
16	0xbd148e91	-0.036268774
17	0xbd87cce5	-0.066308774
18	0xbd64bd84	-0.0558448
19	0xbd9adc5c	-0.075615615
20	0xbd218463	-0.039432894
21	0xbdcda784	-0.10041717
22	0xbd5a9945	-0.053368825
23	0xbda7bafd	-0.08189962
24	0x3d5743b6	0.05255481
25	0x3dfddcdb	0.123956405
26	0xbc4a6447	-0.01235301
27	0x3da3949a	0.07987328
28	0x3da24a99	0.079243846
29	0xbda062e9	-0.078313656
30	0xbd2fa333	-0.04288025
31	0x3de09765	0.10966376
32	0x3e034e6b	0.12822883
33	0x3ce072b8	0.027398452
34	0xbc599210	-0.013279453
35	0x3d97873b	0.0739884
36	0xbda64ae5	-0.08119754
37	0x3e0650a9	0.13116707
38	0xbdaa7e8a	-0.08324917
39	0x3d8a16ed	0.06742654
40	0xbd37582b	-0.044761818
41	0xbdd6e914	-0.10493675
42	0xbe42cd95	-0.19023736
43	0xbd3efa5a	-0.046625473
44	0x3b950b6d	0.004548481
45	0x3dc8c455	0.09803072
46	0xbd1e599c	-0.038659677
47	0xbd4607a3	-0.048347127
48	0xbe0a5d36	-0.1351212
49	0x3d8a42b0	0.06751001
50	0x3ddb8d60	0.107203245
51	0xbdbd7b15	-0.09251992
52	0xbcab320a	-0.020897884
53	0x3e013ff6	0.12622055
54	0x3da5971b	0.08085462
55	0xbdb18ddf	-0.08669638
56	0xbe225e13	-0.15856199
57	0x3e01b51e	0.12666747
58	0xbd55f23d	-0.05223297
59	0x3dd85f64	0.10565069
60	0xbdaebf3a	-0.08532567
61	0x3daee2fa	0.08539386
62	0x3c13866c	0.009004217
63	0xbc8d1427	-0.017221523
64	0xbd8ac718	-0.06776255
65	0x3d211c7d	0.03933381
66	0xbd809133	-0.062776946
67	0xbd5ff8fd	-0.054680813
68	0xbd9e7448	-0.07737023
69	0x3def154a	0.116739824
70	0x3d91ea21	0.07124735
71	0xbc9d56d0	-0.019206434
72	0x3c8ead1c	0.01741653
73	0x3dcb84f0	0.09937465
74	0xbded8d4d	-0.115992166
75	0x3d409b6e	0.04702323
76	0x3deb1e56	0.114803955
77	0x3d86b50b	0.065775
78	0xbd7c9cda	-0.061673023
79	0xbd51e8a2	-0.051247247
80	0xbd4a3686	-0.049368404
81	0x3dd08fad	0.10183654
82	0xbd75d43d	-0.06001686
83	0xbdb6c4ab	-0.0892423
84	0xbd066d06	-0.032818817
85	0x3d138484	0.03601505
86	0xbe27f3e5	-0.16401632
87	0xbb160c14	-0.0022895383
88	0x3c7c9012	0.015415208
89	0xbd349c4a	-0.04409436
90	0xbdd1039b	-0.10205766
91	0xbd51bbbd	-0.05120443
92	0xbd645912	-0.055749007
93	0x3d85b33c	0.06528327
94	0xbe0576b0	-0.13033557
95	0x3d4d74a1	0.050160054
96	0xbe1c000a	-0.1523439
97	0x3d9efbcf	0.077628724
98	0xbd6c4cc4	-0.057690397
99	0x3d56dbd4	0.05245574
100	0xbd3e6e65	-0.046492
101	0x3d5298a2	0.051415093
102	0xbda0c857	-0.07850712
103	0xbd220657	-0.039556827
104	0xbe032e45	-0.12810619
105	0x3dfe86dc	0.12428066
106	0xbdaed4bc	-0.085366696
107	0x3d872c76	0.06600277
108	0xbe009406	-0.12556466
109	0x3df80236	0.12109797
110	0xbd5d96f6	-0.054099046
111	0xbded5784	-0.11588958
112	0x3b40f70a	0.0029444122
113	0xbe628de8	-0.22124445
114	0x3d2f0465	0.0427288
115	0x3e18d21a	0.14923897
116	0xbcd51583	-0.026011234
117	0xbd96974e	-0.07353078
118	0x3e1225b8	0.14272201
119	0x3d8bac62	0.06819989
120	0x3bafefb0	0.005369149
121	0x3d8a993b	0.06767508
122	0xbdb08e7e	-0.08620928
123	0xbdc22b44	-0.094809085
124	0x3cc2c5f1	0.023776026
125	0x3d2a086e	0.041511945
126	0xbd8a000d	-0.06738291
127	0xbdd01bb7	-0.10161536

weight f4 [128, 3]
0	0xbc7538d3	-0.014967161
1	0x3e96f44a	0.29483253
2	0xbefd2d02	-0.494484
3	0xbee659c6	-0.44990367
4	0xbe4e151d	-0.20125242
5	0x3e3984f8	0.1811713
6	0x3c342fca	0.010997722
7	0x3f00d58a	0.50325835
8	0xbd901d89	-0.070368834
9	0x3dfe79ed	0.12425599
10	0xbe499cd9	-0.19688739
11	0xbd78dcd2	-0.060757466
12	0xbf1fa01f	-0.623537
13	0xbeaeb708	-0.34124017
14	0xbe588497	-0.21144329
15	0x3c88b475	0.016687611
16	0x3ea99682	0.3312264
17	0x3ea7b885	0.32757965
18	0xbeb830f7	-0.35974857
19	0xbe5dc845	-0.21658428
20	0x3e89a221	0.26881507
21	0x3ee74a0e	0.45173687
22	0xbdc5b664	-0.09653929
23	0x3ee39048	0.44446015
24	0xbda37785	-0.07981781
25	0x3dd57bc3	0.10423996
26	0x3f07f4ce	0.5310792
27	0xbf27fb89	-0.6561819
28	0xbe97bac9	-0.29634693
29	0xbd845014	-0.06460586
30	0xbe9798d8	-0.29608798
31	0x3ef7cf54	0.48400366
32	0xbed8bd9a	-0.42332155
33	0xbe9f550e	-0.3111958
34	0xbed34f91	-0.41271642
35	0xbefc1677	-0.4923589
36	0xbead53ec	-0.3385309
37	0x3f0ac424	0.54205537
38	0x3e8ad019	0.2711189
39	0x3e2c59eb	0.16831176
40	0xbd728449	-0.05920819
41	0xbea98ca0	-0.331151
42	0x3dbb7e48	0.091549456
43	0xbf1e6ead	-0.6188763
44	0xbed39454	-0.41324103
45	0xbe73e39b	-0.23817293
46	0x3eef5557	0.46744797
47	0x3e9e3a7d	0.30903998
48	0xbe8cf370	-0.27529478
49	0x3c1a8267	0.009430504
50	0x3ec5cc54	0.38632452
51	0x3f1e8c91	0.6193324
52	0x3e35af1f	0.17742585
53	0x3db034d2	0.08603825
54	0x3e950a29	0.29109314
55	0xbecb1601	-0.39665225
56	0x3e2161ec	0.1576001
57	0xbf057e2e	-0.5214566
58	0xbeb16287	-0.34645483
59	0xbe827e59	-0.2548702
60	0x3e85e6be	0.26152605
61	0x3e810ace	0.25203556
62	0xbebc5f5c	-0.36791503
63	0x3d9e04be	0.07715748
64	0x3ee3e4fb	0.44510636
65	0xbe2ac959	-0.1667837
66	0xb8c262f5	-9.269073e-05
67	0x3e140358	0.144544
68	0x3ebb244c	0.3655113
69	0x3ef9fa33	0.488237
70	0xbf04da71	-0.51895815
71	0xbe2d7c10	-0.16941857
72	0x3e54b942	0.20773795
73	0x3f06cc3e	0.526554
74	0x3f039dbe	0.5141257
75	0x3ef9985a	0.48749048
76	0x3dfa50cc	0.12222442
77	0xbf0ae570	-0.54256344
78	0xbdd619ed	-0.10454164
79	0xbee2f3ed	-0.44326726
80	0xbf15dc69	-0.58539444
81	0x3f0252b0	0.5090742
82	0x3ef50947	0.4785864
83	0xbf1de534	-0.6167786
84	0x3dcc208f	0.099671476
85	0xbdb28ffe	-0.087188706
86	0xbdaacf57	-0.08340328
87	0xbe9b1e11	-0.30296376
88	0x3e5687e3	0.20950274
89	0xbeb59ea5	-0.354726
90	0x3e3e8e5a	0.1860899
91	0x3eadeac3	0.3396817
92	0x3edaf040	0.4276142
93	0x3e8056bc	0.25066173
94	0xbf20265a	-0.6255852
95	0xbec2d788	-0.38055062
96	0x3e872c6b	0.26401076
97	0x3d5360ff	0.051606175
98	0xbf05d7b3	-0.52282256
99	0xbe9d7cd9	-0.30759314
100	0x3f24f1ae	0.64431274
101	0x3ebe7c93	0.37204418
102	0xbe7e6bdb	-0.24845831
103	0xbe5d5161	-0.21613075
104	0xbf1d72a7	-0.6150307
105	0xbcec8451	-0.028871687
106	0xbf0634f4	-0.5242455
107	0xbecb5c5d	-0.39718905
108	0xbd511038	-0.051040858
109	0x3d7f06bf	0.062262293
110	0xbe870f15	-0.26378694
111	0x3e9dd66e	0.3082766
112	0xbeaa731e	-0.33290952
113	0x3f0c9063	0.54907817
114	0x3eeb279e	0.45928663
115	0xbf0f8e45	-0.5607646
116	0xbe12f8ae	-0.14352676
117	0x3cc6e746	0.024280202
118	0x3e556a7d	0.20841403
119	0x3dd06d5b	0.10177108
120	0x3e870352	0.2636972
121	0xbcfcb85a	-0.030849624
122	0xbe8f96ab	-0.28044638
123	0x3e6c39ae	0.23068878
124	0xbf1b8a38	-0.6075778
125	0xbeba4312	-0.36379296
126	0xbe7b333c	-0.24531263
127	0xbeac3b71	-0.336391
128	0xbe310038	-0.1728524
129	0xbf03cc3a	-0.514835
130	0xbd8b5252	-0.06802811
131	0x3e046388	0.12928593
132	0xbed50f6f	-0.41613337
133	0x3de0cd06	0.10976605
134	0x3ecef21a	0.40419084
135	0xbd840da8	-0.06447917
136	0x3d2b03e1	0.041751746
137	0xbd2d8995	-0.042367537
138	0x3dc8bcd8	0.09801644
139	0x3ecfa997	0.40559074
140	0x3f100c22	0.56268513
141	0x3eba04f9	0.3633192
142	0x3f17e016	0.59326303
143	0x3c621356	0.013798555
144	0xbefc904b	-0.49328837
145	0xbe88c5a6	-0.26713294
146	0x3ee3f3ea	0.4452203
147	0xbad429fa	-0.0016186826
148	0xbecbd9a6	-0.3981449
149	0xbee32524	-0.44364274
150	0xbf22d2c6	-0.63602865
151	0xbee623f5	-0.44949308
152	0xbde4b252	-0.111668244
153	0x3e7e6b75	0.24845679
154	0x3eb0a396	0.34499806
155	0xbf197dd2	-0.5995761
156	0x3ec90905	0.39264694
157	0xbef2b749	-0.4740546
158	0xbe07e7e6	-0.13272056
159	0xbec756c9	-0.389334
160	0xbe67c7ac	-0.22634763
161	0xbe12f9bb	-0.14353077
162	0xbf073e33	-0.52829283
163	0xbf07506c	-0.5285709
164	0xbd9871e9	-0.07443602
165	0xbd139a1d	-0.036035646
166	0xbe890c29	-0.2676709
167	0x3e6347a0	0.22195292
168	0xbf14a2d6	-0.5806097
169	0x3af34338	0.0018559461
170	0x3f01096a	0.5040499
171	0xbe8b2413	-0.2717596
172	0x3f13ea0f	0.5777902
173	0x3e78fbd2	0.24314812
174	0xbef23b3c	-0.47310817
175	0x3eea682d	0.45782605
176	0xbdd8450c	-0.10560045
177	0xbe78c283	-0.2429295
178	0x3ef6d0ed	0.48206273
179	0xbeeb0636	-0.45903176
180	0x3cab5808	0.020916
181	0xbdbf2f89	-0.093352385
182	0x3ede0d9f	0.43369767
183	0x3e548027	0.20752011
184	0x3ec83835	0.39105383
185	0x3e3a5aae	0.18198654
186	0xbe451dd1	-0.19249655
187	0xbe51f426	-0.20503291
188	0xbf0455a2	-0.51693165
189	0x3ea0b594	0.31388533
190	0x3f001ff2	0.50048745
191	0x3ec79cf8	0.38986945
192	0xbee623fc	-0.4494933
193	0x3d0f6872	0.035011716
194	0xbed10120	-0.4082117
195	0xbebe7238	-0.37196517
196	0xbe934122	-0.2876063
197	0x3e4edfcc	0.20202559
198	0xbec0964c	-0.37614667
199	0x3c4f94a0	0.012669712
200	0x3d906909	0.07051284
201	0x3eaedcf1	0.3415294
202	0xbf03e77d	-0.515251
203	0xbecb3fd9	-0.3969715
204	0xbea23751	-0.31682828
205	0x3efb54b5	0.49088064
206	0xbe6c52dc	-0.23078483
207	0x3ef8fbd3	0.48629627
208	0x3e4f54c2	0.20247176
209	0x3c8e34ac	0.0173591
210	0xbcc15abd	-0.023602838
211	0xbe157889	-0.14596762
212	0x3db86944	0.09004453
213	0xbe2abd36	-0.1667374
214	0x3cc11dd7	0.023573799
215	0x3dbbbd67	0.09166985
216	0xbef368c1	-0.47540858
217	0xbe8aaba2	-0.2708407
218	0x3ef72084	0.48266995
219	0xbef78b89	-0.48348644
220	0xbb439c5f	-0.0029847843
221	0x3f15d0af	0.5852155
222	0x3e433584	0.19063383
223	0x3bddd39e	0.0067696115
224	0xbf087460	-0.53302574
225	0x3eb4a02f	0.3527846
226	0xbef4867e	-0.4775886
227	0xbe20c563	-0.15700297
228	0xbe465c08	-0.19371045
229	0xbdaf19bc	-0.0854983
230	0x3bcef000	0.0063152313
231	0x3eec6f9b	0.46178898
232	0x3db13e31	0.0865444
233	0x3f0220cd	0.508313
234	0x3e956fd7	0.2918689
235	0xbed9f3d4	-0.4256884
236	0x3e8bc1e9	0.2729638
237	0xbf0056ac	-0.5013225
238	0xbdb2487f	-0.08705234
239	0x3e383089	0.17987265
240	0x3e36793a	0.17819682
241	0x3ef7ab0b	0.48372683
242	0xbe350bde	-0.17680308
243	0xbc0aa036	-0.008461049
244	0x3e9b1e42	0.30296522
245	0xbf113058	-0.5671439
246	0x3ece7051	0.40320066
247	0xbf13f1dc	-0.57790923
248	0x3cc44eb9	0.02396332
249	0xbe36f193	-0.17865591
250	0xbea3a3fc	-0.31961048
251	0x3e05aea5	0.13054903
252	0x3eee9f14	0.46605742
253	0xbe17db9a	-0.14829865
254	0xbec49299	-0.38393095
255	0xbea69dd9	-0.32542303

bias f4 [128]
0	0x3e42a554	0.1900838
1	0x3f1a6183	0.6030504
2	0x3e8fad89	0.28062084
3	0x3ec7a188	0.38990426
4	0xbe533164	-0.2062431
5	0x3e9bbf04	0.3041917
6	0x3d2de3c8	0.042453557
7	0xbe0838c4	-0.13302904
8	0xbea1d438	-0.31607223
9	0xbe7f2dd3	-0.24919824
10	0xbec7a402	-0.38992316
11	0x3ed5d0f7	0.4176099
12	0x3ed41465	0.4142181
13	0x3b899a10	0.004199274
14	0xbeadcfc6	-0.3394758
15	0x3ed12f56	0.40856427
16	0x3ec701a6	0.38868445
17	0x3d016d96	0.03159865
18	0xbe69ceaf	-0.2283275
19	0x3f11158f	0.5667352
20	0x3e7483ed	0.2387845
21	0xbea745a2	-0.32670313
22	0x3f131715	0.57457095
23	0x3f0d0afe	0.550949
24	0xbe492a04	-0.19644934
25	0x3eb725f9	0.35771158
26	0xbe4d1a6d	-0.20029612
27	0xbd89c920	-0.06727815
28	0x3f01318c	0.5046623
29	0x3d054d93	0.032544684
30	0xbec92972	-0.39289433
31	0xbe4074a1	-0.1879449
32	0xbdce1077	-0.10061734
33	0xbdffb9a4	-0.1248658
34	0x3ca198b9	0.019726144
35	0x3f08e917	0.53480667
36	0x3cb219e3	0.02174086
37	0xbea85779	-0.32879236
38	0x3dec0ade	0.1152551
39	0x3e937c67	0.2880585
40	0x3e8ffddf	0.28123376
41	0xbf01826e	-0.50589645
42	0xbd131b72	-0.035914846
43	0xbec8c23e	-0.39210695
44	0xbe53c4db	-0.20680563
45	0x3e66227a	0.2247409
46	0xbec91fb0	-0.39281988
47	0x3e840e1c	0.25792015
48	0x3ef33502	0.4750138
49	0x3d4c423e	0.04986786
50	0xbea9e3a8	-0.331815
51	0xbe1ffbfd	-0.1562347
52	0x3e31da61	0.17368461
53	0xbea13b47	-0.31490538
54	0x3e9ff5d3	0.31242236
55	0xbf01cc4c	-0.5070236
56	0xbf024357	-0.50884
57	0xbf0596cc	-0.5218322
58	0xbe07b845	-0.13253887
59	0x3ec69da4	0.38792145
60	0xbf086114	-0.5327313
61	0x3eeb8a05	0.46003738
62	0xbe58346c	-0.21113747
63	0x3e26ce15	0.16289552
64	0x3d13b7d6	0.03606399
65	0xbf01b0a6	-0.5066017
66	0x3f02fede	0.51170146
67	0x3ec72718	0.38897014
68	0x3f11ae90	0.56906986
69	0x3ea896e7	0.3292763
70	0xbeb73f43	-0.35790452
71	0x3f028c1a	0.5099503
72	0x3d4f96d0	0.050680935
73	0x3e91cd57	0.28476974
74	0xbee8593e	-0.45380586
75	0xbe0eded3	-0.13952188
76	0xbf111f86	-0.56688726
77	0xbe63fe49	-0.22264971
78	0x3e32abe5	0.17448385
79	0xbebb21c6	-0.36549205
80	0x3e589693	0.2115119
81	0x3ea037c9	0.3129256
82	0x3e1f1efe	0.15539166
83	0xbe9fbd4a	-0.31199104
84	0xbecde43e	-0.40213197
85	0xbd864c6d	-0.06557546
86	0x3e8a9550	0.2706704
87	0x3f16b26a	0.5886599
88	0x3ebf9e9f	0.37425706
89	0xbd583996	-0.052789293
90	0x3e558893	0.2085288
91	0xbefcf5f2	-0.4940639
92	0xbeda3767	-0.42620394
93	0x3e9077f8	0.2821653
94	0xbe921ea6	-0.28539008
95	0x3eaefa4c	0.34175336
96	0xbe9fe78c	-0.31231344
97	0xbe2eb90f	-0.17062782
98	0xbee9cc9b	-0.45663914
99	0x3e9eba9b	0.31001744
100	0xbd20e0e2	-0.039276965
101	0x3edd2d6f	0.43198726
102	0x3eb5e3da	0.355254
103	0x3eac7ae4	0.33687508
104	0x3cf417d6	0.029796522
105	0xbdf48ce2	-0.11940934
106	0xbd6cd2f4	-0.057818368
107	0x3e259352	0.1616948
108	0x3e97cee4	0.29650033
109	0xbebfaffa	-0.37438947
110	0x3effb109	0.49939755
111	0xbc9585d9	-0.0182523
112	0xbeefba8c	-0.4682201
113	0xbe6cad74	-0.23113042
114	0x3f0b9ccd	0.54536134
115	0x3f085df5	0.5326837
116	0xbeec7f46	-0.46190852
117	0x3ee94bb3	0.45565566
118	0x3e931323	0.28725538
119	0x3ece41e6	0.40284652
120	0x3f046fbd	0.51733
121	0xbe972f4a	-0.29528266
122	0x3ea02ce5	0.31284252
123	0x3e8e9820	0.27850437
124	0xbe1b1e98	-0.1514839
125	0x3e591ebb	0.21203129
126	0xbe1f0fd5	-0.15533383
127	0x3ec11e66	0.37718505

weight f4 [128, 128]
0	0xbce9ce47	-0.028540744
1	0xbcb71594	-0.022349156
2	0x3c6e9449	0.014561721
3	0x3d598ddc	0.053113803
4	0xbdb394c0	-0.08768606
5	0x3bfc3242	0.007696421
6	0x3d73ad0c	0.059491202
7	0xbc30b595	-0.01078548
8	0x3caf81bc	0.021424167
9	0xbcfa2226	-0.030533861
10	0x3cdcd1c3	0.026955491
11	0xbddc8ff6	-0.10769646
12	0xbd5c01c6	-0.05371263
13	0xbd751027	-0.059829857
14	0x3cdccdb9	0.026953565
15	0xbcc56f60	-0.02410096
16	0x3bb74def	0.005594007
17	0xbd854b0a	-0.06508453
18	0x3dbc7876	0.092026636
19	0x3dfd13b4	0.12357274
20	0xbd7ffc71	-0.062496606
21	0xbd94f476	-0.0727319
22	0xbd802936	-0.0625786
23	0x3cbc2b1f	0.02296978
24	0xbd319234	-0.04335232
25	0xbda0119f	-0.07815861
26	0xbd9bcb8b	-0.07607182
27	0x3c547b86	0.012968903
28	0xbcb0551d	-0.02152496
29	0x3c754fab	0.014972608
30	0xbd3b3750	-0.045707047
31	0xbdcd07a5	-0.10011224
32	0x3c05ee46	0.008174485
33	0x3d520ac8	0.051279813
34	0xbddf0c9f	-0.10891079
35	0x3bd5e9d1	0.006528117
36	0xbd16a6aa	-0.036780037
37	0x3db3286a	0.08747943
38	0xbd74c797	-0.059760656
39	0xbdaa0d05	-0.083032645
40	0x3d1cf442	0.03831888
41	0xbdb3b991	-0.08775628
42	0xbd04dee1	-0.032439116
43	0x3a486f91	0.0007646019
44	0xbc97b15c	-0.018517189
45	0x3c9bcc42	0.019018296
46	0x3d15fbb1	0.036616985
47	0xbc4880f7	-0.012237779
48	0xbd9f2ff5	-0.07772819
49	0xbdf8fb32	-0.12157287
50	0xbd405981	-0.046960358
51	0x3d26fda7	0.040769245
52	0xbd05b4ae	-0.032643013
53	0x3d50d284	0.050982013
54	0x3c55b6c8	0.013044067
55	0xbcd45c65	-0.025922963
56	0x3d88e2b6	0.06683867
57	0x3d1258cf	0.035729226
58	0x3d8fdfb2	0.07025088
59	0x3d2ae21c	0.04171954
60	0xbd1757d0	-0.03694898
61	0xbd75f3f9	-0.060047124
62	0xbc5a40fe	-0.013321159
63	0x3d774dae	0.060376815
64	0xbd8791e5	-0.06619624
65	0xbda31d40	-0.07964563
66	0x3d4912f1	0.04909033
67	0x3d91254a	0.070871904
68	0xbda03d0b	-0.07824143
69	0xbd9ff867	-0.07811051
70	0xbdd653fb	-0.10465237
71	0x3d007974	0.031365827
72	0xb72b3a38	-1.0205949e-05
73	0xbd21b1d7	-0.039476242
74	0x3c69a3e4	0.014260266
75	0x3cec7085	0.028862247
76	0x3d8ff7d5	0.07029692
77	0x3d769264	0.060198203
78	0xbbe43c95	-0.0069652298
79	0xbd9598dd	-0.07304547
80	0xbdb363d9	-0.08759279
81	0x3d959276	0.07303326
82	0x3d5713b6	0.052509032
83	0x3d4398fb	0.047753315
84	0xbda1acb5	-0.078942694
85	0x3dbd75ce	0.09250985
86	0x3d7d6b23	0.06186975
87	0x3da48cbd	0.08034656
88	0xbd38b4c0	-0.04509425
89	0xbd70159b	-0.058614355
90	0xbe029149	-0.12750734
91	0x3da3521b	0.07974645
92	0xbd30f2c1	-0.04320026
93	0xbdd74e0f	-0.10512935
94	0x3cdb6a25	0.026784012
95	0xbd0d4fae	-0.034499817
96	0xbd42792c	-0.04747884
97	0xbbfd5830	-0.00773146
98	0xbba24aaa	-0.0049527483
99	0xbdf02c90	-0.117272496
100	0x3d6a1f24	0.057158604
101	0xbdcfc8ae	-0.101456985
102	0x3cfbde6a	0.030745704
103	0x3dc75870	0.09733665
104	0x3d461704	0.048361793
105	0x3cdfaecc	0.02730503
106	0x3d76cca0	0.06025374
107	0x3cc44867	0.023960305
108	0xbd6749db	-0.05646692
109	0x3da3c734	0.07996979
110	0x3ceea96a	0.029133517
111	0xbda5dd8e	-0.08098899
112	0xbd69f02c	-0.05711381
113	0xbd31ebb3	-0.04343767
114	0x3d37a3d3	0.04483397
115	0xbc77fe41	-0.015136302
116	0xbdada0c4	-0.08477929
117	0xb7b038d2	-2.1007294e-05
118	0x3d520cfa	0.051281907
119	0x3d099b4d	0.033595372
120	0x3cf2a670	0.02962038
121	0xbc153bd1	-0.0091085
122	0x3ca9d568	0.020731643
123	0xbc684d0f	-0.014178528
124	0xbdbc4f6e	-0.091948375
125	0xbdafcc2f	-0.08583867
126	0xbdae2018	-0.08502215
127	0x3d24a33c	0.040194735
128	0xbd05cca8	-0.03266588
129	0xbd251859	-0.040306423
130	0x3ca93670	0.02065584
131	0x3cd3783d	0.02581417
132	0xbd605f5a	-0.054778434
133	0x3d821d54	0.0635325
134	0xbd910299	-0.070805736
135	0x3daa5e46	0.083187625
136	0xbdc3e374	-0.095648676
137	0xbd3de432	-0.046360202
138	0x3d8bebc6	0.068320796
139	0xbc96fd01	-0.018431189
140	0x3c9d6e0e	0.019217517
141	0xbcdb9027	-0.026802136
142	0xbd1cc6d7	-0.038275566
143	0xbdaeccab	-0.08535131
144	0xbc285823	-0.01027492
145	0x3d98c07f	0.07458591
146	0x3c2790f4	0.010227431
147	0x3d2b3d3b	0.04180644
148	0x3b581896	0.0032973639
149	0x3d8f4a81	0.06996632
150	0x3d531f00	0.051543236
151	0xbd0beb80	-0.034160137
152	0xbcad57af	-0.021159975
153	0x3de68ab0	0.11256921
154	0x3c8da2d6	0.01728956
155	0x3dcb296e	0.099200115
156	0xbc4ed6be	-0.012624441
157	0x3daf9958	0.0857417
158	0xbde24d60	-0.11049914
159	0x3cd3eee2	0.025870744
160	0x3c6f6286	0.014610892
161	0xbd0b6104	-0.03402807
162	0x3d5a34cf	0.05327302
163	0x3db3b9dd	0.08775685
164	0x3bc5cf51	0.006036677
165	0x3bcc48e4	0.006234275
166	0x3dce0a3b	0.10060545
167	0xbd3a930f	-0.045550402
168	0x3dd57aa2	0.10423781
169	0xbc154c11	-0.009112374
170	0x3c8bfd4b	0.017088553
171	0xbc3e6eac	-0.011623066
172	0x39ef4370	0.00045635877
173	0x3d7f2d20	0.062298894
174	0xbd31b860	-0.043388724
175	0xbd941877	-0.07231229
176	0x3c9be3e6	0.019029569
177	0x3d48f27f	0.049059387
178	0x3c599921	0.013281138
179	0xbccfe668	-0.025378421
180	0x3dbccb03	0.09218409
181	0x3dac4e3e	0.08413361
182	0x3c20b5d4	0.009808976
183	0xbd78e2a2	-0.06076301
184	0x3cf8e7f6	0.030384045
185	0xbe29c771	-0.16579987
186	0x3c4af61e	0.0123877805
187	0x3cdd07d3	0.02698127
188	0xbd412fa7	-0.047164585
189	0x3afb0a8b	0.0019152922
190	0xbd68d233	-0.056841087
191	0x3a389841	0.00070417306
192	0xbd2ca8be	-0.042153113
193	0xba13889a	-0.000562796
194	0xbc90005f	-0.017578302
195	0x3dd9c185	0.10632614
196	0xbd22eb48	-0.039775163
197	0x3d27ddda	0.04098306
198	0x3d1bdf63	0.038054835
199	0xbda45fda	-0.08026095
200	0xbdca9538	-0.098917425
201	0xbde566e2	-0.11201264
202	0x3df396e9	0.11894018
203	0x3d0dbc2a	0.034603275
204	0x3b90aad0	0.0044148937
205	0x3ccc10e0	0.02491039
206	0x3da9fbab	0.08299955
207	0x3d8e8df5	0.0696067
208	0x3db647e8	0.08900434
209	0xbd3adb9e	-0.0456196
210	0x3d76c8fe	0.060250275
211	0xbc182446	-0.009285992
212	0xbc0c7025	-0.008571659
213	0x3cfb9f3e	0.030715581
214	0x3dc7c223	0.097538255
215	0xbda9517b	-0.08267494
216	0x3d9dfbac	0.07714018
217	0xbdcf7aa0	-0.10130811
218	0x3af36e0e	0.0018572228
219	0x3ddbe271	0.1073655
220	0x3d9ebfba	0.07751413
221	0x3d0be35f	0.034152385
222	0xbe1b97ca	-0.15194622
223	0x3dc9af67	0.098479085
224	0x3c58abdc	0.013224568
225	0xbd25ae51	-0.040449444
226	0x3cb4f200	0.02208805
227	0xbd6a7b57	-0.057246532
228	0xbd6d2f64	-0.057906523
229	0x3ce5eff1	0.028068515
230	0x3d463449	0.048389707
231	0xbbfeee79	-0.007779893
232	0x3d5ac078	0.05340621
233	0x3e12d53e	0.14339158
234	0x3dcbe4a1	0.09955717
235	0x3cac70c2	0.02104986
236	0xbcf3c1ec	-0.029755555
237	0x3c3e7262	0.011623951
238	0xbda123f1	-0.078681834
239	0x3cf83fa1	0.030303778
240	0x3d1bf129	0.038071785
241	0x3deaeb40	0.114706516
242	0x3d067888	0.03282979
243	0x3b9578ed	0.0045615346
244	0xbd00d293	-0.03145082
245	0x3d9b273a	0.07575841
246	0xbcad11f5	-0.021126727
247	0xbc06ec71	-0.008235083
248	0x3cea3aa5	0.028592417
249	0x3d290184	0.04126121
250	0xbd35169f	-0.044211026
251	0x3da1e0a9	0.07904179
252	0x3d4fb085	0.05070545
253	0xbdd73820	-0.10508752
254	0xbd1e0b1c	-0.038584813
255	0x3d4bdd95	0.049771864

bias f4 [128]
0	0xbcd89179	-0.026436554
1	0xbda299d6	-0.07939498
2	0xbd7d676c	-0.06186621
3	0x3a215dc1	0.0006155633
4	0xbd56a8a6	-0.05240693
5	0xbd7f122c	-0.06227319
6	0x3dc8b4be	0.09800099
7	0xbdb2e870	-0.0873574
8	0xbbb97aae	-0.0056603765
9	0x3d5358c0	0.05159831
10	0xbd26ff3e	-0.04077076
11	0x3d53dcb9	0.05172417
12	0xbd2c4b90	-0.04206425
13	0x3ad70d4b	0.001640716
14	0x3d8844d8	0.06653756
15	0xbccc4815	-0.024936715
16	0xbd50a1c9	-0.05093554
17	0xba6cfb9b	-0.00090401777
18	0xbad72e8b	-0.0016417069
19	0x3d858f1b	0.06521436
20	0x3cb93816	0.022609752
21	0x3d9fbcff	0.0779972
22	0xbd2a2085	-0.04153492
23	0xbd0d1205	-0.034441013
24	0xbbe1c48b	-0.006889885
25	0x3d745994	0.05965574
26	0x3dbc54f4	0.09195891
27	0x3d7d7318	0.06187734
28	0xbcdc0d4e	-0.026861813
29	0x3b3ad1a0	0.0028506294
30	0x3d9c8bb1	0.076438315
31	0x3d86e4f4	0.06586638
32	0x3de78f82	0.11306669
33	0x3d76c50e	0.06024652
34	0xbc326940	-0.010889351
35	0x3d85caec	0.06532845
36	0x3cc087e8	0.023502305
37	0xbce92ae2	-0.02846283
38	0x3dbc2c2d	0.09188113
39	0xbb2adec7	-0.0026072727
40	0x3de704dc	0.11280224
41	0x3d777a46	0.060419343
42	0xbc499894	-0.012304444
43	0xbda70a0b	-0.081562124
44	0xbdb19308	-0.08670622
45	0xbccd2ddf	-0.025046287
46	0x3d270bb9	0.040782664
47	0x3c0c1817	0.008550665
48	0x3cbc94fe	0.023020264
49	0xbd519d19	-0.05117521
50	0x3d661937	0.05617639
51	0xbcccf784	-0.025020368
52	0x3caf31c1	0.02138603
53	0xbd580f5f	-0.052749034
54	0x3c291b1e	0.010321407
55	0x3d1d0967	0.038339045
56	0x3d130b85	0.035899658
57	0xbdb73f2c	-0.08947596
58	0x3db62300	0.088933945
59	0xbd16301b	-0.03666697
60	0xbdaf4e8f	-0.08559906
61	0xbd4fd030	-0.050735652
62	0xbdbb5f62	-0.09149052
63	0x3ced068d	0.028933788
64	0x3d8c55d5	0.06852309
65	0x3da58f02	0.08083917
66	0x3d3e6ab8	0.046488494
67	0xbce8ae7a	-0.02840351
68	0x3cf0a647	0.029376162
69	0x3d17f4c2	0.037098654
70	0xbd692bcb	-0.05692653
71	0xbc6a11e9	-0.014286497
72	0x3cb4e6a0	0.022082627
73	0x3db75587	0.0895186
74	0x3d5cd49d	0.0539137
75	0xbcffd4a4	-0.031229325
76	0x3d093588	0.033498317
77	0x3d80f75a	0.062971786
78	0x3db299af	0.08720719
79	0xbd424ab9	-0.047434542
80	0x3ddab9d2	0.10679974
81	0xbc4303f0	-0.011902794
82	0xbd2630b7	-0.0405738
83	0x3bbcd0d9	0.0057622013
84	0x3da56b6c	0.0807713
85	0xbd4ebd8d	-0.05047374
86	0x3b893ba2	0.004188017
87	0xbd6832a3	-0.056688916
88	0x3b8c355d	0.0042788223
89	0x3d99258d	0.07477865
90	0xbd364f34	-0.044509128
91	0xbd22ed9f	-0.039777394
92	0x3a412367	0.0007367641
93	0x3d4fc2e5	0.050722975
94	0x3c223796	0.009900948
95	0xbc6425e9	-0.013925054
96	0x3cec3dbc	0.028838031
97	0x3d210e25	0.03932013
98	0x3daab17a	0.08334632
99	0x3d2e588f	0.042564925
100	0x3d3ea88b	0.046547454
101	0x3d08e3f1	0.033420507
102	0x3c8cd204	0.017189987
103	0x3c55e21d	0.013054398
104	0xbd28896f	-0.041146692
105	0xbceedc03	-0.029157644
106	0x3cacbb68	0.021085456
107	0x3d083264	0.03325118
108	0xbcfb16e5	-0.030650565
109	0xbcc60ec9	-0.024176972
110	0x3db18b24	0.08669117
111	0x3c52a92b	0.012857716
112	0x3d50b879	0.050957177
113	0x3d826f8c	0.06368932
114	0x3ce90d26	0.028448652
115	0x3c72450c	0.01478697
116	0xbc9e5860	-0.01932925
117	0x3d83e25b	0.06439658
118	0xbd0d8c28	-0.03455749
119	0xbcb9b26e	-0.02266809
120	0xbd827258	-0.063694656
121	0x3c6be4ff	0.014397859
122	0xbd801389	-0.06253726
123	0xbc8492f2	-0.01618335
124	0xbd08898d	-0.033334304
125	0x3d78fc9b	0.06078778
126	0x3d6e615a	0.05819831
127	0x3db8d7c7	0.09025531

weight f4 [1, 128]
0	0xbd873f72	-0.06603898
1	0x3e0c7108	0.13714993
2	0xbd9473c8	-0.07248646
3	0x3d0003b1	0.03125352
4	0x3cbffcac	0.023435913
5	0xbdd18f79	-0.10232443
6	0x3dbd72f2	0.0925044
7	0x3d6e9372	0.058246084
8	0x3e250f95	0.16119225
9	0x3d9a11b1	0.075229056
10	0x3d327b20	0.043574452
11	0xbdba26d8	-0.0908944
12	0x3dc6c973	0.09706392
13	0xbdba88c1	-0.09108115
14	0x3df9d7c9	0.12199361
15	0xbe1e4cf9	-0.1545905
16	0xbd115b97	-0.035487738
17	0xbd81846b	-0.06324085
18	0xbd62498f	-0.055245932
19	0xbd9aee9b	-0.07565042
20	0xbd1fcaca	-0.039011754
21	0xbdc234c1	-0.09482718
22	0xbd5a9961	-0.05336893
23	0xbda7bafd	-0.08189962
24	0x3d574441	0.052555326
25	0x3e002811	0.12515284
26	0xbc4cca6d	-0.012499434
27	0x3da49078	0.08035368
28	0x3d9f63da	0.07782717
29	0xbd9d4e06	-0.076808974
30	0xbd31903f	-0.043350454
31	0x3dc10a7d	0.094258286
32	0x3df54680	0.119763374
33	0x3cdd9939	0.027050601
34	0xbc59921a	-0.013279462
35	0x3d94c52e	0.072641715
36	0xbda13c2c	-0.07872805
37	0x3dfd2e50	0.12362349
38	0xbda95de5	-0.08269862
39	0x3d891818	0.06694049
40	0xbd388f66	-0.04505863
41	0xbdd46a32	-0.10371818
42	0xbe3352b3	-0.17512016
43	0xbd398ffa	-0.045303322
44	0x3b950be5	0.004548537
45	0x3dc61faf	0.09674012
46	0xbd273f27	-0.04083171
47	0xbd415796	-0.04720267
48	0xbe093968	-0.13400805
49	0x3d8a0417	0.06739061
50	0x3ddb2fef	0.10702502
51	0xbdbc7e68	-0.092037976
52	0xbca31788	-0.019908682
53	0x3dfca9de	0.12337087
54	0x3da714ec	0.081582874
55	0xbdaef97d	-0.0854368
56	0xbe1c27e8	-0.15249598
57	0x3e00fd01	0.12596513
58	0xbd55e20c	-0.05221753
59	0x3dcb1b45	0.099173106
60	0xbdaebf96	-0.08532636
61	0x3dafe273	0.08588114
62	0x3c0da84c	0.008646082
63	0xbc76760a	-0.015042791
64	0xbd83cc89	-0.06435496
65	0x3d1dd4e9	0.038533125
66	0xbd7f635b	-0.062350612
67	0xbd5b6b54	-0.053569153
68	0xbd99be05	-0.075069465
69	0x3deed3aa	0.116614655
70	0x3d8ff1eb	0.07028564
71	0xbc931225	-0.017952988
72	0x3c8ead1c	0.01741653
73	0x3dcbc915	0.09950463
74	0xbdf1adbf	-0.118007176
75	0x3d409c40	0.04702401
76	0x3dea68e9	0.11445791
77	0x3d8338f7	0.064073496
78	0xbd79b35c	-0.060962066
79	0xbd51e929	-0.05124775
80	0xbd4c354d	-0.04985552
81	0x3dcf42a7	0.10120135
82	0xbd76141a	-0.060077764
83	0xbdb5ce9e	-0.088773
84	0xbd091f3d	-0.033477057
85	0x3d138484	0.03601505
86	0xbe2521e1	-0.16126205
87	0xbb160c7c	-0.0022895625
88	0x3c8be25e	0.017075714
89	0xbd304727	-0.043036606
90	0xbdcdc56f	-0.10047423
91	0xbd4f7852	-0.050651856
92	0xbd5ced34	-0.053937152
93	0x3d84ca4d	0.06483898
94	0xbe03c282	-0.12867168
95	0x3d4b13b5	0.04957934
96	0xbe0f05de	-0.13967082
97	0x3da0f8d7	0.078599624
98	0xbd6bcb83	-0.05756713
99	0x3d57d6e7	0.05269518
100	0xbd3a0e28	-0.045423657
101	0x3d4af438	0.04954931
102	0xbda0c896	-0.07850759
103	0xbd1e9d38	-0.038724154
104	0xbe01d491	-0.12678744
105	0x3ded0796	0.115737125
106	0xbdabfe2d	-0.083980896
107	0x3d87c4a3	0.06629302
108	0xbdda44cd	-0.10657654
109	0x3df7a506	0.120920226
110	0xbd5b8855	-0.053596813
111	0xbdebbd4a	-0.115107134
112	0x3b40f7a8	0.002944449
113	0xbe5ed982	-0.2176266
114	0x3d30316f	0.043015894
115	0x3e1866ca	0.14882961
116	0xbcd8e296	-0.026475232
117	0xbd95f849	-0.07322747
118	0x3e0fdbeb	0.14048736
119	0x3d8a9e92	0.06768526
120	0x3bafefb0	0.005369149
121	0x3d843053	0.064545296
122	0xbdb2a9aa	-0.08723767
123	0xbdbd081a	-0.09230061
124	0x3cc2c628	0.023776129
125	0x3d2bb188	0.041917354
126	0xbd86daee	-0.06584726
127	0xbdcf6fbd	-0.10128734
