src/test_model_pth/continue/test_pendulum_td3.pth (torch, 871476 bytes, 60 tensors)

weight f4 [128, 3]
0.29394487 -0.23769316 -0.15925328 0.24827734 -0.5478778 0.38218406 -0.12351104 0.33536822
0.066021524 -0.065658905 0.22391313 0.006303202 0.23474164 -0.2573553 -0.07648354 -0.051977277
0.08368343 -0.0023064017 0.5261342 0.17486082 -0.23786466 -0.35215297 -0.1273856 -0.2844251
-0.19554366 0.09965185 0.3492621 0.26326197 -0.57027 0.42464903 0.1645269 0.5974779
0.37517 -0.54146135 -0.6306853 -0.26824105 0.463613 -0.10964638 0.27983415 -0.26793608
0.55930454 -0.30137992 0.4865266 -0.0117812455 -0.30652094 0.26264146 -0.33542478 0.1932301
-0.14450641 -0.08003701 -0.5436086 -0.27181947 0.37607613 -0.15848607 0.56162804 0.546151
0.015185786 -0.3431732 0.39930335 0.19037353 -0.3758115 0.45111004 0.3529519 0.50150406
-0.33319733 -0.1595936 0.025722852 0.09373517 -0.45580032 -0.4943752 0.23411162 -0.17286845
0.26817983 0.065914124 0.22182944 0.18946786 0.26273048 0.29021806 -0.56254053 0.2793137
-0.44538927 -0.4927935 0.103901766 -0.0927512 0.39922997 -0.3614387 -0.49692404 0.4099041
-0.12438915 0.3848695 0.13671473 -0.4839988 0.13082257 0.15397274 -0.4178288 -0.25209412
0.21018013 0.15092134 -0.2709903 -0.10792548 0.56031656 -0.19958352 0.34491444 0.2664868
-0.39549005 -0.50034505 0.5553943 -0.0548332 0.34106275 0.1377974 0.29625186 0.48342
0.5152927 -0.3853054 0.12675169 0.44435748 0.4125995 0.40065542 -0.43438718 -0.387099
-0.3824752 0.12993836 0.5606878 -0.3628857 0.32200763 -0.36707738 -0.58693033 -0.07874577
0.34646112 0.5751914 -0.3904886 0.10598089 0.5805713 0.34812713 0.35932812 0.42374814
0.3464821 0.20677432 -0.39399904 -0.56029356 -0.24139948 -0.18120664 -0.34198356 0.26700696
0.24734226 -0.095259614 0.24045987 0.24226476 0.38918686 0.3943466 -0.1805818 0.60965586
-0.10076008 0.0051023224 -0.55248916 -0.38681966 -0.37386477 -0.17495473 0.42229915 -0.23713669
-0.45790178 0.23658219 0.14857297 0.418052 -0.30025375 0.08481236 -0.21972832 -0.082450315
-0.47765693 -0.33197346 -0.1737764 0.23987542 0.16567366 0.13547291 0.5566837 0.5461915
0.44113946 -0.015896214 -0.3114462 0.4796679 -0.21616036 -0.08717163 -0.4761287 -0.12639706
-0.30487004 0.5569786 -0.5249051 -0.43558076 -0.009155618 -0.29903975 0.23938036 -0.2536668
-0.30685213 0.11269982 0.4418478 -0.33618432 0.31624156 0.38182163 0.4987263 -0.457733
0.1765278 -0.41354913 0.5356524 -0.24762397 0.33534014 0.045919057 -0.03290883 0.016163236
0.16320325 0.27328122 0.10153827 0.13809964 -0.5360626 0.40216395 0.503681 0.47241127
0.42985326 -0.42743045 -0.22656658 0.50945383 -0.44224784 0.58108586 -0.49414542 -0.36335152
0.3039946 -0.42020357 -0.074742354 0.4332723 0.48109147 0.612532 -0.11450572 -0.45866618
0.54349 -0.15419424 -0.2293725 0.18268822 -0.43930548 0.4065006 0.339455 -0.4694031
-0.51458895 0.035647765 0.20793372 -0.053285666 -0.24976742 0.03891161 -0.6190385 -0.45535526
-0.36757946 0.4875963 0.5038147 -0.23259723 0.06012032 0.32240954 0.06795642 -0.27772498
00000000: f17f 963e d665 73be 4b13 23be 6a3c 7e3e
00000010: b841 0cbf a1ad c33e 5bf3 fcbd 62b5 ab3e
00000020: 4b36 873d 2d78 86bd 7c49 653e 178b ce3b
00000030: 1d60 703e 13c4 83be 67a3 9cbd 20e6 54bd
00000040: 3862 ab3d 0027 17bb bbb0 063f b70e 333e
00000050: cb92 73be 654d b4be 5f71 02be 2ba0 91be
00000060: 993c 48be 4516 cc3d 7bd2 b23e 46ca 863e
00000070: 37fd 11bf 996b d93e bd79 283e 50f4 183f
00000080: 4816 c03e 369d 0abf 9874 21bf e456 89be
00000090: af5e ed3e 488e e0bd 6c46 8f3e eb2e 89be
000000a0: 952e 0f3f 784e 9abe 041a f93e 2006 41bc
000000b0: 50f0 9cbe f178 863e ccbc abbe 1dde 453e
000000c0: 7df9 13be 72ea a3bd ef29 0bbf ec2b 8bbe
000000d0: 0d8d c03e 2c4a 22be dbc6 0f3f 8dd0 0b3f
000000e0: cecd 783c 66b4 afbe 7d71 cc3e 47f1 423e
000000f0: 5d6a c0be e5f7 e63e 1db6 b43e 9262 003f
00000100: d798 aabe 816c 23be bbb8 d23c 3af8 bf3d
00000110: a95e e9be bf1e fdbe f5ba 6f3e 6d04 31be
00000120: de4e 893e fcfd 863d 4227 633e dd03 423e
00000130: 9c84 863e 7697 943e a802 10bf 3502 8f3e
00000140: 100a e4be 6e4f fcbe 73ca d43d 57f4 bdbd
00000150: df67 cc3e 7e0e b9be d46c febe f3de d13e
00000160: bdbf febd 9d0d c53e f2fe 0b3e b1ce f7be
00000170: 5af6 053e 08ab 1d3e a8ed d5be 7b12 81be
00000180: 7639 573e 208b 1a3e 3ebf 8abe 0908 ddbd
00000190: e870 0f3f 9f5f 4cbe a098 b03e f570 883e
000001a0: ac7d cabe 9d16 00bf 522e 0e3f c798 60bd
000001b0: c79f ae3e c31a 0d3e 53ae 973e d482 f73e
000001c0: 39ea 033f c046 c5be 32cb 013e d382 e33e
000001d0: 3e40 d33e b522 cd3e ff67 debe d731 c6be
000001e0: cad3 c3be 900e 053e 3c89 0f3f 28cc b9be
000001f0: 2fde a43e 91f1 bbbe 1141 16bf 7645 a1bd
00000200: 5a63 b13e be3f 133f 1fee c7be 820c d93d
00000210: 52a0 143f b83d b23e dbf9 b73e 84f5 d83e
00000220: 1a66 b13e a6bc 533e 3eba c9be 666f 0fbf
00000230: 6d31 77be 3c8e 39be 7818 afbe 23b5 883e
00000240: 4a47 7d3e 7917 c3bd 1d3b 763e 4114 783e
00000250: 8043 c73e cce7 c93e 6fea 38be 6812 1c3f
00000260: 4d5b cebd 6231 a73b ee6f 0dbf 3a0d c6be
00000270: 346b bfbe 5527 33be 9837 d83e f6d3 72be
00000280: 1a72 eabe 9a42 723e 8323 183e e90a d63e
00000290: dcba 99be 1ab2 ad3d 7600 61be b6db a8bd
000002a0: 738f f4be 6df8 a9be 71f2 31be e7a1 753e
000002b0: 5ba6 293e 69b9 0a3e d382 0e3f 35d3 0b3f
000002c0: 08dd e13e c738 82bc e075 9fbe 0897 f53e
000002d0: 2459 5dbe 0a87 b2bd 24c7 f3be 3b6e 01be
000002e0: ed17 9cbe 2696 0e3f 2e60 06bf 7104 dfbe
000002f0: 7201 16bc bd1b 99be 2020 753e 9de0 81be
00000300: b91b 9dbe 2acf e63d e039 e23e 5a20 acbe
00000310: 6aea a13e 207e c33e 0e59 ff3e fb5b eabe
00000320: b4c3 343e b6bc d3be 8420 093f 2391 7dbe
00000330: b4b1 ab3e 9f15 3c3d 69cb 06bd c368 843c
00000340: c11e 273e 84eb 8b3e 4cf3 cf3d fe69 0d3e
00000350: 663b 09bf 6fe8 cd3e 3df1 003f e4df f13e
00000360: ba15 dc3e 2ad8 dabe 1201 68be 916b 023f
00000370: 4f6e e2be 0bc2 143f a100 fdbe 3609 babe
00000380: 2ea5 9b3e ec24 d7be 8512 99bd ded5 dd3e
00000390: 9f51 f63e e6ce 1c3f fa81 eabd 4bd6 eabe
000003a0: 2922 0b3f 18e5 1dbe a0e0 6abe 9f12 3b3e
000003b0: a6ec e0be d920 d03e 0ccd ad3e 9a55 f0be
000003c0: 1abc 03bf 6403 123d 94ec 543e 1242 5abd
000003d0: 08c3 7fbe c861 1f3d 4f79 1ebf 5324 e9be
000003e0: 6033 bcbe 39a6 f93e 00fa 003f f82d 6ebe
000003f0: ba40 763d dd12 a53e bc2c 8b3d f831 8ebe

bias f4 [128]
-0.34973955 0.38505635 0.21448244 0.15271644 -0.055308543 -0.18017384 0.10699224 0.45757544
0.09681301 -0.2546982 0.5839041 0.035077203 0.49253556 0.14093298 0.50743365 0.35678405
-0.32054728 0.40513757 0.038497683 -0.47086993 -0.108687244 -0.49652255 -0.30042416 -0.33307695
0.41297275 -0.15312083 -0.07540804 0.3205171 0.21197143 -0.35100383 0.2457977 0.24198261
-0.4488242 0.45643392 -0.3441821 -0.21165544 -0.38956797 0.4907273 0.08129001 0.47065786
0.07261324 0.2970043 -0.14539087 -0.43901965 0.050266642 -0.022592826 -0.05570925 -0.19127394
-0.03614898 0.1312911 0.21381521 -0.46324572 0.31403777 0.09322576 0.44684845 0.4560043
-0.42764992 0.5618325 -0.5544713 0.3612296 0.100714974 0.28636009 -0.29100633 0.3327396
-0.2509859 -0.54577154 0.256561 0.31752315 0.58845556 -0.088155136 0.5419199 0.37520444
-0.28418168 -0.43668264 0.35548133 -0.30545226 0.2988232 -0.50134254 0.41884348 0.1476375
-0.032230962 0.29953948 -0.355411 -0.14590202 -0.014073826 -0.32470748 -0.11910787 -0.2856803
0.5820459 0.45279998 0.52636296 0.4701529 -0.54798764 0.23032841 0.20927021 -0.36844784
0.24631542 -0.29513907 0.07422236 0.15234564 0.52372766 -0.31518674 -0.41137743 0.531753
0.25245953 0.3141528 0.20955428 -0.2056567 0.3338973 -0.48508134 0.042790525 0.21678059
0.3969621 -0.28365844 -0.3516509 0.2132825 -0.41313106 -0.48626533 -0.55021775 -0.25066277
-0.06961737 -0.28710285 -0.20616785 -0.39747113 0.37022096 -0.04090865 -0.3203022 0.13143204
00000000: 1011 b3be 1b26 c53e 49a1 5b3e b361 1c3e
00000010: 368b 62bd 7e7f 38be bf1e db3d 5447 ea3e
00000020: e645 c63d cd67 82be bd7a 153f 1dad 0f3d
00000030: 9f2d fc3e bc50 103e 2ce7 013f 66ac b63e
00000040: c61e a4be 316e cf3e bfaf 1d3d dd15 f1be
00000050: 6b97 debd 3438 febe 32d1 99be 1089 aabe
00000060: 2a71 d33e b5cb 1cbe 886f 9abd d11a a43e
00000070: 0a0f 593e c6b6 b3be 64b2 7b3e 4aca 773e
00000080: 49cc e5be b5b1 e93e a338 b0be 34bc 58be
00000090: 7475 c7be 9c40 fb3e 607b a63d 11fa f03e
000000a0: 40b6 943d f310 983e 58e1 14be 2fc7 e0be
000000b0: 65e4 4d3d 9714 b9bc 622f 64bd 51dd 43be
000000c0: f410 14bd 2d71 063e 60f2 5a3e 8b2e edbe
000000d0: 8fc9 a03e 26ed be3d 52c9 e43e 6579 e93e
000000e0: eef4 dabe 41d4 0f3f d5f1 0dbf 16f3 b83e
000000f0: a743 ce3d ca9d 923e c8fe 94be d85c aa3e
00000100: 3981 80be afb7 0bbf f75b 833e 6592 a23e
00000110: 06a5 163f ae8a b4bd 43bb 0a3f cc1a c03e
00000120: 4380 91be de94 dfbe a601 b63e 3d64 9cbe
00000130: 5bff 983e fc57 00bf a772 d63e 492e 173e
00000140: 9d04 04bd 3d5d 993e 6ef8 b5be 5767 15be
00000150: e895 66bc 0f40 a6be d4ee f3bd b044 92be
00000160: f600 153f 66d5 e73e b9bf 063f e2b7 f03e
00000170: eb48 0cbf 36db 6b3e ee4a 563e 32a5 bcbe
00000180: 1c3a 7c3e 781c 97be e501 983d 7f00 1c3e
00000190: 0413 063f 2860 a1be 10a0 d2be f720 083f
000001a0: 6042 813e a3d8 a03e 6695 563e ac97 52be
000001b0: 96f4 aa3e 955c f8be 1e45 2f3d bbfb 5d3e
000001c0: 9e3e cb3e ae3b 91be 960b b4be ba66 5a3e
000001d0: ea85 d3be c5f7 f8be 12db 0cbf df56 80be
000001e0: 8d93 8ebd 25ff 92be aa1d 53be 5681 cbbe
000001f0: 9a8d bd3e d48f 27bd a6fe a3be 1f96 063e

weight f4 [128, 128]
-0.017283713 0.068127975 0.04857994 -0.0874464 -0.045907795 -0.0582812 -0.021137917 0.027542187
-0.085119784 -0.094472 0.03581378 -0.01094571 -0.03687779 -0.10897873 0.05971051 0.012323487
-0.006987076 -0.05365015 -0.016662028 0.016419677 0.035678215 0.06115565 0.013943615 -0.11996033
0.054930218 -0.025745332 -0.07498014 0.10164584 0.085712984 -0.1083279 -0.029317224 6.178108e-05
-0.021898443 0.02399977 -0.028000353 0.08293871 -0.08812847 0.059612405 -0.0057186703 -0.0060711834
0.06108521 -0.08248031 -0.038286895 0.014719228 0.04225504 -0.07368584 -0.034840044 -0.056390997
-0.061860565 -0.040981118 -0.03811808 -0.014550921 0.035806112 0.014697328 -0.075064614 -0.021083519
0.025717607 -0.0026011374 0.021110315 -0.008032908 -0.04971482 -0.060344696 -0.008353295 -0.022073483
0.0077543976 -0.032940567 0.021335145 -0.04345792 0.070626356 0.011879506 -0.017458232 0.06898608
0.054050617 -0.094143234 -0.03457808 0.057152696 0.024584161 0.06709521 -0.010022609 0.088188626
0.053897507 0.050557833 -0.008323862 0.1070113 -0.0011590695 -0.0315582 -0.005369979 0.05705943
0.0674319 -0.024439607 0.084617555 0.07257908 -0.0354084 -0.07495705 0.07261725 0.08382084
-0.04662486 0.032382358 0.037911683 0.011982605 -0.014252913 0.045733754 0.0356933 0.08039317
0.04200385 0.050214723 0.083859324 0.057759177 0.04592463 -0.027165428 0.049437333 0.015713265
0.07427366 0.12112433 -0.064034626 0.080650434 -0.0121167125 0.118440345 0.032837152 0.020148173
0.013101555 -0.099718645 -0.018730987 -0.04598511 0.0057381107 -0.033235196 -0.024574516 -0.07134343
-0.014553759 -0.081587665 0.089925624 0.09911194 0.04700775 0.039119042 -0.09717455 0.11391398
-0.096808314 -0.074093394 -0.052161425 0.06657692 -0.09951339 -0.008721597 -0.05207339 -0.09764856
-0.047418024 0.11584963 0.04657754 0.0011344389 -0.09813083 0.09603227 -0.034312103 -0.055144105
0.055816043 0.0066742427 0.11288023 -0.03717512 -0.09461346 -0.012387348 -0.012088917 0.0014283493
-0.1268377 0.049653944 -0.040798068 0.053985164 0.05409684 -0.056238215 0.05837275 -0.039173603
0.038663533 0.10520083 -0.08713423 -0.06842947 0.06942615 -0.002594188 0.061793778 -0.16246498
-0.044702142 -0.065001816 0.07376812 -0.07342887 -0.08369558 -0.058682308 -0.014946031 -0.05907853
0.049709845 -0.017080635 0.1651521 0.029491324 -0.039027836 -0.08367685 0.0011207695 0.08246838
-0.06067032 -0.07231521 0.03802865 0.11400236 0.09914665 -0.09141489 0.0050225924 -0.009163773
0.0630568 -0.041424103 -0.05692945 -0.055654984 -0.0074815187 0.01191513 0.044502556 -0.067732096
0.05393939 0.064541996 0.045714926 -0.11509332 0.082710445 0.029335693 -0.035292536 -0.028308008
-0.009151956 -0.0010517228 0.105408825 0.07365309 -0.014246874 -0.0795731 0.032442294 -0.057358313
0.0684336 -0.10006209 0.038786802 -0.022212207 -0.06828594 -0.07357237 0.03324089 0.03620808
-0.08654713 0.045609593 0.06386402 0.054135732 0.05357927 0.030796353 0.061762348 0.10088878
0.048166804 -0.07792516 -0.0032833458 0.098922186 -0.0014006265 0.030915823 0.025416842 -0.09382294
-0.11588481 0.017339112 0.055641886 -0.19483736 -0.032646637 -0.060025074 -0.1164797 0.05076728
00000000: 9396 8dbc ae86 8b3d c2fb 463d 1917 b3bd
00000010: d009 3cbd 44b8 6ebd 6d29 adbc 27a0 e13c
00000020: 4853 aebd 897a c1bd 78b1 123d a355 33bc
00000030: 2a0d 17bd 3e30 dfbd 0293 743d 73e8 493c
00000040: d7f3 e4bb 42c0 5bbd ce7e 88bc 8f82 863c
00000050: 5223 123d 597e 7a3d c373 643c c3ad f5bd
00000060: 82fe 603d e0e7 d2bc 308f 99bd b22b d03d
00000070: 4a8a af3d 05db ddbd ad2a f0bc 7790 8138
00000080: 5d64 b3bc 2a9b c43c ff60 e5bc c5db a93d
00000090: b37c b4bd 232c 743d af63 bbbb c7f0 c6bb
000000a0: 7c34 7a3d 70eb a8bd b8d2 1cbd eb28 713c
000000b0: 9f13 2d3d 9ae8 96bd 6fb4 0ebd 3ffa 66bd
000000c0: 8161 7dbd d1db 27bd b421 1cbd fc66 6ebc
000000d0: 6ea9 123d 10cd 703c 7abb 99bd 58b7 acbc
000000e0: bbad d23c d877 2abb 8aef ac3c 759c 03bc
000000f0: c4a1 4bbd 002c 77bd 42dc 08bc 73d3 b4bc
00000100: 9a18 fe3b b0ec 06bd 0bc7 ae3c ef00 32bd
00000110: 8da4 903d 42a2 423c 9104 8fbc 9348 8d3d
00000120: 2e64 5d3d 2bce c0bd bfa1 0dbd f218 6a3d
00000130: b964 c93c 3769 893d de35 24bc 3d9c b43d
00000140: a2c3 5c3d bb15 4f3d cf60 08bc be28 db3d
00000150: ebeb 97ba 2c43 01bd a6f6 afbb 26b7 693d
00000160: bc19 8a3d 9235 c8bc f84b ad3d 57a4 943d
00000170: 6608 11bd 1583 99bd 5ab8 943d 43aa ab3d
00000180: b6f9 3ebd 5da3 043d 4849 1b3d b052 443c
00000190: 0d85 69bc 5153 3b3d 2333 123d 2da5 a43d
000001a0: 3b0c 2c3d f4ad 4d3d 70be ab3d e394 6c3d
000001b0: 771b 3c3d 088a debc cd7e 4a3d 1bb9 803c
000001c0: ca1c 983d 0810 f83d 9624 83bd 0e2c a53d
000001d0: 2d85 46bc da90 f23d 4080 063d c80d a53c
000001e0: e8a7 563c 4a39 ccbd ba71 99bc e25a 3cbd
000001f0: c306 bc3b a121 08bd 7f50 c9bc 811c 92bd
00000200: e472 6ebc 6f17 a7bd ed2a b83d 33fb ca3d
00000210: 338b 403d 4a3b 203d 7303 c7bd bc4b e93d
00000220: 7043 c6bd 47be 97bd 38a7 55bd 7b59 883d
00000230: adcd cbbd 07e5 0ebc e84a 55bd f8fb c7bd
00000240: 6739 42bd 9242 ed3d 17c8 3e3d 74b1 943a
00000250: d1f8 c8bd 91ac c43d d98a 0cbd c9de 61bd
00000260: 5d9f 643d 9bb3 da3b c02d e73d f044 18bd
00000270: b4c4 c1bd 4ef4 4abc 9810 46bc 7337 bb3a
00000280: bee1 01be ef61 4b3d e01b 27bd 8c1f 5d3d
00000290: a694 5d3d 0b5a 66bd 4418 6f3d 8074 20bd
000002a0: a75d 1e3d 8873 d73d 6e73 b2bd c024 8cbd
000002b0: 4c2f 8e3d 4103 2abb 791b 7d3d 385d 26be
000002c0: 9819 37bd ac1f 85bd bd13 973d e061 96bd
000002d0: 9768 abbd dc5c 70bd 33e0 74bc 54fc 71bd
000002e0: 8d9c 4b3d b0ec 8bbc a21d 293e ca97 f13c
000002f0: a7db 1fbd c55e abbd c9e6 923a 2fe5 a83d
00000300: 7181 78bd ff19 94bd eec3 1b3d 127a e93d
00000310: 660d cb3d bb37 bbbd 8f94 a43b a623 16bc
00000320: ec23 813d 52ac 29bd db2e 69bd 7bf6 63bd
00000330: 8727 f5bb ad37 433c 5048 363d 20b7 8abd
00000340: 8def 5c3d 982e 843d 933f 3b3d 0cb6 ebbd
00000350: 1864 a93d 6851 f03c e88e 10bd 32e6 e7bc
00000360: 16f2 15bc f6d9 89ba 95e0 d73d 6ed7 963d
00000370: b86b 69bc 39f7 a2bd 36e2 043d 8df0 6abd
00000380: ea26 8c3d 5aed ccbd e9de 1e3d 60f6 b5bc
00000390: 80d9 8bbd 1cad 96bd 9927 083d ec4e 143d
000003a0: 9f3f b1bd 20d1 3a3d 24cb 823d 6ebd 5d3d
000003b0: f075 5b3d a248 fc3c 84fa 7c3d c79e ce3d
000003c0: 8e4a 453d 3a97 9fbd 672d 57bb b797 ca3d
000003d0: 3a95 b7ba 2e43 fd3c fb36 d03c 3e26 c0bd
000003e0: 0455 edbd c10a 8e3c bfe8 633d 7283 47be
000003f0: 7bb8 05bd dadc 75bd e98c eebd 5af1 4f3d

bias f4 [128]
0.097599365 0.03198565 -0.03417787 -0.08118853 -0.0066501577 0.035996053 0.041441422 -0.014434277
-0.04152851 0.08806249 0.02593169 -0.06535098 0.021773867 0.053962488 -0.008694931 -0.008235127
-0.040205106 0.018442782 0.006755189 0.017515887 0.020258661 0.07543122 -0.023238137 0.07969657
0.08539311 -0.04458543 -0.055886928 0.04133203 -0.0022810674 0.0009886995 -0.08404066 0.008699098
0.01636101 0.04366752 0.098088644 0.050763447 -0.020448223 0.0045237564 -0.053036332 0.00826668
0.04902322 -0.07075406 -0.023528341 0.0045557427 -0.019728689 -0.028215194 -0.0127015775 -0.056507993
0.018586019 0.016740266 0.10038408 0.00801524 -0.052104432 0.063745126 0.024535164 0.039728444
-0.012050884 -0.040380634 -0.0802283 0.10790051 -0.052285023 0.021438316 -0.05111228 0.023700148
0.05726608 0.0064475243 0.019262964 0.12854704 -0.04598918 -0.02174032 0.00034139014 -0.020182671
-0.08644145 -0.011130844 0.0052125505 0.047630005 -0.022542093 0.059016105 0.03311685 0.096455306
-0.046634797 0.0273996 -0.055479813 -0.08887806 0.0037465866 -0.0631232 -0.0059972103 -0.047005467
-0.04561546 -0.045450117 -0.037563097 -0.07519177 0.03260686 -0.06539397 -0.008311042 0.020706948
0.058591377 0.065331124 0.05977618 0.038905248 -0.046520475 -0.043991715 -0.015358979 -0.00015635947
0.10910413 0.10423936 -0.09585312 -0.036655415 -0.05973075 -0.0431758 -0.078578204 -0.0023101696
0.012006822 0.028523827 0.07290715 -0.004971507 -0.02074964 0.06504771 0.039211307 0.030291626
0.025108824 0.0056383135 0.093387164 -0.022910582 0.07811831 0.014173853 -0.033841863 -0.044433083
00000000: 2de2 c73d 6303 033d 18fe 0bbd 2c46 a6bd
00000010: 91e9 d9bb 9970 133d 7bbe 293d bf7d 6cbc
00000020: cd19 2abd 1b5a b43d b26e d43c bcd6 85bd
00000030: 1c5f b23c c507 5d3d 2f75 0ebc a0ec 06bc
00000040: 1cae 24bd 5115 973c a25a dd3b 7a7d 8f3c
00000050: 7ef5 a53c af7b 9a3d e85d bebc f537 a33d
00000060: 95e2 ae3d 369f 36bd b1e9 64bd c64b 293d
00000070: f67d 15bb 4097 813a 821d acbd a986 0e3c
00000080: 8607 863c b7dc 323d b3e2 c83d 55ed 4f3d
00000090: 0883 a7bc 053c 943b a03c 59bd f870 073c
000000a0: 92cc 483d 81e7 90bd 82be c0bc 5748 953b
000000b0: 0f9e a1bc 8d23 e7bc 471a 50bc ed74 67bd
000000c0: b541 983c e222 893c 2b96 cd3d 5a52 033c
000000d0: 756b 55bd ce8c 823d f8fd c83c 4bba 223d
000000e0: 1271 45bc 2a66 25bd bc4e a4bd f1fa dc3d
000000f0: d228 56bd 689f af3c 1c5b 51bd d026 c23c
00000100: d68f 6a3d c145 d33b 5dcd 9d3c d6a1 033e
00000110: 275f 3cbd c118 b2bc 9cfc b239 2156 a5bc
00000120: 3708 b1bd 255e 36bc 0bce aa3b ae17 433d
00000130: 32aa b8bc dfba 713d 89a5 073d 5c8a c53d
00000140: 2104 3fbd 2075 e03c cd3e 63bd b305 b6bd
00000150: 4b89 753b bc46 81bd 3f84 c4bb ce88 40bd
00000160: 47d7 3abd e729 3abd c3db 19bd 25fe 99bd
00000170: c58e 053d 46ed 85bd 092b 08bc 9ea1 a93c
00000180: 83fd 6f3d 53cc 853d ded7 743d 1c5b 1f3d
00000190: 418c 3ebd a830 34bd 3aa4 7bbc 6df4 23b9
000001a0: fc71 df3d 727b d53d a44e c4bd fd23 16bd
000001b0: 3ba8 74bd 1cd9 30bd 9ced a0bd 3766 17bb
000001c0: 43b8 443c cdaa e93c 5850 953d 06e8 a2bb
000001d0: 26fb a9bc bc37 853d 099c 203d 2526 f83c
000001e0: 05b1 cd3c 9ac1 b83b c541 bf3d f9ae bbbc
000001f0: 7efc 9f3d 7339 683c c49d 0abd 77ff 35bd

weight f4 [1, 128]
0.05885529 -0.11928761 -0.045993544 -0.08023138 -0.04329094 0.063743904 0.0826713 0.10629452
0.047416877 0.08549463 -0.010714776 -0.11513509 0.035657175 0.09331382 0.020211624 -0.013355412
0.06647968 -0.07914543 -0.14713964 -0.07003272 0.13525303 -0.06751941 -0.065202616 0.05088584
0.09338342 0.03966826 -0.04601222 -0.05345368 0.029419092 0.030047879 -0.02524557 -0.063821964
0.03411636 0.061915662 -0.07539054 -0.017399186 -0.108823955 0.046269394 -0.070260294 0.08179451
0.080814384 -0.074599706 -0.07243806 -0.079734124 -0.12015791 0.10064333 -0.0080421595 0.07038403
0.08741259 -0.03333329 0.1530668 0.006668684 0.08604534 0.012946674 0.12163052 0.07198856
-0.03523573 0.07967825 0.00044261664 -0.19661553 0.07669121 -0.05590661 -0.031006536 0.09241684
-0.03828721 -0.07801077 0.117882274 0.12159571 0.08956975 0.13820873 -0.09168222 0.041580945
-0.06089294 0.03897301 -0.09197259 0.09013234 0.08127982 0.022015104 -0.037109293 0.084844425
0.09114898 -0.008527227 0.14205527 0.028420003 -0.084658206 0.075031236 -0.096038796 -0.12811647
0.058020234 0.1138943 0.13034949 -0.13799939 0.05898859 0.03241948 0.056241166 -0.14087313
0.03414256 0.036925264 -0.08750611 -0.0371972 -0.09096657 0.07467388 -0.06848745 -0.06505324
0.16693196 -0.1256201 0.01825656 -0.06709819 -0.032433983 0.018493932 -0.009295806 0.08253123
0.14348769 0.060306776 -0.033801172 -0.05502146 -0.0530846 -0.045578588 0.04334099 0.08911147
-0.086761005 -0.092373244 -0.070927374 0.06376871 0.040915076 -0.057173017 0.029077526 0.04704436
00000000: 3f12 713d 104d f4bd ba63 3cbd 5a50 a4bd
00000010: d751 31bd 2a8c 823d 924f a93d f1b0 d93d
00000020: 3338 423d cf17 af3d 078d 2fbc f2cb ebbd
00000030: 420d 123d 511b bf3d d992 a53c a8d0 5abc
00000040: 8026 883d 0017 a2bd c6ab 16be 516d 8fbd
00000050: c57f 0a3e 9e47 8abd f388 85bd ac6d 503d
00000060: ce3f bf3d 2f7b 223d 4f77 3cbd 3ff2 5abd
00000070: 4f00 f13c f826 f63c cccf cebc 17b5 82bd
00000080: 99bd 0b3d 479b 7d3d 5b66 9abd bd88 8ebc
00000090: 18df debd fa84 3d3d a1e4 8fbd e183 a73d
000000a0: 0382 a53d bbc7 98bd 685a 94bd a54b a3bd
000000b0: 5a15 f6bd 171e ce3d 43c3 03bc 8125 903d
000000c0: 5f05 b33d 7d88 08bd 8bbd 1c3e fa84 da3b
000000d0: 8a38 b03d 491e 543c 6c19 f93d bd6e 933d
000000e0: 5753 10bd 5a2e a33d 000f e839 9555 49be
000000f0: 4810 9d3d 54fe 64bd 6b01 febc 0a45 bd3d
00000100: 0dd3 1cbd 1cc4 9fbd 436c f13d 2c07 f93d
00000110: 5870 b73d 9786 0d3e e3c3 bbbd c850 2a3d
00000120: e06a 79bd 2aa2 1f3d 205c bcbd 4e97 b83d
00000130: 0976 a63d 0559 b43c eaff 17bd eac2 ad3d
00000140: 51ac ba3d c8b5 0bbc f076 113e 11d1 e83c
00000150: 4861 adbd faa9 993d fdaf c4bd f730 03be
00000160: a0a6 6d3d 6a41 e93d 567a 053e b64f 0dbe
00000170: 059e 713d 4aca 043d 235d 663d 0c41 10be
00000180: 12d9 0b3d f23e 173d 6736 b3bd 175c 18bd
00000190: ae4c babd 9fee 983d 2643 8cbd a23a 85bd
000001a0: 36f0 2a3e 8ea2 00be c88e 953c c76a 89bd
000001b0: 7fd9 04bd 9680 973c 704d 18bc 2206 a93d
000001c0: 70ee 123e 3d04 773d 1973 0abd 2f5e 61bd
000001d0: 3d6f 59bd 9db0 3abd 5286 313d 1380 b63d
000001e0: c1af b1bd 2f2e bdbd 5f42 91bd 2b99 823d
000001f0: 9196 273d 412e 6abd fe33 ee3c 96b1 403d

weight f4 [128, 3]
0.30144024 -0.23974073 -0.15741682 0.24805427 -0.5614454 0.36975485 -0.12386092 0.3280571
0.06577338 -0.068892114 0.2248271 0.009905206 0.23117352 -0.25789204 -0.079344474 -0.051977277
0.08368343 -0.0023064017 0.530833 0.18147561 -0.23306684 -0.35142028 -0.106857345 -0.27035683
-0.1935589 0.08716753 0.3490771 0.27666605 -0.57983416 0.40407914 0.16009308 0.60142577
0.3760824 -0.5385985 -0.6007892 -0.25810328 0.4673595 -0.12368764 0.2700099 -0.28088215
0.5830981 -0.27890307 0.4715458 -0.011391339 -0.30461988 0.26384562 -0.3501468 0.1818661
-0.14469789 -0.08374369 -0.54179424 -0.28074077 0.38004678 -0.15079285 0.5672885 0.52196807
0.019063313 -0.3430159 0.40177312 0.18044539 -0.37747136 0.4419611 0.35300845 0.5073442
-0.33701444 -0.157774 0.025746042 0.089250505 -0.45221162 -0.49743885 0.2631625 -0.15446478
0.2667711 0.05439403 0.21541855 0.17019758 0.2711087 0.28952232 -0.56615597 0.30702683
-0.41984344 -0.4757977 0.085902356 -0.09774724 0.39737487 -0.36748302 -0.49526072 0.42461222
-0.13310942 0.36413604 0.13916336 -0.49298766 0.12516734 0.14665551 -0.4221507 -0.25337416
0.21443905 0.14426747 -0.26687387 -0.12094281 0.5690668 -0.18376462 0.35071835 0.2663768
-0.39111412 -0.50293016 0.5664286 -0.04558035 0.36175263 0.12655346 0.27332875 0.47703895
0.51595235 -0.3839589 0.12388069 0.44182423 0.40976053 0.3832215 -0.43987924 -0.38708878
-0.372973 0.10771797 0.55873483 -0.37705857 0.34169814 -0.34586367 -0.58001107 -0.10027209
0.3407724 0.55636555 -0.38879833 0.10593483 0.56525683 0.362918 0.3536672 0.4231798
0.3537644 0.19278786 -0.39589235 -0.5409146 -0.23391831 -0.16572109 -0.36320722 0.25331792
0.24206409 -0.098337665 0.23000185 0.22555731 0.39632565 0.3946916 -0.19195852 0.6133134
-0.092553936 0.006580976 -0.5522553 -0.38560802 -0.36957005 -0.19024597 0.41864774 -0.23245202
-0.47664607 0.22966799 0.13947569 0.4350434 -0.27838832 0.091385655 -0.23102473 -0.092672504
-0.45578972 -0.31529918 -0.17370202 0.23858066 0.16520408 0.14194046 0.5701999 0.5326545
0.42266446 -0.009666955 -0.33025044 0.4717224 -0.19146341 -0.0791811 -0.4777233 -0.12508874
-0.3191068 0.5489325 -0.5254778 -0.42754385 -0.008917006 -0.31094489 0.25236827 -0.23870648
-0.29387456 0.090580754 0.43154868 -0.35677406 0.32537612 0.37735525 0.5110466 -0.46261045
0.1549529 -0.42669958 0.5451639 -0.23690495 0.3319872 0.051314592 -0.03056957 0.002820934
0.16458642 0.27457994 0.10527605 0.15538384 -0.52347094 0.41008314 0.4961264 0.4717289
0.43968675 -0.43246228 -0.2234413 0.5210952 -0.45031625 0.5619214 -0.48874533 -0.3812321
0.29823217 -0.42005983 -0.082633786 0.42775685 0.47182137 0.60464555 -0.106300116 -0.44671986
0.5475318 -0.15109335 -0.24435367 0.20068382 -0.41560775 0.4117853 0.33919176 -0.46404052
-0.5053414 0.014723742 0.20740345 -0.04936473 -0.2589316 0.03705182 -0.5920509 -0.44401738
-0.36601484 0.49329695 0.5110095 -0.22718537 0.047225736 0.3161788 0.07619843 -0.28345653
00000000: 6056 9a3e 987e 75be e031 21be f001 7e3e
00000010: e3ba 0fbf 8250 bd3e cbaa fdbd 1af7 a73e
00000020: 32b4 863d 4f17 8dbd 1339 663e 7249 223c
00000030: c0b8 6c3e 6d0a 84be 5b7f a2bd 20e6 54bd
00000040: 3862 ab3d 0027 17bb ace4 073f bed4 393e
00000050: 13a9 6ebe 5ced b3be 06d8 dabd 366c 8abe
00000060: 4e34 46be e484 b23d 3cba b23e 2ca7 8d3e
00000070: 0370 14bf 76e3 ce3e 71ef 233e 0af7 193f
00000080: df8d c03e 97e1 09bf 52cd 19bf 1d26 84be
00000090: bf49 ef3e f24f fdbd bd3e 8a3e c9cf 8fbe
000000a0: eb45 153f 62cc 8ebe 736e f13e bda2 3abc
000000b0: 23f7 9bbe c616 873e 7146 b3be 1b3b 3a3e
000000c0: af2b 14be d081 abbd 07b3 0abf 41bd 8fbe
000000d0: 7e95 c23e 7169 1abe d239 113f b39f 053f
000000e0: aa2a 9c3c c89f afbe 35b5 cd3e adc6 383e
000000f0: ed43 c1be ba48 e23e 86bd b43e 4fe1 013f
00000100: 288d acbe 828f 21be 5de9 d23c f8c8 b63d
00000110: 4888 e7be 4eb0 febe 3cbd 863e 042c 1ebe
00000120: 3996 883e 46cc 5e3d ae96 5c3e 4648 2e3e
00000130: c2ce 8a3e 453c 943e 99ef 10bf 9f32 9d3e
00000140: b8f5 d6be c29b f3be 93ed af3d b42f c8bd
00000150: b874 cb3e bc26 bcbe d092 fdbe c666 d93e
00000160: d64d 08be 0a70 ba3e d780 0e3e e168 fcbe
00000170: de2b 003e dd2c 163e 2324 d8be 42ba 81be
00000180: e995 5b3e daba 133e b1a3 88be ddb0 f7bd
00000190: 5dae 113f cb2c 3cbe 5b91 b33e 8a62 883e
000001a0: 1c40 c8be 08c0 00bf 7701 113f 76b2 3abd
000001b0: a437 b93e 3b97 013e bff1 8b3e 733e f43e
000001c0: 7415 043f 4396 c4be 29b5 fd3d c936 e23e
000001d0: 22cc d13e 9c35 c43e da37 e1be 8030 c6be
000001e0: 51f6 bebe 3d9b dc3d 3f09 0f3f d20d c1be
000001f0: 0ff3 ae3e 0b15 b1be 9b7b 14bf 745b cdbd
00000200: b879 ae3e f96d 0e3f 9310 c7be 5cf4 d83d
00000210: acb4 103f 63d0 b93e de13 b53e 06ab d83e
00000220: 9c20 b53e 2e6a 453e 67b2 cabe 6179 0abf
00000230: 4888 6fbe cab2 29be 4cf6 b9be e3b2 813e
00000240: a6df 773e 4265 c9bd 9b85 6b3e 7ff8 663e
00000250: 32eb ca3e 0415 ca3e c690 44be 1b02 1d3f
00000260: eb8c bdbd 3aa5 d73b 9a60 0dbf 6a6e c5be
00000270: 4938 bdbe d7cf 42be ff58 d63e e707 6ebe
00000280: f40a f4be 162e 6b3e b7d2 0e3e 02be de3e
00000290: ea88 8ebe 6728 bb3d bf91 6cbe 15cb bdbd
000002a0: 455d e9be e56e a1be f1de 31be 7d4e 743e
000002b0: 422b 293e d758 113e 9ff8 113f 0c5c 083f
000002c0: 7a67 d83e 2662 1ebc 9616 a9be 9985 f13e
000002d0: fc0e 44be b329 a2bd 2698 f4be 4317 00be
000002e0: f761 a3be d786 0c3f b785 06bf 07e7 dabe
000002f0: a218 12bc 2b34 9fbe 6a36 813e 796f 74be
00000300: ba76 96be 6782 b93d f3f3 dc3e 17ab b6be
00000310: b397 a63e b534 c13e f3d3 023f 47db ecbe
00000320: f9ab 1e3e 5e78 dabe dd8f 0b3f 3697 72be
00000330: 3afa a93e 402f 523d 096d fabc 6bdf 383b
00000340: 5889 283e be95 8c3e f89a d73d f11c 1f3e
00000350: 3102 06bf 6bf6 d13e 4804 fe3e 7386 f13e
00000360: 9f1e e13e b26b ddbe cccd 64be 7f66 053f
00000370: da8f e6be 15da 0f3f d43c fabe db30 c3be
00000380: e3b1 983e 1512 d7be e73b a9bd f202 db3e
00000390: 9292 f13e 0dca 1a3f e0b3 d9bd 77b8 e4be
000003a0: 0b2b 0c3f 37b8 1abe d937 7abe 0f80 4d3e
000003b0: 8aca d4be 86d5 d23e 8baa ad3e b896 edbe
000003c0: 0e5e 01bf da3b 713c 9261 543e ac32 4abd
000003d0: af92 84be a6c3 173d a690 17bf 3f56 e3be
000003e0: 4c66 bbbe 6b91 fc3e 85d1 023f 48a3 68be
000003f0: c66f 413d 30e2 a13e ec0d 9c3d 3721 91be

bias f4 [128]
-0.3477638 0.3867261 0.21340159 0.15116638 -0.0605308 -0.18017384 0.109089635 0.45536113
0.09563277 -0.26034734 0.58629405 0.029325977 0.48814186 0.15074457 0.5204409 0.3569769
-0.31903827 0.4076513 0.03191174 -0.4763784 -0.10710674 -0.49189407 -0.30147025 -0.3294351
0.41156113 -0.13808699 -0.07103047 0.30473995 0.21693785 -0.3648284 0.24421564 0.24772467
-0.45260343 0.46304378 -0.34516263 -0.20936385 -0.40671045 0.5024703 0.08390542 0.48362654
0.062241115 0.30951992 -0.15478642 -0.44976255 0.06287373 -0.024341395 -0.0546193 -0.20907256
-0.031675585 0.14593919 0.21924627 -0.4589774 0.3075743 0.08420796 0.45199606 0.44446176
-0.45039478 0.5618981 -0.56584054 0.35576192 0.07798245 0.28607523 -0.2907591 0.342166
-0.26306418 -0.52765954 0.24244109 0.32188419 0.5882221 -0.0738611 0.5398868 0.37010324
-0.2795815 -0.44490945 0.34817183 -0.30505878 0.30481008 -0.5059552 0.43088615 0.15286599
-0.04236827 0.29293025 -0.3818861 -0.13916945 0.0017662345 -0.3222281 -0.1385574 -0.28658316
0.57822275 0.46513817 0.518943 0.475376 -0.5472939 0.2247207 0.21094796 -0.3851875
0.24707071 -0.30696046 0.08282123 0.16704415 0.5206766 -0.31201813 -0.4216321 0.543633
0.24532247 0.30715218 0.21047556 -0.20331152 0.3486667 -0.48539317 0.05841928 0.22960788
0.39105427 -0.2829835 -0.34344882 0.20821951 -0.4215823 -0.48848182 -0.5461616 -0.2487487
-0.07770031 -0.29306632 -0.2161561 -0.40835086 0.3669509 -0.06348288 -0.32478133 0.13726096
00000000: 190e b2be f700 c63e f285 5a3e 5ccb 1a3e
00000010: 25ef 77bd 7e7f 38be 636a df3d 1825 e93e
00000020: 1ddb c33d 3f4c 85be 5e17 163f 083d f03c
00000030: bbed f93e c95c 1a3e 9d3b 053f adc5 b63e
00000040: fc58 a3be acb7 d03e e2b5 023d dfe7 f3be
00000050: c75a dbbd 8ad9 fbbe 4f5a 9abe b8ab a8be
00000060: 24b8 d23e ad66 0dbe 6c78 91bd e006 9c3e
00000070: f524 5e3e caca babe aa13 7a3e 89ab 7d3e
00000080: a3bb e7be 1314 ed3e 28b9 b0be 7a63 56be
00000090: 5a3c d0be e5a1 003f 9bd6 ab3d e69d f73e
000000a0: 8af0 7e3d 6579 9e3e 5580 1ebe 4747 e6be
000000b0: f1c3 803d 9b67 c7bc 7db8 5fbd 1e17 56be
000000c0: 42be 01bd 1571 153e 1882 603e 16ff eabe
000000d0: 617a 9d3e 3975 ac3d 076c e73e 7e90 e33e
000000e0: 259a e6be 8ed8 0f3f edda 10bf 6d26 b63e
000000f0: 43b5 9f3d 7478 923e 60de 94be 6230 af3e
00000100: 59b0 86be b214 07bf 7a42 783e 01ce a43e
00000110: b995 163f 7d44 97bd 0536 0a3f 2c7e bd3e
00000120: 4e25 8fbe 2ccb e3be 9443 b23e aa30 9cbe
00000130: 1110 9c3e 4886 01bf 1c9d dc3e e788 1c3e
00000140: 5a8a 2dbd f4fa 953e 9386 c3be 7082 0ebe
00000150: ff80 e73a 15fb a4be fee1 0dbe 07bb 92be
00000160: 6806 143f 9726 ee3e 73d9 043f 7c64 f33e
00000170: 741b 0cbf 2f1d 663e be02 583e 4c37 c5be
00000180: 1b00 7d3e ec29 9dbe 2d9e a93d 9f0d 2b3e
00000190: 104b 053f d7c0 9fbe 2ae0 d7be 882b 0b3f
000001a0: d035 7b3e 0d43 9d3e e886 573e e530 50be
000001b0: 7184 b23e 7485 f8be 0e49 6f3d 541e 6b3e
000001c0: 4438 c83e 37e3 90be 86d8 afbe 7f37 553e
000001d0: a3d9 d7be 4a1a fabe 3fd1 0bbf fbb7 7ebe
000001e0: 5721 9fbd ca0c 96be 0658 5dbe 5d13 d1be
000001f0: fde0 bb3e 5003 82bd bd49 a6be 238e 0c3e

weight f4 [128, 128]
-0.018208312 0.06681675 0.042573534 -0.0944312 -0.041647516 -0.0582812 -0.021965688 0.026556823
-0.08909862 -0.08748443 0.031704262 -0.0042485436 -0.03849175 -0.10923774 0.060010627 0.011654771
-0.010231383 -0.05958859 -0.009765236 0.015200252 0.031691127 0.0624081 0.009888588 -0.11710109
0.052081406 -0.02002191 -0.070200115 0.09292907 0.08467297 -0.10062708 -0.028781217 0.0034786337
-0.025830695 0.021017257 -0.032234717 0.0703934 -0.0777532 0.059882913 -0.0075982376 -0.005049729
0.057189137 -0.081688 -0.04168425 0.0074326107 0.047900192 -0.06685673 -0.027588256 -0.054125886
-0.05584818 -0.041884843 -0.044531003 -0.018170575 0.032033376 0.013522753 -0.07113788 -0.022206616
0.02466158 -0.005676862 0.03024185 -0.010770357 -0.047194187 -0.063285716 0.0027304492 -0.024482034
0.0056463676 -0.030481052 0.023637699 -0.04856695 0.06855919 0.011447113 -0.0126320105 0.06726365
0.055795643 -0.08685151 -0.038033873 0.055221923 0.027925052 0.06310253 -0.006564504 0.086007595
0.04949741 0.04862653 -0.00409772 0.10639231 -0.0025883273 -0.032950215 -0.0066979416 0.06419413
0.06530199 -0.02526906 0.081434436 0.070833996 -0.041020364 -0.07795395 0.07236921 0.084402986
-0.052746475 0.028677247 0.038565166 0.01360131 -0.01781886 0.041544233 0.018433891 0.079186656
0.038325906 0.046223283 0.08470041 0.05443422 0.04631512 -0.019319426 0.051651493 0.016386673
0.07072861 0.117895946 -0.06608516 0.08668855 -0.012402302 0.113749735 0.041890662 0.014927663
0.01211308 -0.083786294 -0.0202826 -0.035075195 0.002842897 -0.034305282 -0.028827913 -0.07620867
-0.016851388 -0.07423175 0.09393148 0.101683736 0.039641038 0.039119042 -0.097759895 0.10934637
-0.08345066 -0.076152 -0.043703534 0.057345666 -0.092578195 -0.010200784 -0.05489938 -0.09735067
-0.045593753 0.11523931 0.031777397 0.023780534 -0.08265522 0.087938406 -0.031764384 -0.057278052
0.063560195 0.005054847 0.10807772 -0.037045684 -0.09396901 -0.028170846 -0.016776381 -0.0031442596
-0.12350678 0.048357513 -0.0376584 0.0604394 0.033705268 -0.057768155 0.072503895 -0.04199564
0.053183366 0.1019472 -0.07452702 -0.06408879 0.057720393 -0.0180759 0.052671015 -0.14386578
-0.053457156 -0.05390434 0.07521434 -0.071365155 -0.075090125 -0.05321589 -0.019968716 -0.0669748
0.050563157 -0.015364989 0.14554904 0.040211014 -0.042791 -0.07179885 -0.011622988 0.08008791
-0.037680753 -0.05194503 0.02379884 0.113715924 0.09208047 -0.0752844 -0.00018127699 0.0020388684
0.060204186 -0.05108655 -0.05193182 -0.035965543 -0.013916041 0.015532729 0.039488833 -0.066644944
0.06360393 0.061676852 0.040922575 -0.11528466 0.08748053 0.05118128 -0.014026804 -0.038076557
-0.005619614 -0.0033727635 0.106074415 0.07053099 -0.008966004 -0.07127502 0.0298972 -0.037467934
0.07061323 -0.07691178 0.036296934 -0.025623076 -0.06682083 -0.070506394 0.051705543 0.029162014
-0.07893864 0.052444413 0.059458256 0.055947095 0.051626038 0.01881366 0.06762443 0.09643731
0.050625257 -0.0764704 -0.0025459877 0.0913105 0.015011321 0.034489784 0.012814591 -0.08941888
-0.105383806 0.023579024 0.061139494 -0.18363115 -0.02665666 -0.03957696 -0.11230494 0.05062989
00000000: 9929 95bc 38d7 883d 9661 2e3d 2565 c1bd
00000010: 9696 2abd 44b8 6ebd 63f1 b3bc b28d d93c
00000020: 5679 b6bd 092b b3bd 54dc 013d 5e37 8bbb
00000030: 86a9 1dbd 09b8 dfbd b4cd 753d a7f3 3e3c
00000040: 88a1 27bc 2a13 74bd 5efe 1fbc 7a0a 793c
00000050: 8ece 013d a39f 7f3d bf03 223c b2d2 efbd
00000060: 5053 553d fd04 a4bc 14c5 8fbd 9951 be3d
00000070: 0669 ad3d 9215 cebd 96c6 ebbc caf9 633b
00000080: e59a d3bc 622c ac3c 8d08 04bd 6a2a 903d
00000090: 123d 9fbd c947 753d a3fa f8bb 3278 a5bb
000000a0: 283f 6a3d 0a4c a7bd 1bbd 2abd 428d f33b
000000b0: fe32 443d 2eec 88bd c400 e2bc 1bb3 5dbd
000000c0: 10c1 64bd 718f 2bbd 2466 36bd 75da 94bc
000000d0: 6e35 033d 898e 5d3c bdb0 91bd a6ea b5bc
000000e0: 1507 ca3c f804 babb c2bd f73c 2776 30bc
000000f0: b14e 41bd f19b 81bd 56f1 323b 8c8e c8bc
00000100: 2a05 b93b 66b3 f9bc d9a3 c13c 23ee 46bd
00000110: c368 8c3d ac8c 3b3c 7ef6 4ebc 86c1 893d
00000120: f989 643d 34df b1bd 68c9 1bbd 6230 623d
00000130: 14c3 e43c e63b 813d 0d1b d7bb c024 b03d
00000140: ccbd 4a3d 9d2c 473d 2b46 86bb 36e4 d93d
00000150: eda0 29bb cef6 06bd 687a dbbb 3678 833d
00000160: 0dbd 853d 0f01 cfbc 19c7 a63d 6a11 913d
00000170: f804 28bd 52a6 9fbd 4f36 943d 79db ac3d
00000180: b00c 58bd 8cec ea3c 82f6 1d3d 07d8 5e3c
00000190: dcf8 91bc 492a 2a3d ac02 973c 9d2c a23d
000001a0: a0fb 1c3d a054 3d3d 6977 ad3d 6bf6 5e3d
000001b0: ecb4 3d3d c643 9ebc 8490 533d 583d 863c
000001c0: 29da 903d 6e73 f13d a857 87bd c489 b13d
000001d0: 0633 4bbc 9ff5 e83d 8b95 2b3d 2893 743c
000001e0: f175 463c 2698 abbd b227 a6bc 02ab 0fbd
000001f0: e64f 3a3b b283 0cbd 8428 ecbc 4b13 9cbd
00000200: ec0b 8abc d106 98bd 265f c03d 903f d03d
00000210: a45e 223d 4a3b 203d 5736 c8bd fdf0 df3d
00000220: 2ee8 aabd 94f5 9bbd 7a02 33bd 4ae3 6a3d
00000230: a399 bdbd 3021 27bc 2cde 60bd ca5f c7bd
00000240: 84c0 3abd 9602 ec3d 0429 023d 65cf c23c
00000250: 2447 a9bd 0d19 b43d 5f1b 02bd 649c 6abd
00000260: d92b 823d 21a3 a53b da57 dd3d 37bd 17bd
00000270: d372 c0bd 8cc6 e6bc 9f6e 89bc ec0f 4ebb
00000280: 1ff1 fcbd 8712 463d b23f 1abd 4e8f 773d
00000290: 890e 0a3d 4d9e 6cbd ec7c 943d 9f03 2cbd
000002a0: cdd6 593d b2c9 d03d 9fa1 98bd fc40 83bd
000002b0: 386c 6c3d e913 94bc 90bd 573d 8d51 13be
000002c0: e4f5 5abd ccca 5cbd fa09 9a3d e527 92bd
000002d0: dac8 99bd e8f8 59bd 6f95 a3bc 152a 89bd
000002e0: 501b 4f3d 6fbd 7bbc cf0a 153e 4eb4 243d
000002f0: 9e45 2fbd 470b 93bd 586e 3ebc 2105 a43d
00000300: 2257 1abd 50c4 54bd c9f5 c23c e5e3 e83d
00000310: af94 bc3d b52e 9abd 2c15 3eb9 899e 053b
00000320: aa98 763d 2140 51bd 76b6 54bd 9b50 13bd
00000330: 1b00 64bc fd7c 7e3c 0bbf 213d 257d 88bd
00000340: c742 823d dea0 7c3d 6e9e 273d 5d1a ecbd
00000350: fe28 b33d 76a3 513d aed0 65bc 2af6 1bbd
00000360: bd24 b8bb 9509 5dbb 8b3d d93d 8d72 903d
00000370: 25e6 12bc a3f8 91bd f9ea f43c fa77 19bd
00000380: ab9d 903d ec83 9dbd 18ac 143d 7ce7 d1bc
00000390: 5cd9 88bd a865 90bd 31c9 533d 2de5 ee3c
000003a0: 95aa a1bd f4cf 563d 808a 733d c828 653d
000003b0: d375 533d 1b1f 9a3c ad7e 8a3d ed80 c53d
000003c0: 6e5c 4f3d 839c 9cbd 96da 26bb 0001 bb3d
000003d0: 0bf2 753c 2945 0d3d 4af4 513c 3f21 b7bd
000003e0: 77d3 d7bd cc28 c13c 686d 7a3d ce09 3cbe
000003f0: 115f dabc 731b 22bd 2200 e6bd 4a61 4f3d

bias f4 [128]
0.09365345 0.029860787 -0.03009005 -0.07840134 -0.00659103 0.0378726 0.03434057 -0.019391261
-0.04627626 0.0833065 0.025940457 -0.06267881 0.023723409 0.05579501 -0.007847607 -0.008235127
-0.03940262 0.0213453 -0.0010966418 0.021045657 0.017123414 0.06682629 -0.023238137 0.079705045
0.0845889 -0.0445794 -0.049301308 0.046230856 -0.00068901107 0.0009886995 -0.08404038 0.011771329
0.0077369753 0.038582023 0.09421147 0.054468665 -0.01724256 0.00011797778 -0.049824398 0.004315786
0.044301167 -0.06740908 -0.020646792 0.0074455366 -0.01636493 -0.034000453 -0.012546848 -0.05904018
0.012097477 0.022173539 0.08926817 0.008844 -0.05176143 0.06599075 0.01736558 0.03973322
-0.0091159865 -0.039572857 -0.0802283 0.099797636 -0.05787104 0.02161073 -0.045166895 0.0254784
0.060433008 0.005883515 0.013593804 0.12429168 -0.045170043 -0.0338455 0.0031002066 -0.017341262
-0.0863926 -0.013779739 0.009424401 0.047402795 -0.02244267 0.060852226 0.037291493 0.09221937
-0.056462053 0.0273996 -0.061367955 -0.08742869 0.006096487 -0.06336323 -0.0039360924 -0.049904432
-0.045419566 -0.0589478 -0.040642098 -0.06895197 0.028505491 -0.070377275 -0.015259728 0.025405305
0.05535658 0.06652791 0.063143484 0.041628227 -0.043562524 -0.043984484 -0.008545882 0.0037918796
0.10339753 0.10021773 -0.094395176 -0.03130143 -0.056836005 -0.041302 -0.078578204 -0.011509594
0.007035 0.023543533 0.07822714 -0.0017991747 -0.017619953 0.07160662 0.035064574 0.027848871
0.025112122 0.008555384 0.08862521 -0.022889571 0.07813524 0.017305538 -0.03448339 -0.044433083
00000000: 61cd bf3d 9c9e f43c 697f f6bc e290 a0bd
00000010: 91f9 d7bb 4d20 1b3d b3a8 0c3d 6cda 9ebc
00000020: 2d8c 3dbd 999c aa3d 1581 d43c bf5d 80bd
00000030: 9857 c23c 4f89 643d 4093 00bc a0ec 06bc
00000040: a464 21bd 57dc ae3c 31bd 8fba f167 ac3c
00000050: 6746 8c3c 39dc 883d e85d bebc 663c a33d
00000060: f23c ad3d e498 36bd 2bf0 49bd 915c 3d3d
00000070: c09e 34ba 4097 813a 5d1d acbd 88dc 403c
00000080: 7486 fd3b 2f08 1e3d f1f1 c03d 891a 5f3d
00000090: 4540 8dbc d76a f738 ab14 4cbd 706b 8d3b
000000a0: 2475 353d c60d 8abd 7623 a9bc b0f9 f33b
000000b0: bf0f 86bc 0f44 0bbd 4b91 4dbc 1ed4 71bd
000000c0: 7f34 463c 48a5 b53c 3bd2 b63d 6de6 103c
000000d0: cb03 54bd 2926 873d 4342 8e3c 4dbf 223d
000000e0: 385b 15bc 2617 22bd bc4e a4bd b462 cc3d
000000f0: 2f0a 6dbd fc08 b13c ec00 39bd 14b8 d03c
00000100: 9a88 773d 80ca c03b 8cb8 5e3c a38c fe3d
00000110: 3904 39bd 94a1 0abd d62c 4b3b 430f 8ebc
00000120: 9aee b0bd 6ac4 61bc ce68 1a3c 6f29 423d
00000130: b1d9 b7bc 2f40 793d f7be 183d 82dd bc3d
00000140: c144 67bd 2075 e03c f75c 7bbd d00d b3bd
00000150: 0ac5 c73b 95c4 81bd 56fa 80bb 9768 4cbd
00000160: de09 3abd 4073 71bd 5478 26bd b136 8dbd
00000170: 5984 e93c f621 90bd f003 7abc c91e d03c
00000180: 95bd 623d c93f 883d 5f51 813d 5c82 2a3d
00000190: 9e6e 32bd 1329 34bd 0704 0cbc 2f81 783b
000001a0: 16c2 d33d f43e cd3d 4252 c1bd ee35 00bd
000001b0: dfcc 68bd 492c 29bd 9ced a0bd bc92 3cbc
000001c0: db85 e63b 5ede c03c 8d35 a03d 49d2 ebba
000001d0: b857 90bc 7ea6 923d df9f 0f3d 5123 e43c
000001e0: f0b7 cd3c e22b 0c3c 2281 b53d e982 bbbc
000001f0: 5e05 a03d 58c4 8d3c 753e 0dbd 77ff 35bd

weight f4 [1, 128]
0.05431591 -0.1067997 -0.041521505 -0.0780963 -0.04331441 0.06244459 0.07058786 0.09947094
0.04172838 0.065781526 -0.0107214125 -0.10675912 0.03431596 0.09090288 0.020654751 -0.013355412
0.06421397 -0.078512825 -0.123094715 -0.06546928 0.12937853 -0.0455416 -0.065202616 0.0508953
0.08964438 0.039673977 -0.039037723 -0.04721065 0.027704481 0.030047879 -0.025054844 -0.06215541
0.026267767 0.05964963 -0.0635644 -0.016662102 -0.102284715 0.043556068 -0.062371902 0.079646334
0.072145715 -0.07508821 -0.07419768 -0.08161067 -0.11676839 0.09184724 -0.008064774 0.06810771
0.07160899 -0.033325404 0.12468689 0.0068879505 0.08380076 0.010229545 0.1114329 0.0719927
-0.03471457 0.07364186 0.00044261664 -0.15751542 0.069719285 -0.05592277 -0.027747488 0.08919707
-0.03868507 -0.07795356 0.10937113 0.11621156 0.08769889 0.10730741 -0.09216703 0.04058408
-0.060934916 0.035365514 -0.088637605 0.086939126 0.081288606 0.019917153 -0.034850117 0.07931833
0.08239597 -0.008527227 0.12763317 0.02563822 -0.07217283 0.07501055 -0.08421892 -0.11740175
0.05603152 0.08514625 0.12484615 -0.12592062 0.04699794 0.030151377 0.041900825 -0.1292903
0.03098204 0.034757856 -0.08252393 -0.03872478 -0.09052677 0.07468057 -0.06059913 -0.06284636
0.1543914 -0.11330588 0.014821136 -0.06275417 -0.03075335 0.01669821 -0.009295806 0.0662051
0.13468583 0.050182242 -0.033295017 -0.055151563 -0.051893845 -0.03775643 0.038657963 0.08507453
-0.086764425 -0.09243716 -0.055025544 0.06378265 0.040928695 -0.055568494 0.028455986 0.04704436
00000000: 5c7a 5e3d cdb9 dabd 7412 2abd f4f0 9fbd
00000010: 736a 31bd e6c5 7f3d 5e90 903d 6cb7 cb3d
00000020: 61eb 2a3d 77b8 863d dda8 2fbc 87a4 dabd
00000030: e48e 0c3d 4a2b ba3d 2734 a93c a8d0 5abc
00000040: 9d82 833d 55cb a0bd 1519 fcbd c214 86bd
00000050: ce7b 043e d489 3abd f388 85bd 9777 503d
00000060: 7997 b73d 2e81 223d 05e6 1fbd f45f 41bd
00000070: 82f4 e23c f826 f63c d13f cdbc ac96 7ebd
00000080: 802f d73c 2c53 743d 0d2e 82bd f67e 88bc
00000090: a67a d1bd d967 323d ae79 7fbd 9e1d a33d
000000a0: 22c1 933d d9c7 99bd f4f4 97bd 7f23 a7bd
000000b0: 4424 efbd 681a bc3d 1d22 04bc 0e7c 8b3d
000000c0: bca7 923d 3880 08bd d75b ff3d 51b4 e13b
000000d0: bc9f ab3d d299 273c ef36 e43d e970 933d
000000e0: dd30 0ebd 8bd1 963d 000f e839 b94b 21be
000000f0: fcc8 8e3d 460f 65bd b34e e3bc f4ac b63d
00000100: 3c74 1ebd 1ea6 9fbd f9fd df3d 5400 ee3d
00000110: 7a9b b33d fdc3 db3d 11c2 bcbd 7e3b 263d
00000120: e496 79bd 6edb 103d a287 b5bd 240d b23d
00000130: a47a a63d 4c29 a33c ffbe 0ebd a671 a23d
00000140: 38bf a83d c8b5 0bbc 45b2 023e 3f07 d23c
00000150: 59cf 93bd 229f 993d f87a acbd 5470 f0bd
00000160: 4f81 653d 2861 ae3d 57af ff3d 56f1 00be
00000170: e980 403d 0500 f73c 33a0 2b3d ad64 04be
00000180: 0cce fd3c 415e 0e3d 4e02 a9bd e09d 1ebd
00000190: 1966 b9bd 20f2 983d cb36 78bd 98b5 80bd
000001a0: c718 1e3e ea0c e8bd 5ad4 723c 4285 80bd
000001b0: 73ee fbbc afca 883c 704d 18bc 8a96 873d
000001c0: 15eb 093e e58b 4d3d 5b60 08bd 9be6 61bd
000001d0: a48e 54bd 7da6 1abd d057 1e3d 8e3b ae3d
000001e0: 8cb1 b1bd b24f bdbd 7762 61bd 7aa0 823d
000001f0: d9a4 273d ca9b 63bd 871c e93c 96b1 403d

weight f4 [128, 4]
0.30334985 0.5770409 0.28689885 -0.19752353 -0.016909044 0.79864734 0.5048003 0.24175945
-0.18077531 0.5436169 0.12542388 0.6050524 0.5132881 0.8311979 0.27022424 0.15426351
-0.26445326 0.3264296 0.342084 0.0902947 -0.05876348 -0.48395395 0.2307286 -0.1783666
0.054717284 0.52506196 0.024816647 -0.4903307 -0.008852536 -0.27216843 0.08790047 0.15778795
-0.32047725 -0.0779132 -0.33026755 0.14796014 0.64725167 0.0043672714 0.5387854 -0.075241275
-0.09026175 -0.62502104 -0.049977645 -0.2387624 -0.5403866 0.28376654 -0.33182624 -0.13125873
-0.41642222 -0.16487794 -0.113168724 -0.7147178 0.44353157 0.18838546 0.3532923 0.15310697
-0.29084054 -0.21740857 -0.18212563 -0.11531359 0.014921802 -0.56298506 -0.050879054 -0.43487844
-0.45774093 -0.08301161 0.36522302 0.36225414 -0.4386917 -0.021725755 0.18097363 0.10114762
-0.32414907 -0.6994015 -0.311976 -0.23712508 -0.06885561 0.10460503 0.4010598 0.03437386
-0.4661552 -0.012076812 0.24398597 -0.30894125 -0.39666975 -0.032308556 0.01459933 -0.8186093
-0.72626996 -0.62754375 0.08105898 0.10497489 0.2986515 0.8073731 0.37707466 -0.35848123
-0.3434016 0.7759494 0.16970672 0.11871455 0.2832345 -0.60348827 0.28079396 0.13778625
0.02147478 -1.1681912 -0.26488578 0.034831755 -0.4810679 -0.37992293 0.3413369 -0.089160845
-0.5580488 0.8850826 0.25836703 0.25034052 -0.62004715 -0.14461946 -0.17951576 0.05436938
0.045897584 -0.66483754 -0.38834965 -0.40291935 -0.705873 0.3920162 0.2472269 0.20582886
-0.26613507 -0.13038485 0.47045517 0.15053236 0.45967257 -0.7272228 -0.31841627 0.35471708
0.97011375 -1.057083 -0.3491133 -0.3562098 0.39654425 0.49175552 -0.30646542 0.13461646
0.34201688 -0.5137782 0.035539642 0.4484701 0.23213351 0.38630146 0.4722265 0.20509675
-0.60760474 -0.85402155 -0.2409784 -0.26697826 0.12029952 0.5114018 0.5366958 0.092091
0.08057887 0.45474628 0.53318655 0.367047 -0.3690259 -0.35325626 -0.1354127 -0.1630538
-0.58856326 0.9864657 0.385055 -0.38615596 1.1794121 -0.81863946 -0.3700149 -0.27501726
0.6486941 -0.6252977 -0.21637204 -0.24790564 -0.5279788 0.1462644 -0.17972553 -0.22314364
-0.5843033 -0.12861605 0.14116313 -0.00966687 -0.83718866 -1.1087044 -0.30446216 0.23370484
-0.508758 -0.34752056 -0.31194687 0.37944016 -0.3908417 1.0232637 0.23099819 0.437984
1.0582763 -0.16636942 -0.5081262 -0.25118926 -0.50693 0.34557292 0.15667258 0.36816743
-0.5631229 0.5248208 0.20937456 0.37951484 -0.5231789 -0.6988958 -0.22260386 -0.087538145
0.5546659 -0.21001366 0.35855916 0.12409709 -0.11497696 0.77148587 0.2457084 -0.092645586
0.644797 0.7411333 -0.25437915 0.41045874 -0.2666663 0.32143834 0.16886652 -0.09673377
0.65028733 0.04339433 -0.5756003 -0.26245335 0.28718755 0.444037 -0.26558375 -0.24559282
0.30303645 -0.030649282 -0.5790418 -0.19018394 -0.45244682 -0.36936083 -0.22504771 0.05009679
-0.19719905 -1.0559431 -0.22201446 -0.0363688 -0.5388566 -0.7273124 -0.34000924 0.4140397
00000000: ac50 9b3e f4b8 133f 68e4 923e 9c43 4abe
00000010: d684 8abc 2774 4c3f 983a 013f ca8f 773e
00000020: 2a1d 39be 7a2a 0b3f 1e6f 003e b7e4 1a3f
00000030: d966 033f 63c9 543f d55a 8a3e 41f7 1d3e
00000040: 6b66 87be c821 a73e a225 af3e 6dec b83d
00000050: fab1 70bd d0c8 f7be 1e44 6c3e bca5 36be
00000060: 3b1f 603d 766a 063f 484c cb3c a00c fbbe
00000070: 3a0a 11bc a959 8bbe 2905 b43d 2a93 213e
00000080: 9815 a4be f590 9fbd d418 a9be dd82 173e
00000090: 49b2 253f 541b 8f3b d7ed 093f 1918 9abd
000000a0: 27db b8bd 6101 20bf 5cb5 4cbd 217e 74be
000000b0: c756 0abf d949 913e 21e5 a9be b068 06be
000000c0: 4b35 d5be c3d5 28be 01c5 e7bd bff7 36bf
000000d0: 9216 e33e 1ee8 403e bae2 b43e 13c8 1c3e
000000e0: 0de9 94be 5aa0 5ebe 247f 3abe 8829 ecbd
000000f0: 937a 743c ca1f 10bf 8e66 50bd 63a8 debe
00000100: 055d eabe fe01 aabd 83fe ba3e 6079 b93e
00000110: 339c e0be 36fa b1bc 2751 393e 7c26 cf3d
00000120: def6 a5be fa0b 33bf 51bb 9fbe ebd0 72be
00000130: 2c04 8dbd 293b d63d b657 cd3e 9bcb 0c3d
00000140: e5ab eebe d2dd 45bc 75d7 793e 8c2d 9ebe
00000150: 4c18 cbbe fa55 04bd 0732 6f3c 6190 51bf
00000160: d4ec 39bf b5a6 20bf 4002 a63d 13fd d63d
00000170: d9e8 983e 01b0 4e3f ee0f c13e da8a b7be
00000180: 56d2 afbe 9fa4 463f 99c7 2d3e 9d20 f33d
00000190: 1d04 913e 357e 1abf 3ac4 8f3e d717 0d3e
000001a0: e1eb af3c 4a87 95bf 1c9f 87be beab 0e3d
000001b0: 884e f6be 4285 c2be b6c3 ae3e f699 b6bd
000001c0: 49dc 0ebf c694 623f af48 843e a22c 803e
000001d0: 69bb 1ebf 2017 14be fbd2 37be 6db2 5e3d
000001e0: 1bff 3b3d cb32 2abf c4d5 c6be 724b cebe
000001f0: 18b4 34bf 59b6 c83e 0c29 7d3e cdc4 523e
00000200: db42 88be 9b83 05be 80df f03e 2825 1a3e
00000210: 345a eb3e 462b 3abf 7507 a3be 7a9d b53e
00000220: 6059 783f 7f4e 87bf fabe b2be 2261 b6be
00000230: d907 cb3e 61c7 fb3e 09e9 9cbe e6d8 093e
00000240: d61c af3e f886 03bf 0492 113d df9d e53e
00000250: 68b4 6d3e 4ec9 c53e acc7 f13e e204 523e
00000260: fc8b 1bbf 28a1 5abf 0bc3 76be 60b1 88be
00000270: 985f f63d 3aeb 023f e564 093f 359a bc3d
00000280: 8906 a53d 81d4 e83e ea7e 083f 96ed bb3e
00000290: f6f0 bcbe 01de b4be a0a9 0abe 93f7 26be
000002a0: 15ac 16bf 0489 7c3f ee25 c53e 3cb6 c5be
000002b0: faf6 963f 5b92 51bf 9872 bdbe 10cf 8cbe
000002c0: d110 263f 8313 20bf a290 5dbe fada 7dbe
000002d0: 9e29 07bf 56c6 153e f809 38be c47f 64be
000002e0: e794 15bf edb3 03be 118d 103e cb61 1ebc
000002f0: ff51 56bf 07ea 8dbf 77e2 9bbe 5250 6f3e
00000300: f73d 02bf 37ee b1be 80b7 9fbe fb45 c23e
00000310: 671c c8be 4efa 823f ca8a 6c3e 703f e03e
00000320: 9975 873f bf5c 2abe 8f14 02bf e19b 80be
00000330: 2ac6 01bf efee b03e c76e 203e 7180 bc3e
00000340: d328 10bf a85a 063f 4966 563e c54f c23e
00000350: 0def 05bf d6ea 32bf 44f2 63be 3347 b3bd
00000360: 96fe 0d3f d20d 57be 1195 b73e 9d26 fe3d
00000370: 0a79 ebbd 1980 453f fc9a 7b3e f8bc bdbd
00000380: 6b11 253f e9ba 3d3f fc3d 82be a627 d23e
00000390: 7c88 88be 9193 a43e 58eb 2c3e 5b1c c6bd
000003a0: 3b79 263f 41be 313d 8b5a 13bf 4960 86be
000003b0: 3f0a 933e d158 e33e 98fa 87be af7c 7bbe
000003c0: 9827 9b3e 3414 fbbc 153c 14bf 94bf 42be
000003d0: 1ca7 e7be dd1c bdbe e872 66be 4b32 4d3d
000003e0: 8cee 49be 2529 87bf c257 63be 73f7 14bd
000003f0: 82f2 09bf 2531 3abf b115 aebe 03fd d33e
