src/test_model_pth/continue/test_pendulum_redq.pth (torch, 205026 bytes, 24 tensors)

weight f4 [64, 3]
00000000: 00a4 8dbb 1493 9e3e 7e4b f3be c88b d9be
00000010: b2b4 63be 5489 1e3e 406b 3bbc 7c61 ea3e
00000020: 40dd 51bd d470 1c3e 9eab 32be e86b e8bd
00000030: bd33 0dbf d6c5 c3be 84b5 73be 0034 af3c
00000040: 8cb9 693e 665e b13e d266 c8be 69b9 80be
00000050: 84bc 563e 2877 f53e 4457 f3bd 1434 dd3e
00000060: d895 bebd 603b 7a3d b6d4 053f 791c 09bf
00000070: f017 babe 48ac 15be cc73 66be c866 ff3e
00000080: a49a bfbe 7013 88be 3c85 cebe df6c 0abf
00000090: 3e8e acbe 9c19 fe3e 54e7 833e 5445 8f3e
000000a0: 60bd f83c 0b8d 97be d80b c83d 6b00 0abf
000000b0: ce97 d5be 7364 98be e281 ba3e 8a51 ad3e
000000c0: 3f19 83be 40a8 aabc 680e bd3e 3eef 123f
000000d0: b0a3 6a3e 50bc 9f3d b032 c63e 4c0d aebe
000000e0: f055 dc3d d22e e5be eae0 ccbe 2eb4 98be
000000f0: a6c0 853e 88c2 6d3e f419 afbe 949b 323e
00000100: 2847 a23e b83d 95bd e095 b43c 40fc 083e
00000110: a862 b73e 16eb 0d3f 84cc e3be cca8 58be
00000120: a059 683e 04ec f43e 3c9e 003f ee69 023f
00000130: 4851 eb3d 9886 00bf e08b 593d 58ee b8be
00000140: 8fbe 09bf 1852 033f d0c3 e03e b16f 13bf
00000150: 9050 dd3d 7c30 c7bd 4c94 c2bd 8050 87be
00000160: 285a 633e 3e16 afbe 34bb 583e 307d 953e
00000170: 309d d33e 0c0f 5d3e d648 12bf c8c1 bfbe
00000180: 6499 933e 107b f73d 6e98 e6be d336 aabe
00000190: 580b 0b3f cc2e c73e f7e3 80be 38cc 14be
000001a0: accb 0cbf c005 2abc 529b debe ff03 e4be
000001b0: 104d 02bd 9888 b13d f61d 72be 8667 af3e
000001c0: dde2 b3be 5e1c 063f b293 ca3e fa46 f9be
000001d0: 5e24 13be 206a d53c f083 ac3d 1038 0c3e
000001e0: 9801 683e 50a7 0d3d be3b 90be 52e0 8b3e
000001f0: 51c7 0dbf c134 afbe 26ff 13be 09fe 8fbe
00000200: e6d2 4ebe 6c48 f2be 6884 fbbd 98bf fc3d
00000210: 5193 c0be 00b9 f2bc 9e9b d33e d01a 73bd
00000220: a072 833c d002 4cbd 684c ef3d cef4 bb3e
00000230: 2c01 0c3f 82b9 bb3e 2c53 0c3f 3007 2bbd
00000240: ffc5 04bf 8923 8cbe 2247 c93e 0047 75bb
00000250: b6ed 92be 3a86 e2be 0c52 0abf dc7d f9be
00000260: 3cd6 efbd 541c a23e b8d0 9f3e 6d8b 0ebf
00000270: 5e64 b83e fa4f e7be 70f9 f9bd d8b7 6fbe
00000280: 38c0 e3bd 8028 e8bd 3ca1 04bf 313c ffbe
00000290: 0006 b9bd 80a8 f43b 0149 86be 04b5 5e3e
000002a0: b707 05bf 8098 1fbd cafa 013f 0226 71be
000002b0: 2277 053f 941b 563e 9e62 05bf 0607 bb3e
000002c0: a871 88bd 98f5 83be 5461 ec3e 2ae0 eebe
000002d0: f0c1 7d3d 748f f7bd 1618 d33e 3808 253e
000002e0: fa09 8e3e 38ca 503e 962b 0ebe 00ab f8bd
000002f0: e999 f3be c22b a03e dcb3 ea3e 5842 ca3e
-0.004322529 0.30971587 -0.47518533 -0.42489457 -0.22236899 0.15482074 -0.011439145 0.457775
-0.05123639 0.15277416 -0.1744828 -0.113487065 -0.5515707 -0.38236874 -0.23799711 0.0213871
0.22824687 0.34642333 -0.39140946 -0.25141457 0.2097035 0.47942472 -0.11881879 0.43203795
-0.09305924 0.06109178 0.52277696 -0.5355907 -0.36346388 -0.14616501 -0.2250511 0.49883103
-0.3742267 -0.2657733 -0.40336025 -0.54072374 -0.33702272 0.49628913 0.25762427 0.2798258
0.030363739 -0.29599795 0.09767884 -0.5390689 -0.4171738 -0.29764137 0.36427218 0.33851272
-0.256052 -0.020832181 0.36925054 0.57396305 0.22914004 0.0779959 0.38710546 -0.3399452
0.10758579 -0.44762284 -0.40015346 -0.29824966 0.26123542 0.23218739 -0.34199488 0.17442161
0.31694913 -0.072871625 0.022044122 0.13377476 0.35817456 0.5543684 -0.4449197 -0.21158141
0.22690439 0.47836316 0.50241446 0.50942886 0.114901125 -0.50205374 0.05311191 -0.36119342
-0.53806394 0.5129714 0.43899393 -0.575923 0.10806382 -0.097260445 -0.09500942 -0.26428604
0.2220236 -0.34196657 0.21165162 0.29197073 0.41330862 0.21587771 -0.5714239 -0.3745253
0.28827965 0.12084019 -0.4503817 -0.33244953 0.54314184 0.3890289 -0.25173923 -0.14531028
-0.5499828 -0.0103773475 -0.43477875 -0.445343 -0.031811774 0.08668631 -0.23644242 0.3425867
-0.3513402 0.52387035 0.39565808 -0.48686963 -0.14369342 0.02605158 0.084236026 0.13693261
0.22656858 0.03458339 -0.2817058 0.2731958 -0.5538226 -0.34219936 -0.144528 -0.281235
-0.20197639 -0.47320879 -0.12281114 0.12341231 -0.37612393 -0.02962923 0.41329664 -0.059351742
0.016045868 -0.04980737 0.11684495 0.3671021 0.5468929 0.3666497 0.5481441 -0.0417549
-0.5186462 -0.2737086 0.39312083 -0.0037426353 -0.28696984 -0.44243032 -0.54031444 -0.48728836
-0.11710784 0.31662238 0.31213927 -0.55681497 0.36014074 -0.45178205 -0.122057796 -0.23409975
-0.11120647 -0.1133585 -0.51808524 -0.4985061 -0.090343475 0.007466376 -0.26227573 0.2174874
-0.51964897 -0.038963795 0.507733 -0.23549655 0.5213491 0.20908958 -0.521036 0.36528796
-0.06662303 -0.2577331 0.46168005 -0.466554 0.06195253 -0.120879084 0.41229314 0.16116416
0.27741987 0.2038964 -0.13883814 -0.12141991 -0.47578362 0.31283385 0.45840347 0.3950374

bias f4 [64]
00000000: 1e83 d0be 20f1 d23c 8161 d0be 97b9 a2be
00000010: ec3f acbe bc0a 4a3e 6827 b0be 4060 4ebc
00000020: c0f7 c63c 808d be3e d673 dfbe 70ef cabe
00000030: 3ea5 abbe 14e7 ce3e a284 54be 8c56 f93e
00000040: e8c8 553e 68b9 953d 80d4 8cbb c4bd e9bd
00000050: 605a 943d b8ff 06be 00ee 84bb 20de 963d
00000060: f238 e7be 5cef 9abe 94b2 ee3e 5ae5 efbe
00000070: 20cf 29bd 0c36 123f d490 553e 20e9 853c
00000080: 1e16 00bf 746f 923e 758d d2be 8cd2 27be
00000090: 085c 46be bc19 afbd 00f0 ce3b dcd0 f33e
000000a0: 709c 933d 8862 043f 02d3 b43e 72e2 babe
000000b0: 4e94 843e f9f5 d0be 7891 7abe 24e3 2d3e
000000c0: 3836 433e 18c5 dd3e 9e51 3ebe 0048 723a
000000d0: fe2e 983e 16f0 0ebf 2ab7 d53e e770 f4be
000000e0: 805f 023c b407 c9bd b0af 9bbe e047 9c3d
000000f0: a070 f43e 3ed2 2cbe 7a7f afbe b4a6 5abe
-0.40725034 0.025749743 -0.4069939 -0.3178222 -0.3364252 0.19730657 -0.34405065 -0.01259619
0.024288058 0.3721733 -0.43643063 -0.396358 -0.33524507 0.40410674 -0.2075372 0.48698843
0.20877421 0.07310754 -0.004297793 -0.11413148 0.072438 -0.13183486 -0.004056692 0.07366586
-0.45160633 -0.30260742 0.4662062 -0.4685467 -0.041457295 0.5711372 0.20856029 0.016346514
-0.5003375 0.28600657 -0.41123548 -0.16388911 -0.19371045 -0.0854983 0.0063152313 0.47620285
0.072075725 0.51712847 0.35317236 -0.3650089 0.25894397 -0.40812662 -0.24469554 0.16981179
0.19063652 0.43314433 -0.18585822 0.0009242296 0.29723352 -0.5583509 0.41741306 -0.47742388
0.007957339 -0.098159224 -0.30407476 0.076308966 0.47742176 -0.16877076 -0.34276944 -0.21352655

weight f4 [64, 64]
00000000: e6bb fdbd 1c1d 673d 20e5 75bd d0d6 aabd
00000010: 627b 93bd 5230 933d 2492 873d 507c c43d
00000020: d8b6 393d c4fc 2abd d413 0fbd 9842 173d
00000030: de70 d23d 7435 0b3d 1c40 72bd fcad 70bd
00000040: 420a f2bd b03b dd3c a8a9 8fbd 503e e4bd
00000050: fa7a e03d d03f a6bd d0fb 68bc 48af 123d
00000060: e07d 823b fa41 acbd 2cee cebd 980d cc3d
00000070: 30bf a63c 4662 d43d a8a4 2bbd f8cf 163d
00000080: 182a eabc 6027 b6bb 52ea 9bbd ac28 2d3d
00000090: 80e0 213d 40fd 28bb c04c e6bc 58ce 9dbd
000000a0: 1409 b13d 9492 bebd acbf 513d 6c29 2cbd
000000b0: 0c06 77bd e0f4 b73c 22fb 84bd 40ef eb3c
000000c0: 1018 c93c ca13 bebd 987e aa3c 6413 5a3d
000000d0: 5caa 4a3d 58e6 80bc 9add d1bd 90da 9dbc
000000e0: 50d2 313d 2cd1 3abd 7458 423d 867c aa3d
000000f0: baab 85bd 8093 a13a 24b6 533d 9084 203c
00000100: 9012 2b3c 70b9 7f3c fa40 c9bd e0f2 203c
00000110: b445 b13d 64af e63d d876 963d 1838 893c
00000120: 7c1c 6f3d dc13 79bd ec24 d4bd ca23 dcbd
00000130: 5a63 ff3d 8e81 a23d b2f4 b0bd f450 483d
00000140: aa52 c13d c2e6 ff3d 58d8 df3d 4456 c63d
00000150: f0c2 eabc a0ae 33bd 4230 d23d 0a75 8f3d
00000160: 300e 9abd fe25 e63d 9060 773d 008e 8b3d
00000170: 6a74 a0bd 88e4 123d ec7c 33bd fc06 c83d
00000180: 5842 b8bc f853 473d 80e2 b53c f8d6 593d
00000190: e0fd 2dbd f4a2 793d fece b2bd 8846 e73c
000001a0: 2035 adbd ba8d fcbd 1095 cdbd b61a ca3d
000001b0: 5081 8a3d e82e f03d 4816 cd3d a09e e4bd
000001c0: ceb3 aebd e875 a5bc 3241 a6bd f8c3 b13d
000001d0: ba89 c1bd 38ce 79bd c451 f7bd c657 91bd
000001e0: e28d d23d 429a d13d 2441 b73d 22aa c53d
000001f0: baa1 e33d b01a 03bd f447 613d 0414 e43d
00000200: 1461 293d caea ff3d 18c7 843d 5824 9f3d
00000210: 2c32 33bd f4ab 753d 2054 6b3c 888c f4bc
00000220: 4a4f 90bd 56a5 8fbd b2fc c4bd 4edc ab3d
00000230: 96ff b53d a016 69bc c424 94bd 22dd c53d
00000240: 8cb5 a33d 703c 183c b8bb 71bd b846 eb3d
00000250: ac60 513d 5a57 c2bd 6203 f53d 5266 c23d
00000260: 8c9e 3abd 5ce9 8f3d d674 91bd b879 a0bc
00000270: b25e d93d 403e a93b 400c b5bd 9420 2bbd
00000280: dcfa 0abd 208f c5bc b0fe 433c a2c1 ec3d
00000290: 204d db3b 8c10 9ebd 00f0 d13b 587f 753d
000002a0: fcf8 7d3d e0f7 e9bd b03c b7bc b83e bebd
000002b0: 8876 5abd 6078 383d 18cb b5bd fc52 3e3d
000002c0: 8649 d93d 3053 063c f09e aabd 2071 37bd
000002d0: d89a df3c 4627 c3bd ec5d 7e3d 246a e8bd
000002e0: 5217 f6bd c0be f8bd 68bb cfbc 9024 ac3d
000002f0: 724c f2bd aec8 d43d cccf 4cbd e8f4 153d
00000300: 20ca ba3b 10d7 e6bd e84e d43d 6ed7 893d
00000310: 8076 fe3d 9655 813d 48fa a8bd 48a7 d53d
00000320: 2023 dc3b 80cc 723d ac44 cdbd c843 13bd
00000330: 545c fbbd 906b 47bd a0e8 dc3c 5c00 c9bd
00000340: 1035 233d 2c6c 893d 18a7 8e3c 0c49 abbd
00000350: 5a7b c6bd e4f5 1dbd 20bf 603d 7a84 fc3d
00000360: 1a35 933d b09f 66bc 0084 333d f026 fbbd
00000370: 62a6 dabd 3ce7 6e3d 9600 91bd 2c52 763d
00000380: f8b7 b4bd 6499 7dbd 48dd d2bd 5a97 853d
00000390: 60ae 50bc 9404 c53d 686e 9e3d dca7 8d3d
000003a0: 20b6 833b 944c 1ebd 68a6 debc 1817 883c
000003b0: a4cd 7d3d dc59 b3bd eada d63d e0ad 5ebc
000003c0: 9a83 d6bd c482 8abd 6a83 e23d 741e ea3d
000003d0: aa20 edbd 6e8e b43d f84b 803d f887 973d
000003e0: 24b6 d83d a6f8 89bd 5cad 213d 0487 513d
000003f0: e84a 17bd a857 2b3d 2c4f 13bd 6046 9e3d
-0.123893544 0.056424245 -0.060032964 -0.083417535 -0.07201268 0.07186951 0.06619671 0.09594023
0.04534039 -0.041744962 -0.03493102 0.036928743 0.10275434 0.033986524 -0.05914317 -0.058759674
-0.11818363 0.027006 -0.07014781 -0.11144698 0.10960956 -0.0811764 -0.014220193 0.035811692
0.0039822906 -0.084110215 -0.101040214 0.0996353 0.020354837 0.10370307 -0.041905075 0.03681943
-0.028584525 -0.005558893 -0.076130524 0.042275116 0.03952074 -0.0025785714 -0.02811277 -0.077053726
0.0864431 -0.09305301 0.051208183 -0.04203169 -0.0603085 0.022455633 -0.06493212 0.028800607
0.024547607 -0.09281118 0.020812318 0.05324115 0.049478874 -0.015734836 -0.10247345 -0.019269258
0.04341346 -0.045609638 0.047447637 0.08324532 -0.06526895 0.0012327284 0.051687375 0.00979723
0.010441437 0.015608177 -0.098268464 0.009823531 0.08655873 0.11263922 0.073468864 0.01675038
0.058376774 -0.060809955 -0.10358605 -0.10749014 0.12470122 0.07934867 -0.08640422 0.048905328
0.09439595 0.124951854 0.10929936 0.096844226 -0.028657407 -0.043867707 0.10263111 0.07004745
-0.07522237 0.11237715 0.060394824 0.06814194 -0.07834704 0.035862476 -0.043820307 0.09766957
-0.022492573 0.048664063 0.02220273 0.053183526 -0.042478442 0.06094642 -0.08730887 0.028231874
-0.084573984 -0.1233172 -0.10038197 0.09868376 0.06762946 0.11727697 0.100140154 -0.11163068
-0.08530389 -0.020197824 -0.08117904 0.08679956 -0.094500974 -0.06098768 -0.120761424 -0.070968196
0.10280968 0.102345005 0.089479715 0.09651591 0.11114831 -0.032007873 0.05500026 0.1113663
0.041352347 0.12495954 0.064832866 0.07770604 -0.04374902 0.05997844 0.014363319 -0.029852167
-0.07046373 -0.07013957 -0.0961851 0.08391629 0.0888664 -0.014226586 -0.07233575 0.09661318
0.07993612 0.009291753 -0.059016913 0.11488098 0.051117584 -0.09489317 0.11963536 0.09492172
-0.04556136 0.07026932 -0.07102363 -0.01958929 0.10613765 0.0051648915 -0.08840227 -0.041779116
-0.033930644 -0.024116099 0.011962578 0.1156037 0.0066925436 -0.07718 0.006406784 0.059935898
0.062005028 -0.114242315 -0.022367805 -0.092893064 -0.053335696 0.045036674 -0.08876628 0.04646586
0.106097266 0.008198544 -0.08331096 -0.04478562 0.027295515 -0.09528975 0.06210129 -0.1134837
-0.12016167 -0.12145758 -0.025357917 0.08405411 -0.11830987 0.10389839 -0.050002858 0.036610514
0.0057003647 -0.11271489 0.10366613 0.06730543 0.12424946 0.06315152 -0.08250862 0.10432297
0.0067180544 0.059277058 -0.10022864 -0.035953313 -0.122734696 -0.048686564 0.026966393 -0.09814522
0.039845526 0.06710085 0.01741366 -0.08363542 -0.09691496 -0.038564578 0.05486977 0.123299554
0.07187863 -0.014076158 0.043827057 -0.12263286 -0.10676266 0.05832599 -0.0708019 0.06013696
-0.08824152 -0.061913863 -0.10296112 0.06523009 -0.012736887 0.09620014 0.07735902 0.06916782
0.0040195137 -0.03864725 -0.027178958 0.016612574 0.061963692 -0.08757374 0.10490973 -0.01359126
-0.1047432 -0.06763223 0.110602215 0.1143159 -0.11578496 0.08816229 0.0626449 0.07398981
0.105816156 -0.06736879 0.03947197 0.05115415 -0.03693667 0.041831642 -0.035964176 0.07728267

bias f4 [64]
00000000: 1446 81bd d0db b23c aa96 eb3d 5898 a83c
00000010: f4b7 7dbd 4022 893b bad0 eabd a43f a4bd
00000020: b834 bebc de86 9fbd dec8 d83d d8c4 c63c
00000030: 6c48 c63d 882c e9bc b869 8ebc 4c26 013d
00000040: e43c 18bd e486 2ebd 3621 fbbd 56db c03d
00000050: fcaf e73d a878 fdbd 4866 29bd a4a2 c1bd
00000060: 78d5 4fbd 42e5 c23d 94f0 883d 90e8 1ebc
00000070: 14ad 5a3d 70e7 183d 5cce 8b3d c0b8 cdbd
00000080: 4c43 1e3d b274 f2bd c45c a8bd 84cc 3ebd
00000090: 1089 47bc a296 f1bd 40e0 4b3b 007d a33c
000000a0: 0832 4bbd a011 263d e2b2 df3d 08ea aebc
000000b0: 1257 88bd a6c5 e2bd 92ee babd 2497 8dbd
000000c0: 1441 bdbd 004b 49bd ca06 8d3d 5437 203d
000000d0: 2cbd e63d 362b fe3d ec5f 38bd 4c82 48bd
000000e0: 1821 8c3c 26d9 cbbd 463e 8b3d 204c b8bc
000000f0: 305b d6bd 7a46 c1bd c866 b0bd 6cb9 0c3d
-0.063121945 0.02183333 0.11503346 0.020580456 -0.06194301 0.004184991 -0.11465593 -0.08019951
-0.023218498 -0.07789396 0.105851874 0.024263784 0.09681782 -0.028463617 -0.017384395 0.031530663
-0.037167445 -0.04260911 -0.12262194 0.09416835 0.11312863 -0.12376529 -0.04135731 -0.09454849
-0.05074069 0.09516384 0.06686512 -0.009699002 0.053387716 0.03733009 0.06826469 -0.10045004
0.038638398 -0.11838664 -0.08220819 -0.04658176 -0.012178674 -0.11796309 0.0031109005 0.019957066
-0.04960826 0.040544152 0.10922791 -0.02135183 -0.06657232 -0.11072855 -0.09127535 -0.069135934
-0.09240928 -0.04914379 0.068860605 0.039115265 0.112665504 0.124105856 -0.045013353 -0.048952386
0.017105624 -0.09953527 0.06798987 -0.022497237 -0.104666114 -0.094372705 -0.08613354 0.03435652

weight f4 [1, 64]
00000000: f63d c43d 12d1 ca3d 54fb 0cbd fab2 94bd
00000010: 543e 63bd eae0 aebd 3401 04bd 5434 e7bd
00000020: d4d4 883d 2cf2 f0bd f83e 9fbd 3acd ab3d
00000030: 887d bfbd 60cd f43c 04c0 bf3d bc57 fc3d
00000040: 8a88 813d 4467 09bd 9849 923d e02d 87bb
00000050: c4de 1dbd 0070 d539 48b1 e53c 30a7 ab3d
00000060: 54eb 563d a079 743d 1830 993c 8028 cebb
00000070: b8fc 563d 804b f63c c2f6 f4bd 308e a53c
00000080: 0460 63bd 9ac1 87bd 8401 463d 7865 d13c
00000090: 5868 ad3c 64e2 72bd f894 6c3d 103d f03d
000000a0: e08b 7a3c 0c72 523d 9298 e0bd d630 983d
000000b0: d8dc 313d 9cab 663d a482 553d 28ab 06bd
000000c0: e0dc f5bb da9e f73d 0c53 bb3d 727f b7bd
000000d0: d01d cb3d 7ec7 fe3d e8aa 863c 04ba c7bd
000000e0: 287e c63c d0ce cebc 860f b83d f2f5 f5bd
000000f0: c805 033d 802a c0ba 7039 213c b019 b03d
0.095821306 0.09903158 -0.034419373 -0.072606996 -0.055479363 -0.08538993 -0.03222771 -0.11289278
0.06681219 -0.117649406 -0.07775682 0.08388753 -0.09350115 0.029883087 0.09362796 0.123214215
0.06324871 -0.033545747 0.07142943 -0.004125342 -0.038542524 0.00040709972 0.028038636 0.08381498
0.05247052 0.059686303 0.01869969 -0.006291449 0.052487105 0.030065298 -0.11961128 0.020209402
-0.05551149 -0.066287234 0.04834129 0.02556108 0.021167919 -0.059297934 0.057759255 0.11730397
0.015292138 0.051378295 -0.109666005 0.0743119 0.043423504 0.056316003 0.05212654 -0.03287807
-0.007503137 0.120908454 0.09146699 -0.08959855 0.09917796 0.12440394 0.016438916 -0.097522765
0.024230078 -0.0252451 0.08987336 -0.12009801 0.031987935 -0.0014661103 0.009840354 0.085986495

weight f4 [1, 64]
00000000: c619 cebd 9a55 95bd bc01 4dbd 806b 5a3c
00000010: ac94 453d f822 bfbc 4013 4abd 38ab 603d
00000020: 2ce9 f8bd 54e3 b23d 0013 6ebc de21 b23d
00000030: ea6f c13d 10c8 5a3c a8f5 213d 96cb 90bd
00000040: 806b b73d e6d5 953d 08d4 a0bc e090 473d
00000050: 206e e5bb a002 c83d 20c3 523d d2a2 ba3d
00000060: d8b2 e8bd 7a6d f93d fcc2 3e3d d8ec 783d
00000070: 582d e43c 3223 a83d 0001 f13d 5078 2ebc
00000080: 9e0d d2bd 4e13 eb3d f0f3 d7bc e8ec 76bd
00000090: 0697 9d3d 3cde 8e3d 6818 893c c08e 00bc
000000a0: 60e4 c3bc 96ba ea3d 16fa 9b3d 0a75 983d
000000b0: e03e a33d e0fa 85bd 68ce d53c 8476 ddbd
000000c0: 10bb 943d cabf fdbd f4d8 ffbd 280d fdbd
000000d0: ecdd 9d3d a022 553c 0008 9539 40df a23c
000000e0: 5cc4 41bd c479 1bbd 8870 acbd 0014 fabc
000000f0: b286 9dbd 4089 573b 0c24 c93d 1aa2 d3bd
-0.1006351 -0.07291718 -0.050050482 0.013331294 0.048237488 -0.023332104 -0.049334764 0.054850787
-0.12153849 0.08734766 -0.014530897 0.08697866 0.09445174 0.013353363 0.039540917 -0.07070081
0.08956051 0.073161885 -0.019632354 0.048722148 -0.0070016533 0.09766126 0.051455617 0.09113087
-0.11362237 0.12179084 0.04657267 0.060772747 0.027853653 0.08209838 0.11767769 -0.010648802
-0.102565035 0.114782915 -0.026361436 -0.060284525 0.07694821 0.069759816 0.01673527 -0.007846534
-0.023912609 0.1146137 0.076160595 0.074441984 0.07970977 -0.06541991 0.026099399 -0.10813621
0.07262242 -0.123900965 -0.124925524 -0.12356025 0.07708344 0.0130087435 0.00028425455 0.019881845
-0.047306404 -0.03795792 -0.08419901 -0.030527115 -0.07691707 0.0032888204 0.098213285 -0.10333653

weight f4 [64, 3]
00000000: 00a4 8dbb 1493 9e3e 7e4b f3be c88b d9be
00000010: b2b4 63be 5489 1e3e 406b 3bbc 7c61 ea3e
00000020: 40dd 51bd d470 1c3e 9eab 32be e86b e8bd
00000030: bd33 0dbf d6c5 c3be 84b5 73be 0034 af3c
00000040: 8cb9 693e 665e b13e d266 c8be 69b9 80be
00000050: 84bc 563e 2877 f53e 4457 f3bd 1434 dd3e
00000060: d895 bebd 603b 7a3d b6d4 053f 791c 09bf
00000070: f017 babe 48ac 15be cc73 66be c866 ff3e
00000080: a49a bfbe 7013 88be 3c85 cebe df6c 0abf
00000090: 3e8e acbe 9c19 fe3e 54e7 833e 5445 8f3e
000000a0: 60bd f83c 0b8d 97be d80b c83d 6b00 0abf
000000b0: ce97 d5be 7364 98be e281 ba3e 8a51 ad3e
000000c0: 3f19 83be 40a8 aabc 680e bd3e 3eef 123f
000000d0: b0a3 6a3e 50bc 9f3d b032 c63e 4c0d aebe
000000e0: f055 dc3d d22e e5be eae0 ccbe 2eb4 98be
000000f0: a6c0 853e 88c2 6d3e f419 afbe 949b 323e
00000100: 2847 a23e b83d 95bd e095 b43c 40fc 083e
00000110: a862 b73e 16eb 0d3f 84cc e3be cca8 58be
00000120: a059 683e 04ec f43e 3c9e 003f ee69 023f
00000130: 4851 eb3d 9886 00bf e08b 593d 58ee b8be
00000140: 8fbe 09bf 1852 033f d0c3 e03e b16f 13bf
00000150: 9050 dd3d 7c30 c7bd 4c94 c2bd 8050 87be
00000160: 285a 633e 3e16 afbe 34bb 583e 307d 953e
00000170: 309d d33e 0c0f 5d3e d648 12bf c8c1 bfbe
00000180: 6499 933e 107b f73d 6e98 e6be d336 aabe
00000190: 580b 0b3f cc2e c73e f7e3 80be 38cc 14be
000001a0: accb 0cbf c005 2abc 529b debe ff03 e4be
000001b0: 104d 02bd 9888 b13d f61d 72be 8667 af3e
000001c0: dde2 b3be 5e1c 063f b293 ca3e fa46 f9be
000001d0: 5e24 13be 206a d53c f083 ac3d 1038 0c3e
000001e0: 9801 683e 50a7 0d3d be3b 90be 52e0 8b3e
000001f0: 51c7 0dbf c134 afbe 26ff 13be 09fe 8fbe
00000200: e6d2 4ebe 6c48 f2be 6884 fbbd 98bf fc3d
00000210: 5193 c0be 00b9 f2bc 9e9b d33e d01a 73bd
00000220: a072 833c d002 4cbd 684c ef3d cef4 bb3e
00000230: 2c01 0c3f 82b9 bb3e 2c53 0c3f 3007 2bbd
00000240: ffc5 04bf 8923 8cbe 2247 c93e 0047 75bb
00000250: b6ed 92be 3a86 e2be 0c52 0abf dc7d f9be
00000260: 3cd6 efbd 541c a23e b8d0 9f3e 6d8b 0ebf
00000270: 5e64 b83e fa4f e7be 70f9 f9bd d8b7 6fbe
00000280: 38c0 e3bd 8028 e8bd 3ca1 04bf 313c ffbe
00000290: 0006 b9bd 80a8 f43b 0149 86be 04b5 5e3e
000002a0: b707 05bf 8098 1fbd cafa 013f 0226 71be
000002b0: 2277 053f 941b 563e 9e62 05bf 0607 bb3e
000002c0: a871 88bd 98f5 83be 5461 ec3e 2ae0 eebe
000002d0: f0c1 7d3d 748f f7bd 1618 d33e 3808 253e
000002e0: fa09 8e3e 38ca 503e 962b 0ebe 00ab f8bd
000002f0: e999 f3be c22b a03e dcb3 ea3e 5842 ca3e
-0.004322529 0.30971587 -0.47518533 -0.42489457 -0.22236899 0.15482074 -0.011439145 0.457775
-0.05123639 0.15277416 -0.1744828 -0.113487065 -0.5515707 -0.38236874 -0.23799711 0.0213871
0.22824687 0.34642333 -0.39140946 -0.25141457 0.2097035 0.47942472 -0.11881879 0.43203795
-0.09305924 0.06109178 0.52277696 -0.5355907 -0.36346388 -0.14616501 -0.2250511 0.49883103
-0.3742267 -0.2657733 -0.40336025 -0.54072374 -0.33702272 0.49628913 0.25762427 0.2798258
0.030363739 -0.29599795 0.09767884 -0.5390689 -0.4171738 -0.29764137 0.36427218 0.33851272
-0.256052 -0.020832181 0.36925054 0.57396305 0.22914004 0.0779959 0.38710546 -0.3399452
0.10758579 -0.44762284 -0.40015346 -0.29824966 0.26123542 0.23218739 -0.34199488 0.17442161
0.31694913 -0.072871625 0.022044122 0.13377476 0.35817456 0.5543684 -0.4449197 -0.21158141
0.22690439 0.47836316 0.50241446 0.50942886 0.114901125 -0.50205374 0.05311191 -0.36119342
-0.53806394 0.5129714 0.43899393 -0.575923 0.10806382 -0.097260445 -0.09500942 -0.26428604
0.2220236 -0.34196657 0.21165162 0.29197073 0.41330862 0.21587771 -0.5714239 -0.3745253
0.28827965 0.12084019 -0.4503817 -0.33244953 0.54314184 0.3890289 -0.25173923 -0.14531028
-0.5499828 -0.0103773475 -0.43477875 -0.445343 -0.031811774 0.08668631 -0.23644242 0.3425867
-0.3513402 0.52387035 0.39565808 -0.48686963 -0.14369342 0.02605158 0.084236026 0.13693261
0.22656858 0.03458339 -0.2817058 0.2731958 -0.5538226 -0.34219936 -0.144528 -0.281235
-0.20197639 -0.47320879 -0.12281114 0.12341231 -0.37612393 -0.02962923 0.41329664 -0.059351742
0.016045868 -0.04980737 0.11684495 0.3671021 0.5468929 0.3666497 0.5481441 -0.0417549
-0.5186462 -0.2737086 0.39312083 -0.0037426353 -0.28696984 -0.44243032 -0.54031444 -0.48728836
-0.11710784 0.31662238 0.31213927 -0.55681497 0.36014074 -0.45178205 -0.122057796 -0.23409975
-0.11120647 -0.1133585 -0.51808524 -0.4985061 -0.090343475 0.007466376 -0.26227573 0.2174874
-0.51964897 -0.038963795 0.507733 -0.23549655 0.5213491 0.20908958 -0.521036 0.36528796
-0.06662303 -0.2577331 0.46168005 -0.466554 0.06195253 -0.120879084 0.41229314 0.16116416
0.27741987 0.2038964 -0.13883814 -0.12141991 -0.47578362 0.31283385 0.45840347 0.3950374

bias f4 [64]
00000000: 1e83 d0be 20f1 d23c 8161 d0be 97b9 a2be
00000010: ec3f acbe bc0a 4a3e 6827 b0be 4060 4ebc
00000020: c0f7 c63c 808d be3e d673 dfbe 70ef cabe
00000030: 3ea5 abbe 14e7 ce3e a284 54be 8c56 f93e
00000040: e8c8 553e 68b9 953d 80d4 8cbb c4bd e9bd
00000050: 605a 943d b8ff 06be 00ee 84bb 20de 963d
00000060: f238 e7be 5cef 9abe 94b2 ee3e 5ae5 efbe
00000070: 20cf 29bd 0c36 123f d490 553e 20e9 853c
00000080: 1e16 00bf 746f 923e 758d d2be 8cd2 27be
00000090: 085c 46be bc19 afbd 00f0 ce3b dcd0 f33e
000000a0: 709c 933d 8862 043f 02d3 b43e 72e2 babe
000000b0: 4e94 843e f9f5 d0be 7891 7abe 24e3 2d3e
000000c0: 3836 433e 18c5 dd3e 9e51 3ebe 0048 723a
000000d0: fe2e 983e 16f0 0ebf 2ab7 d53e e770 f4be
000000e0: 805f 023c b407 c9bd b0af 9bbe e047 9c3d
000000f0: a070 f43e 3ed2 2cbe 7a7f afbe b4a6 5abe
-0.40725034 0.025749743 -0.4069939 -0.3178222 -0.3364252 0.19730657 -0.34405065 -0.01259619
0.024288058 0.3721733 -0.43643063 -0.396358 -0.33524507 0.40410674 -0.2075372 0.48698843
0.20877421 0.07310754 -0.004297793 -0.11413148 0.072438 -0.13183486 -0.004056692 0.07366586
-0.45160633 -0.30260742 0.4662062 -0.4685467 -0.041457295 0.5711372 0.20856029 0.016346514
-0.5003375 0.28600657 -0.41123548 -0.16388911 -0.19371045 -0.0854983 0.0063152313 0.47620285
0.072075725 0.51712847 0.35317236 -0.3650089 0.25894397 -0.40812662 -0.24469554 0.16981179
0.19063652 0.43314433 -0.18585822 0.0009242296 0.29723352 -0.5583509 0.41741306 -0.47742388
0.007957339 -0.098159224 -0.30407476 0.076308966 0.47742176 -0.16877076 -0.34276944 -0.21352655

weight f4 [64, 64]
00000000: e6bb fdbd 1c1d 673d 20e5 75bd d0d6 aabd
00000010: 627b 93bd 5230 933d 2492 873d 507c c43d
00000020: d8b6 393d c4fc 2abd d413 0fbd 9842 173d
00000030: de70 d23d 7435 0b3d 1c40 72bd fcad 70bd
00000040: 420a f2bd b03b dd3c a8a9 8fbd 503e e4bd
00000050: fa7a e03d d03f a6bd d0fb 68bc 48af 123d
00000060: e07d 823b fa41 acbd 2cee cebd 980d cc3d
00000070: 30bf a63c 4662 d43d a8a4 2bbd f8cf 163d
00000080: 182a eabc 6027 b6bb 52ea 9bbd ac28 2d3d
00000090: 80e0 213d 40fd 28bb c04c e6bc 58ce 9dbd
000000a0: 1409 b13d 9492 bebd acbf 513d 6c29 2cbd
000000b0: 0c06 77bd e0f4 b73c 22fb 84bd 40ef eb3c
000000c0: 1018 c93c ca13 bebd 987e aa3c 6413 5a3d
000000d0: 5caa 4a3d 58e6 80bc 9add d1bd 90da 9dbc
000000e0: 50d2 313d 2cd1 3abd 7458 423d 867c aa3d
000000f0: baab 85bd 8093 a13a 24b6 533d 9084 203c
00000100: 9012 2b3c 70b9 7f3c fa40 c9bd e0f2 203c
00000110: b445 b13d 64af e63d d876 963d 1838 893c
00000120: 7c1c 6f3d dc13 79bd ec24 d4bd ca23 dcbd
00000130: 5a63 ff3d 8e81 a23d b2f4 b0bd f450 483d
00000140: aa52 c13d c2e6 ff3d 58d8 df3d 4456 c63d
00000150: f0c2 eabc a0ae 33bd 4230 d23d 0a75 8f3d
00000160: 300e 9abd fe25 e63d 9060 773d 008e 8b3d
00000170: 6a74 a0bd 88e4 123d ec7c 33bd fc06 c83d
00000180: 5842 b8bc f853 473d 80e2 b53c f8d6 593d
00000190: e0fd 2dbd f4a2 793d fece b2bd 8846 e73c
000001a0: 2035 adbd ba8d fcbd 1095 cdbd b61a ca3d
000001b0: 5081 8a3d e82e f03d 4816 cd3d a09e e4bd
000001c0: ceb3 aebd e875 a5bc 3241 a6bd f8c3 b13d
000001d0: ba89 c1bd 38ce 79bd c451 f7bd c657 91bd
000001e0: e28d d23d 429a d13d 2441 b73d 22aa c53d
000001f0: baa1 e33d b01a 03bd f447 613d 0414 e43d
00000200: 1461 293d caea ff3d 18c7 843d 5824 9f3d
00000210: 2c32 33bd f4ab 753d 2054 6b3c 888c f4bc
00000220: 4a4f 90bd 56a5 8fbd b2fc c4bd 4edc ab3d
00000230: 96ff b53d a016 69bc c424 94bd 22dd c53d
00000240: 8cb5 a33d 703c 183c b8bb 71bd b846 eb3d
00000250: ac60 513d 5a57 c2bd 6203 f53d 5266 c23d
00000260: 8c9e 3abd 5ce9 8f3d d674 91bd b879 a0bc
00000270: b25e d93d 403e a93b 400c b5bd 9420 2bbd
00000280: dcfa 0abd 208f c5bc b0fe 433c a2c1 ec3d
00000290: 204d db3b 8c10 9ebd 00f0 d13b 587f 753d
000002a0: fcf8 7d3d e0f7 e9bd b03c b7bc b83e bebd
000002b0: 8876 5abd 6078 383d 18cb b5bd fc52 3e3d
000002c0: 8649 d93d 3053 063c f09e aabd 2071 37bd
000002d0: d89a df3c 4627 c3bd ec5d 7e3d 246a e8bd
000002e0: 5217 f6bd c0be f8bd 68bb cfbc 9024 ac3d
000002f0: 724c f2bd aec8 d43d cccf 4cbd e8f4 153d
00000300: 20ca ba3b 10d7 e6bd e84e d43d 6ed7 893d
00000310: 8076 fe3d 9655 813d 48fa a8bd 48a7 d53d
00000320: 2023 dc3b 80cc 723d ac44 cdbd c843 13bd
00000330: 545c fbbd 906b 47bd a0e8 dc3c 5c00 c9bd
00000340: 1035 233d 2c6c 893d 18a7 8e3c 0c49 abbd
00000350: 5a7b c6bd e4f5 1dbd 20bf 603d 7a84 fc3d
00000360: 1a35 933d b09f 66bc 0084 333d f026 fbbd
00000370: 62a6 dabd 3ce7 6e3d 9600 91bd 2c52 763d
00000380: f8b7 b4bd 6499 7dbd 48dd d2bd 5a97 853d
00000390: 60ae 50bc 9404 c53d 686e 9e3d dca7 8d3d
000003a0: 20b6 833b 944c 1ebd 68a6 debc 1817 883c
000003b0: a4cd 7d3d dc59 b3bd eada d63d e0ad 5ebc
000003c0: 9a83 d6bd c482 8abd 6a83 e23d 741e ea3d
000003d0: aa20 edbd 6e8e b43d f84b 803d f887 973d
000003e0: 24b6 d83d a6f8 89bd 5cad 213d 0487 513d
000003f0: e84a 17bd a857 2b3d 2c4f 13bd 6046 9e3d
-0.123893544 0.056424245 -0.060032964 -0.083417535 -0.07201268 0.07186951 0.06619671 0.09594023
0.04534039 -0.041744962 -0.03493102 0.036928743 0.10275434 0.033986524 -0.05914317 -0.058759674
-0.11818363 0.027006 -0.07014781 -0.11144698 0.10960956 -0.0811764 -0.014220193 0.035811692
0.0039822906 -0.084110215 -0.101040214 0.0996353 0.020354837 0.10370307 -0.041905075 0.03681943
-0.028584525 -0.005558893 -0.076130524 0.042275116 0.03952074 -0.0025785714 -0.02811277 -0.077053726
0.0864431 -0.09305301 0.051208183 -0.04203169 -0.0603085 0.022455633 -0.06493212 0.028800607
0.024547607 -0.09281118 0.020812318 0.05324115 0.049478874 -0.015734836 -0.10247345 -0.019269258
0.04341346 -0.045609638 0.047447637 0.08324532 -0.06526895 0.0012327284 0.051687375 0.00979723
0.010441437 0.015608177 -0.098268464 0.009823531 0.08655873 0.11263922 0.073468864 0.01675038
0.058376774 -0.060809955 -0.10358605 -0.10749014 0.12470122 0.07934867 -0.08640422 0.048905328
0.09439595 0.124951854 0.10929936 0.096844226 -0.028657407 -0.043867707 0.10263111 0.07004745
-0.07522237 0.11237715 0.060394824 0.06814194 -0.07834704 0.035862476 -0.043820307 0.09766957
-0.022492573 0.048664063 0.02220273 0.053183526 -0.042478442 0.06094642 -0.08730887 0.028231874
-0.084573984 -0.1233172 -0.10038197 0.09868376 0.06762946 0.11727697 0.100140154 -0.11163068
-0.08530389 -0.020197824 -0.08117904 0.08679956 -0.094500974 -0.06098768 -0.120761424 -0.070968196
0.10280968 0.102345005 0.089479715 0.09651591 0.11114831 -0.032007873 0.05500026 0.1113663
0.041352347 0.12495954 0.064832866 0.07770604 -0.04374902 0.05997844 0.014363319 -0.029852167
-0.07046373 -0.07013957 -0.0961851 0.08391629 0.0888664 -0.014226586 -0.07233575 0.09661318
0.07993612 0.009291753 -0.059016913 0.11488098 0.051117584 -0.09489317 0.11963536 0.09492172
-0.04556136 0.07026932 -0.07102363 -0.01958929 0.10613765 0.0051648915 -0.08840227 -0.041779116
-0.033930644 -0.024116099 0.011962578 0.1156037 0.0066925436 -0.07718 0.006406784 0.059935898
0.062005028 -0.114242315 -0.022367805 -0.092893064 -0.053335696 0.045036674 -0.08876628 0.04646586
0.106097266 0.008198544 -0.08331096 -0.04478562 0.027295515 -0.09528975 0.06210129 -0.1134837
-0.12016167 -0.12145758 -0.025357917 0.08405411 -0.11830987 0.10389839 -0.050002858 0.036610514
0.0057003647 -0.11271489 0.10366613 0.06730543 0.12424946 0.06315152 -0.08250862 0.10432297
0.0067180544 0.059277058 -0.10022864 -0.035953313 -0.122734696 -0.048686564 0.026966393 -0.09814522
0.039845526 0.06710085 0.01741366 -0.08363542 -0.09691496 -0.038564578 0.05486977 0.123299554
0.07187863 -0.014076158 0.043827057 -0.12263286 -0.10676266 0.05832599 -0.0708019 0.06013696
-0.08824152 -0.061913863 -0.10296112 0.06523009 -0.012736887 0.09620014 0.07735902 0.06916782
0.0040195137 -0.03864725 -0.027178958 0.016612574 0.061963692 -0.08757374 0.10490973 -0.01359126
-0.1047432 -0.06763223 0.110602215 0.1143159 -0.11578496 0.08816229 0.0626449 0.07398981
0.105816156 -0.06736879 0.03947197 0.05115415 -0.03693667 0.041831642 -0.035964176 0.07728267

bias f4 [64]
00000000: 1446 81bd d0db b23c aa96 eb3d 5898 a83c
00000010: f4b7 7dbd 4022 893b bad0 eabd a43f a4bd
00000020: b834 bebc de86 9fbd dec8 d83d d8c4 c63c
00000030: 6c48 c63d 882c e9bc b869 8ebc 4c26 013d
00000040: e43c 18bd e486 2ebd 3621 fbbd 56db c03d
00000050: fcaf e73d a878 fdbd 4866 29bd a4a2 c1bd
00000060: 78d5 4fbd 42e5 c23d 94f0 883d 90e8 1ebc
00000070: 14ad 5a3d 70e7 183d 5cce 8b3d c0b8 cdbd
00000080: 4c43 1e3d b274 f2bd c45c a8bd 84cc 3ebd
00000090: 1089 47bc a296 f1bd 40e0 4b3b 007d a33c
000000a0: 0832 4bbd a011 263d e2b2 df3d 08ea aebc
000000b0: 1257 88bd a6c5 e2bd 92ee babd 2497 8dbd
000000c0: 1441 bdbd 004b 49bd ca06 8d3d 5437 203d
000000d0: 2cbd e63d 362b fe3d ec5f 38bd 4c82 48bd
000000e0: 1821 8c3c 26d9 cbbd 463e 8b3d 204c b8bc
000000f0: 305b d6bd 7a46 c1bd c866 b0bd 6cb9 0c3d
-0.063121945 0.02183333 0.11503346 0.020580456 -0.06194301 0.004184991 -0.11465593 -0.08019951
-0.023218498 -0.07789396 0.105851874 0.024263784 0.09681782 -0.028463617 -0.017384395 0.031530663
-0.037167445 -0.04260911 -0.12262194 0.09416835 0.11312863 -0.12376529 -0.04135731 -0.09454849
-0.05074069 0.09516384 0.06686512 -0.009699002 0.053387716 0.03733009 0.06826469 -0.10045004
0.038638398 -0.11838664 -0.08220819 -0.04658176 -0.012178674 -0.11796309 0.0031109005 0.019957066
-0.04960826 0.040544152 0.10922791 -0.02135183 -0.06657232 -0.11072855 -0.09127535 -0.069135934
-0.09240928 -0.04914379 0.068860605 0.039115265 0.112665504 0.124105856 -0.045013353 -0.048952386
0.017105624 -0.09953527 0.06798987 -0.022497237 -0.104666114 -0.094372705 -0.08613354 0.03435652

weight f4 [1, 64]
00000000: f63d c43d 12d1 ca3d 54fb 0cbd fab2 94bd
00000010: 543e 63bd eae0 aebd 3401 04bd 5434 e7bd
00000020: d4d4 883d 2cf2 f0bd f83e 9fbd 3acd ab3d
00000030: 887d bfbd 60cd f43c 04c0 bf3d bc57 fc3d
00000040: 8a88 813d 4467 09bd 9849 923d e02d 87bb
00000050: c4de 1dbd 0070 d539 48b1 e53c 30a7 ab3d
00000060: 54eb 563d a079 743d 1830 993c 8028 cebb
00000070: b8fc 563d 804b f63c c2f6 f4bd 308e a53c
00000080: 0460 63bd 9ac1 87bd 8401 463d 7865 d13c
00000090: 5868 ad3c 64e2 72bd f894 6c3d 103d f03d
000000a0: e08b 7a3c 0c72 523d 9298 e0bd d630 983d
000000b0: d8dc 313d 9cab 663d a482 553d 28ab 06bd
000000c0: e0dc f5bb da9e f73d 0c53 bb3d 727f b7bd
000000d0: d01d cb3d 7ec7 fe3d e8aa 863c 04ba c7bd
000000e0: 287e c63c d0ce cebc 860f b83d f2f5 f5bd
000000f0: c805 033d 802a c0ba 7039 213c b019 b03d
0.095821306 0.09903158 -0.034419373 -0.072606996 -0.055479363 -0.08538993 -0.03222771 -0.11289278
0.06681219 -0.117649406 -0.07775682 0.08388753 -0.09350115 0.029883087 0.09362796 0.123214215
0.06324871 -0.033545747 0.07142943 -0.004125342 -0.038542524 0.00040709972 0.028038636 0.08381498
0.05247052 0.059686303 0.01869969 -0.006291449 0.052487105 0.030065298 -0.11961128 0.020209402
-0.05551149 -0.066287234 0.04834129 0.02556108 0.021167919 -0.059297934 0.057759255 0.11730397
0.015292138 0.051378295 -0.109666005 0.0743119 0.043423504 0.056316003 0.05212654 -0.03287807
-0.007503137 0.120908454 0.09146699 -0.08959855 0.09917796 0.12440394 0.016438916 -0.097522765
0.024230078 -0.0252451 0.08987336 -0.12009801 0.031987935 -0.0014661103 0.009840354 0.085986495

weight f4 [1, 64]
00000000: c619 cebd 9a55 95bd bc01 4dbd 806b 5a3c
00000010: ac94 453d f822 bfbc 4013 4abd 38ab 603d
00000020: 2ce9 f8bd 54e3 b23d 0013 6ebc de21 b23d
00000030: ea6f c13d 10c8 5a3c a8f5 213d 96cb 90bd
00000040: 806b b73d e6d5 953d 08d4 a0bc e090 473d
00000050: 206e e5bb a002 c83d 20c3 523d d2a2 ba3d
00000060: d8b2 e8bd 7a6d f93d fcc2 3e3d d8ec 783d
00000070: 582d e43c 3223 a83d 0001 f13d 5078 2ebc
00000080: 9e0d d2bd 4e13 eb3d f0f3 d7bc e8ec 76bd
00000090: 0697 9d3d 3cde 8e3d 6818 893c c08e 00bc
000000a0: 60e4 c3bc 96ba ea3d 16fa 9b3d 0a75 983d
000000b0: e03e a33d e0fa 85bd 68ce d53c 8476 ddbd
000000c0: 10bb 943d cabf fdbd f4d8 ffbd 280d fdbd
000000d0: ecdd 9d3d a022 553c 0008 9539 40df a23c
000000e0: 5cc4 41bd c479 1bbd 8870 acbd 0014 fabc
000000f0: b286 9dbd 4089 573b 0c24 c93d 1aa2 d3bd
-0.1006351 -0.07291718 -0.050050482 0.013331294 0.048237488 -0.023332104 -0.049334764 0.054850787
-0.12153849 0.08734766 -0.014530897 0.08697866 0.09445174 0.013353363 0.039540917 -0.07070081
0.08956051 0.073161885 -0.019632354 0.048722148 -0.0070016533 0.09766126 0.051455617 0.09113087
-0.11362237 0.12179084 0.04657267 0.060772747 0.027853653 0.08209838 0.11767769 -0.010648802
-0.102565035 0.114782915 -0.026361436 -0.060284525 0.07694821 0.069759816 0.01673527 -0.007846534
-0.023912609 0.1146137 0.076160595 0.074441984 0.07970977 -0.06541991 0.026099399 -0.10813621
0.07262242 -0.123900965 -0.124925524 -0.12356025 0.07708344 0.0130087435 0.00028425455 0.019881845
-0.047306404 -0.03795792 -0.08419901 -0.030527115 -0.07691707 0.0032888204 0.098213285 -0.10333653

weight f4 [4, 4, 64]
00000000: 8c69 bebe 4422 54be c83c c83d 6032 b03d
00000010: 80f0 d13e 0020 44b9 3001 43be 38bf 53be
00000020: 402c 703c c8f4 bfbe 0cb8 c8be e410 5bbe
00000030: 4070 523c 28e3 acbe 2022 92be 64c8 b63e
00000040: 0e93 ec3e 6060 20be cca1 dbbe 6005 44be
00000050: f4a4 4e3e c02a 263e 48b8 1ebe d476 e1be
00000060: c8f3 19be 08f6 e4bd be6b 933e ace2 7dbe
00000070: 68a4 993e 380c 8e3d e09e abbd 6024 e4be
00000080: 8cbd fc3e b098 b6bd 2813 a13e b46b 84be
00000090: f84c f9be e00e ccbe 3c32 83be 440e 23be
000000a0: 409a 90bd f681 d53e 2219 ecbe 388c 7f3e
000000b0: de67 d73e 00e7 523b 02a7 9fbe e001 833c
000000c0: c0ee f23d 388a 623e d8a1 1bbe 28b4 2fbe
000000d0: f08b 71be 589b f7be a4d1 333e 308a c1be
000000e0: 30f7 75be 809a a8bb f859 c53e 6a9e e33e
000000f0: 4634 babe 8606 de3e e851 e53e 58ce ce3e
00000100: a04d 323d f89a cd3e 6cc3 783e fcb1 b7be
00000110: 88ee 86be 8010 1a3c 066c b5be a497 28be
00000120: da65 ce3e 7060 6e3e f2f1 de3e 0035 7b3b
00000130: dc88 82be de6e a93e b0fb 163d 0872 ac3d
00000140: f0ee 58be 9050 523e 5e11 bdbe 3048 cc3e
00000150: b2f5 df3e acbd 383e 985a c73e 4462 9b3e
00000160: ac8a 43be 9009 debe 90bf 863d 7ebc a03e
00000170: 7083 51bd 4052 2c3d d6be bd3e a466 533e
00000180: 0c62 bf3e 885c 963d f091 653d 30f0 f4bd
00000190: 70cc acbd 220e 88be d827 ab3e 0c7c e93e
000001a0: c802 3e3e 00c4 683c 8803 29be c8c1 fcbe
000001b0: 089c bdbd 6abc b5be c0fe bcbe d0c4 cabd
000001c0: 3871 c9bd 3091 ce3d c68d b9be 04fa b73e
000001d0: 5a13 e9be d07a 72be b861 42be 0088 fc3c
000001e0: a4a6 533e a8ed 06be 88d0 9f3d b06a f2bd
000001f0: f05f 49be e03b 8fbd 902c ce3d 76aa f8be
00000200: e42f b2be 1400 c83e c884 673e c008 5bbc
00000210: 605a 813c 1059 8d3d 1800 ee3d f0c7 aebe
00000220: 9890 0bbe 5cf3 eabe 7843 c9be c8ab c0bd
00000230: b034 87bd ba3a c83e 1861 b03d 8809 a6bd
00000240: 80f4 62bc 5af9 8e3e f418 1bbe 306e bfbd
00000250: e86b cdbd 746e cebe f01d 8fbd 36a8 ecbe
00000260: d09a 89be 92f2 a2be 76b3 be3e bad2 ebbe
00000270: 06aa f63e 1cf9 3f3e ca00 adbe e417 d43e
00000280: f0a5 e1bd 04d4 d8be 8034 8ebd 1c09 7d3e
00000290: ece7 f8be 3079 19bd fc52 503e 148a 47be
000002a0: 0087 3a3d 1caa 48be f6bf abbe e87b c83e
000002b0: b0c5 b5be 0015 c0bb d086 2a3e aa10 8fbe
000002c0: 0437 773e f498 d4be 387e f43e 1406 643e
000002d0: c0f8 90bd 6cf3 d4be c0a1 7c3c 749c 353e
000002e0: 3809 8bbe 70f5 80bd a21f ffbe 88ec ffbe
000002f0: 106c 5ebd f634 d63e c0c7 c0bc a484 203e
00000300: 8ca7 4cbe 802e 27be f01c 61bd 886a 81be
00000310: 68a6 9c3e 32a4 9f3e b803 c7be 4c0a 1d3e
00000320: 8082 53be 1636 93be 50da 79bd 98cd 1ebe
00000330: 90c3 91be c0e9 963d 381e 923e 9802 9ebd
00000340: 9042 0fbd 201d 1a3d ec0b 5cbe 8287 873e
00000350: aa34 ec3e e02d 3bbd 1038 0b3d ba44 ce3e
00000360: daad d13e 3c70 bebe c81b 6dbe 2c1e fbbe
00000370: 3ccc 9c3e 12cf c73e 2859 3abe 6c3c 243e
00000380: 380c f83d 6840 dcbe 7475 4c3e 903a 7b3e
00000390: 8029 343c c005 523d 88f3 ed3d aa6c b83e
000003a0: ae31 e23e 282d 933d 503e 5a3e ccf3 05be
000003b0: daa0 983e 6065 49be 9c04 d3be a437 703e
000003c0: d8e4 3d3e f063 e13d 04d7 593e 80b4 733d
000003d0: e840 2e3e 9ca1 503e 2819 8abe e076 dbbc
000003e0: 8851 9a3d 7877 9bbd 9e3d d7be 9045 423d
000003f0: ae73 9c3e 8ee8 88be d057 fb3e c887 e93d
-0.371899 -0.20716196 0.09777218 0.08603358 0.410038 -0.00018703938 -0.19043422 -0.20678413
0.0146589875 -0.3749144 -0.39202917 -0.21393162 0.012844145 -0.33767056 -0.2854166 0.3569976
0.46205944 -0.15661764 -0.4289688 -0.19142675 0.20180112 0.16227245 -0.15499985 -0.4403597
-0.15034401 -0.11179739 0.28793138 -0.247935 0.30008245 0.06935924 -0.083799124 -0.44559002
0.49363363 -0.089158416 0.31459928 -0.2586342 -0.48691535 -0.398551 -0.25624263 -0.1592341
-0.07060671 0.41700715 -0.46112925 0.24955833 0.42071432 0.0032181144 -0.31182104 0.015992105
0.11861944 0.22123039 -0.15198457 -0.17158568 -0.23588538 -0.48360705 0.1756044 -0.3780074
-0.24020076 -0.005145371 0.38545203 0.44456798 -0.36368006 0.43364352 0.44789052 0.40391803
0.04353106 0.40157294 0.24293298 -0.3587798 -0.2635386 0.009403348 -0.35433978 -0.16464096
0.40312082 0.23278975 0.43543965 0.003833115 -0.2549504 0.33092397 0.03686112 0.08420187
-0.21184897 0.20538545 -0.36927313 0.39898825 0.43742138 0.18041104 0.38936305 0.30348408
-0.19095868 -0.4336667 0.065795064 0.31393808 -0.05115074 0.042070627 0.3705966 0.20644623
0.3737949 0.07341868 0.05604738 -0.11959875 -0.08437431 -0.26573282 0.33428836 0.45602453
0.18555748 0.014206886 -0.16505253 -0.49366593 -0.09258276 -0.3549531 -0.3691311 -0.0990082
-0.09836048 0.10086286 -0.36240977 0.35932934 -0.45522577 -0.23679662 -0.18982589 0.030826569
0.20669037 -0.13176596 0.07803446 -0.11836755 -0.19665504 -0.06993842 0.10067093 -0.4856755
-0.34802163 0.3906256 0.22609246 -0.013368785 0.015790164 0.06901753 0.11621112 -0.34136915
-0.13629377 -0.45888793 -0.39309287 -0.09407765 -0.06601846 0.39107305 0.08612269 -0.08107287
-0.013852239 0.27924615 -0.15146238 -0.093471885 -0.10030347 -0.40318644 -0.06988132 -0.46222085
-0.26875925 -0.3182569 0.37246293 -0.4605921 0.48176593 0.18747371 -0.33789665 0.41424477
-0.11017978 -0.42349255 -0.06943607 0.24710506 -0.48614442 -0.03746909 0.20344156 -0.19486266
0.045538902 -0.19596142 -0.33544892 0.39157033 -0.35502386 -0.0058618784 0.1665299 -0.279424
0.2414208 -0.41522944 0.47752547 0.22267944 -0.07078695 -0.41591966 0.015419424 0.17735463
-0.2715547 -0.062968135 -0.4982882 -0.49985147 -0.054302275 0.4183728 -0.023532748 0.15675598
-0.19985789 -0.16326332 -0.054959238 -0.2527659 0.30595708 0.3117996 -0.38870025 0.15335959
-0.2065525 -0.28752202 -0.060999215 -0.15508115 -0.28469515 0.07368803 0.2853868 -0.077153385
-0.03497559 0.037625432 -0.21488923 0.26470572 0.4613393 -0.045698047 0.033989012 0.4028681
0.4095295 -0.37195003 -0.23155129 -0.49046457 0.30624568 0.3902517 -0.18198073 0.16038674
0.121117055 -0.43017888 0.1996668 0.24534059 0.0109962225 0.051275015 0.116187155 0.36020404
0.44178528 0.07186347 0.21312833 -0.13081282 0.2981022 -0.19667578 -0.41214454 0.23458725
0.18544328 0.1100539 0.21273428 0.05949831 0.17016947 0.20374149 -0.26972318 -0.026790082
0.07535082 -0.07591146 -0.42039198 0.04742962 0.30557007 -0.26739925 0.49090433 0.11402851

bias_weights f4 [4, 1, 64]
00000000: 04ff 793e 984b 7e3e 0c42 78be 4c4c 513e
00000010: 4626 adbe 1846 5d3e f6c7 b5be 003c 33bb
00000020: 848b b93e eefd a93e 505b e23e a0a7 2e3e
00000030: 40bf 463e 1c4d 093e 50ef ba3e 3056 863e
00000040: 5c13 173e 30a5 32be 18ca 77be 502b fdbd
00000050: a458 743e f459 8bbe e0e1 0b3e 9cf9 df3e
00000060: 66c4 d83e b27a bcbe fcef 113e 3064 a73e
00000070: c287 e8be 289d a33e dc82 9fbe ba19 b9be
00000080: 8008 59be b094 40be a0ae 53be 8067 133e
00000090: 6c59 463e b0fc 463e f4bf b03e 38f9 a1be
000000a0: 5c14 f3be d45e cdbe 3cb4 8cbe 8431 6abe
000000b0: c8fa 603e dc41 b9be 082c bbbe 9c18 893e
000000c0: f2e3 a2be 5810 c03d 8232 c3be 285b 433e
000000d0: 72f7 9f3e 8c55 d7be 9828 2e3e ae36 86be
000000e0: ac77 a23e 803f e63e bcf7 d7be 4483 3f3e
000000f0: 54e3 ac3e 68bf e83e 8c58 c13e 1864 c93d
00000100: 0075 ef3c d8fb d23d 4a9f 98be a0a1 c8bd
00000110: 80ac fcbb 56fe a1be e09c b5bc 0008 88bd
00000120: 543e 33be 7841 1dbe 06f5 febe 82f7 f33e
00000130: c05d 7c3e 5614 b93e b6ea d9be 24a0 fabe
00000140: d660 be3e 38d1 b3bd b89e 9f3d 545e 803e
00000150: 30df 023d 80a7 87bc 681d 983e 8e83 cc3e
00000160: 8cae 0ebe fe8f dabe d25f 8cbe aef1 b63e
00000170: 8015 323d b232 db3e ec1a 33be d490 f2be
00000180: c4ff 1e3e c02e 5abe 420d 99be e099 9f3e
00000190: 006c 0e3d e0e0 2ebd 864f f93e c202 df3e
000001a0: c221 d1be 7454 ebbe 302f 7dbe 80c3 c6be
000001b0: f091 86be 30b6 ac3e 7457 aabe 96ca ea3e
000001c0: 10bf 1f3e c0e7 b13c a827 af3d 2823 d83d
000001d0: 1cbd 243e 1234 d0be c079 0ebc 66d3 a93e
000001e0: 5456 fe3e 60af d8bc b6e0 b6be 104e 6b3e
000001f0: 083a eabe fe2d e43e 7c57 9d3e a89c 663e
00000200: c8df 8b3d 1818 ba3e c0d3 4ebe 8e86 d5be
00000210: 7683 8dbe 1a80 be3e d4e3 7fbe 5420 ccbe
00000220: 504b e03d b205 9fbe 0060 adbc d07c a2be
00000230: 805b d83d 282b a7bd b81b 873d 78aa 6c3e
00000240: 50d6 a4be 9090 2ebe d0b4 aabe fe2d d53e
00000250: 0852 37be 78d1 403e c853 ec3d 9890 fcbe
00000260: 24bd b5be 8095 03be 8440 c4be 7abe 873e
00000270: dceb a03e 0074 70ba 60c5 7a3d bcec 063e
00000280: 204a 2a3e e80f c6bd 7076 49be 984a 9ebe
00000290: c019 a33c 786e ca3e c091 7ebd 7646 dc3e
000002a0: 4417 333e 8ab8 83be 4cdf 463e 6015 4d3e
000002b0: a0de 63be e87c b3bd e0b0 54bd 04bd 343e
000002c0: 98c1 c73e 6035 e1bd 0e78 a63e ac08 8a3e
000002d0: a8d1 ddbe f025 bb3e 20e6 a5bc 4098 c53e
000002e0: 4268 c73e 66e5 f7be fe32 d5be d01f 69bd
000002f0: 9c86 243e 40f8 a2bd 8474 f6be 7c40 8b3e
00000300: 3863 92be 986f 683e 36d2 b43e 18b1 2cbe
00000310: c42c 9a3e 682b 883d 68bc 20be f0da 043d
00000320: 641e 383e a00a 833e 20e6 92be e458 bf3e
00000330: 0428 72be 6e86 dcbe 9c55 5dbe 80a4 e2be
00000340: 3c5c 0f3e 50df 093d 0076 c7bc 2c42 adbe
00000350: faf3 863e 20b3 a73d e47f 00be b86c b53d
00000360: c493 343e b0cd 99be 6877 13be 4c82 68be
00000370: 4a94 e23e 8833 fd3d 3633 c1be 88cb b43e
00000380: f098 a2bd 60f5 0c3d e07d 843d 6030 6fbd
00000390: 625a f23e 78c8 5d3e d877 dc3d 7c24 3abe
000003a0: d8ae eb3d 7265 babe cc04 31be b2cd 813e
000003b0: b6f4 fbbe 4018 4ebc 70b4 3cbe f4c9 823e
000003c0: 9ee8 9fbe 783d b13d 2c9b 13be cec4 d63e
000003d0: c0cb 98bd dcf1 babe b010 1fbe 3278 b43e
000003e0: 9c06 443e e83e db3d 04a2 9f3e a0b7 453e
000003f0: 704a 83bd 5e96 87be 30fb f4be 9c39 763e
0.24413687 0.24833524 -0.24243945 0.20439261 -0.33818263 0.2160877 -0.3550412 -0.0027348995
0.36239254 0.33201545 0.4421029 0.17056131 0.19408894 0.13408321 0.36510706 0.2623763
0.14753479 -0.17445827 -0.24198186 -0.12361777 0.23861939 -0.27217066 0.13660383 0.43745124
0.4233734 -0.3681236 0.14251703 0.32693624 -0.45416075 0.31955838 -0.31154525 -0.3615244
-0.21194649 -0.1880672 -0.20672083 0.14394951 0.19370049 0.1943233 0.3452145 -0.3163545
-0.4747647 -0.4011141 -0.27481258 -0.22870451 0.21970665 -0.3618306 -0.3655703 0.26776588
-0.31814533 0.09378117 -0.38124472 0.19077742 0.31243473 -0.42057455 0.17007673 -0.26213592
0.31731927 0.44970322 -0.42181194 0.18702418 0.33767188 0.4545853 0.37762868 0.098335445
0.029230595 0.10301942 -0.29809028 -0.097964525 -0.0077109933 -0.31639355 -0.02216953 -0.06642151
-0.17504245 -0.15357006 -0.49796313 0.4764977 0.24645138 0.36148328 -0.42561883 -0.48950303
0.37183255 -0.0878014 0.07793945 0.25071967 0.03195113 -0.016559362 0.29709935 0.39944118
-0.13933772 -0.42687982 -0.27416855 0.35731262 0.043477535 0.42812115 -0.17490739 -0.4737612
0.15527254 -0.21306896 -0.29892927 0.31172085 0.034770966 -0.042694926 0.48693484 0.43556792
-0.40846068 -0.4596287 -0.24725032 -0.3882103 -0.26283216 0.33732748 -0.33269846 0.45857686
0.15600228 0.021716952 0.08552486 0.105535805 0.16087765 -0.40664726 -0.00869602 0.33169097
0.49675238 -0.026450813 -0.35718316 0.22978997 -0.457474 0.4456634 0.30730808 0.22520697
0.06829792 0.36346507 -0.20197964 -0.4170422 -0.2763936 0.3720711 -0.24989253 -0.39868414
0.10951865 -0.31059033 -0.02116394 -0.3173585 0.10564327 -0.08162528 0.06597084 0.23111904
-0.32194757 -0.17047334 -0.33341074 0.41636652 -0.17902386 0.18829906 0.115394175 -0.49329066
-0.35495865 -0.12849998 -0.38330472 0.2651251 0.31429946 -0.0009172559 0.061223388 0.13176244
0.16629839 -0.096710026 -0.19674087 -0.30916286 0.01990974 0.39537406 -0.062150717 0.43022507
0.17489344 -0.2572673 0.19421118 0.20027685 -0.22252893 -0.08764058 -0.051926494 0.17650229
0.39014888 -0.109965086 0.3251347 0.2695974 -0.43324018 0.36552382 -0.020251334 0.3859272
0.3894673 -0.48417205 -0.41640466 -0.056915104 0.16066974 -0.07957506 -0.4813577 0.27197635
-0.28591323 0.2269882 0.35316628 -0.16864431 0.30112278 0.06648904 -0.15696871 0.032435358
0.17980343 0.25594044 -0.28691196 0.37372506 -0.23648077 -0.43071312 -0.21614689 -0.4426613
0.14000028 0.033660233 -0.024348259 -0.33839548 0.26358014 0.08188462 -0.12548786 0.08858627
0.17634493 -0.3003974 -0.14401019 -0.22705954 0.4425376 0.123633444 -0.37734383 0.35311532
-0.07939327 0.034413695 0.06469321 -0.058395743 0.47334582 0.21658504 0.10765046 -0.1817798
0.11507958 -0.36405522 -0.17286986 0.25352246 -0.49210137 -0.012579024 -0.18428206 0.25544703
-0.3123216 0.08654302 -0.14414662 0.41947025 -0.07460737 -0.3651265 -0.1553371 0.35247952
0.19143146 0.10705358 0.31178296 0.19308329 -0.06410682 -0.2648191 -0.4784789 0.24045414
