src/test_model_pth/discrete/test_cartpole_qrdqn.pth (torch, 829315 bytes, 21 tensors)

tau_hat f4 [1, 200, 1]
0	0x3b23d70a	0.0025
1	0x3bf5c28f	0.0075
2	0x3c4ccccc	0.012499999
3	0x3c8f5c29	0.0175
4	0x3cb851eb	0.022499999
5	0x3ce147ae	0.0275
6	0x3d051eb8	0.0325
7	0x3d19999a	0.0375
8	0x3d2e147a	0.042499997
9	0x3d428f5c	0.0475
10	0x3d570a3d	0.0525
11	0x3d6b851e	0.057499997
12	0x3d800000	0.0625
13	0x3d8a3d70	0.067499995
14	0x3d947ae1	0.0725
15	0x3d9eb852	0.0775
16	0x3da8f5c2	0.082499996
17	0x3db33333	0.0875
18	0x3dbd70a4	0.0925
19	0x3dc7ae14	0.0975
20	0x3dd1eb84	0.10249999
21	0x3ddc28f6	0.1075
22	0x3de66666	0.1125
23	0x3df0a3d6	0.11749999
24	0x3dfae148	0.1225
25	0x3e028f5c	0.1275
26	0x3e07ae14	0.1325
27	0x3e0ccccc	0.13749999
28	0x3e11eb85	0.1425
29	0x3e170a3d	0.1475
30	0x3e1c28f6	0.1525
31	0x3e2147ae	0.1575
32	0x3e266666	0.1625
33	0x3e2b851e	0.16749999
34	0x3e30a3d7	0.1725
35	0x3e35c28f	0.1775
36	0x3e3ae148	0.1825
37	0x3e400000	0.1875
38	0x3e451eb8	0.1925
39	0x3e4a3d70	0.19749999
40	0x3e4f5c28	0.20249999
41	0x3e547ae1	0.2075
42	0x3e599999	0.21249999
43	0x3e5eb852	0.2175
44	0x3e63d70a	0.2225
45	0x3e68f5c2	0.22749999
46	0x3e6e147a	0.23249999
47	0x3e733333	0.2375
48	0x3e7851eb	0.24249999
49	0x3e7d70a4	0.2475
50	0x3e8147ae	0.2525
51	0x3e83d70a	0.2575
52	0x3e866666	0.2625
53	0x3e88f5c2	0.26749998
54	0x3e8b851e	0.27249998
55	0x3e8e147b	0.2775
56	0x3e90a3d7	0.2825
57	0x3e933333	0.2875
58	0x3e95c28f	0.2925
59	0x3e9851eb	0.29749998
60	0x3e9ae148	0.3025
61	0x3e9d70a4	0.3075
62	0x3ea00000	0.3125
63	0x3ea28f5c	0.3175
64	0x3ea51eb8	0.3225
65	0x3ea7ae14	0.3275
66	0x3eaa3d70	0.33249998
67	0x3eaccccc	0.33749998
68	0x3eaf5c29	0.3425
69	0x3eb1eb85	0.3475
70	0x3eb47ae1	0.3525
71	0x3eb70a3d	0.3575
72	0x3eb99999	0.36249998
73	0x3ebc28f6	0.3675
74	0x3ebeb852	0.3725
75	0x3ec147ae	0.3775
76	0x3ec3d70a	0.3825
77	0x3ec66666	0.3875
78	0x3ec8f5c2	0.39249998
79	0x3ecb851e	0.39749998
80	0x3ece147a	0.40249997
81	0x3ed0a3d7	0.4075
82	0x3ed33333	0.4125
83	0x3ed5c28f	0.4175
84	0x3ed851eb	0.42249998
85	0x3edae147	0.42749998
86	0x3edd70a4	0.4325
87	0x3ee00000	0.4375
88	0x3ee28f5c	0.4425
89	0x3ee51eb8	0.4475
90	0x3ee7ae14	0.4525
91	0x3eea3d70	0.45749998
92	0x3eeccccc	0.46249998
93	0x3eef5c29	0.4675
94	0x3ef1eb85	0.4725
95	0x3ef47ae1	0.4775
96	0x3ef70a3d	0.4825
97	0x3ef99999	0.48749998
98	0x3efc28f5	0.49249998
99	0x3efeb852	0.4975
100	0x3f00a3d7	0.5025
101	0x3f01eb85	0.5075
102	0x3f033333	0.5125
103	0x3f047ae1	0.5175
104	0x3f05c28f	0.5225
105	0x3f070a3d	0.5275
106	0x3f0851eb	0.53249997
107	0x3f09999a	0.5375
108	0x3f0ae148	0.5425
109	0x3f0c28f6	0.5475
110	0x3f0d70a4	0.5525
111	0x3f0eb852	0.5575
112	0x3f100000	0.5625
113	0x3f1147ae	0.5675
114	0x3f128f5d	0.57250005
115	0x3f13d70b	0.57750005
116	0x3f151eb9	0.58250004
117	0x3f166667	0.58750004
118	0x3f17ae15	0.59250003
119	0x3f18f5c3	0.5975
120	0x3f1a3d71	0.6025
121	0x3f1b851f	0.6075
122	0x3f1ccccd	0.6125
123	0x3f1e147b	0.6175
124	0x3f1f5c29	0.6225
125	0x3f20a3d7	0.6275
126	0x3f21eb85	0.6325
127	0x3f233333	0.6375
128	0x3f247ae1	0.6425
129	0x3f25c28f	0.6475
130	0x3f270a3d	0.6525
131	0x3f2851eb	0.65749997
132	0x3f29999a	0.6625
133	0x3f2ae148	0.6675
134	0x3f2c28f6	0.6725
135	0x3f2d70a4	0.6775
136	0x3f2eb852	0.6825
137	0x3f300000	0.6875
138	0x3f3147ae	0.6925
139	0x3f328f5c	0.6975
140	0x3f33d70b	0.70250005
141	0x3f351eb9	0.70750004
142	0x3f366667	0.71250004
143	0x3f37ae15	0.71750003
144	0x3f38f5c3	0.7225
145	0x3f3a3d71	0.7275
146	0x3f3b851f	0.7325
147	0x3f3ccccd	0.7375
148	0x3f3e147b	0.7425
149	0x3f3f5c29	0.7475
150	0x3f40a3d7	0.7525
151	0x3f41eb85	0.7575
152	0x3f433333	0.7625
153	0x3f447ae1	0.7675
154	0x3f45c28f	0.7725
155	0x3f470a3d	0.7775
156	0x3f4851ec	0.7825
157	0x3f49999a	0.7875
158	0x3f4ae148	0.7925
159	0x3f4c28f6	0.7975
160	0x3f4d70a4	0.8025
161	0x3f4eb852	0.8075
162	0x3f500000	0.8125
163	0x3f5147ae	0.8175
164	0x3f528f5c	0.8225
165	0x3f53d70a	0.8275
166	0x3f551eb8	0.8325
167	0x3f566667	0.83750004
168	0x3f57ae15	0.84250003
169	0x3f58f5c3	0.8475
170	0x3f5a3d71	0.8525
171	0x3f5b851f	0.8575
172	0x3f5ccccd	0.8625
173	0x3f5e147b	0.8675
174	0x3f5f5c29	0.8725
175	0x3f60a3d7	0.8775
176	0x3f61eb85	0.8825
177	0x3f633333	0.8875
178	0x3f647ae1	0.8925
179	0x3f65c28f	0.8975
180	0x3f670a3d	0.9025
181	0x3f6851ec	0.9075
182	0x3f69999a	0.9125
183	0x3f6ae148	0.9175
184	0x3f6c28f6	0.9225
185	0x3f6d70a4	0.9275
186	0x3f6eb852	0.9325
187	0x3f700000	0.9375
188	0x3f7147ae	0.9425
189	0x3f728f5c	0.9475
190	0x3f73d70a	0.9525
191	0x3f751eb8	0.9575
192	0x3f766666	0.9625
193	0x3f77ae14	0.9675
194	0x3f78f5c3	0.9725
195	0x3f7a3d71	0.9775
196	0x3f7b851f	0.9825
197	0x3f7ccccd	0.9875
198	0x3f7e147b	0.9925
199	0x3f7f5c29	0.9975

weight f4 [128, 4]
0	0x3e83e84a	0.2576316
1	0xbe61fc54	-0.22068912
2	0xbdc683a0	-0.09693074
3	0x3e705120	0.23468447
4	0xbef10202	-0.47071844
5	0x3e998712	0.29985863
6	0xbdd2a9a8	-0.102862656
7	0x3e823d0a	0.25437194
8	0x3d8e5a78	0.06950849
9	0xbd7ac400	-0.061222076
10	0x3e0e0240	0.13868046
11	0x3cca1020	0.024665892
12	0x3e3aff30	0.18261409
13	0xbe4786e4	-0.1948505
14	0xbd155130	-0.03645438
15	0xbd386040	-0.045013666
16	0x3d946c30	0.07247198
17	0xbb02e700	-0.0019974113
18	0x3edfc964	0.43708336
19	0x3e1f5450	0.15559506
20	0xbe3eac08	-0.18620312
21	0xbe9a9d36	-0.30198067
22	0xbdaba370	-0.083807826
23	0xbe5cd8b0	-0.21567035
24	0xbe2411d4	-0.16022426
25	0x3cc41f80	0.023940802
26	0x3e989bd4	0.29806387
27	0x3e8b2538	0.27176833
28	0xbefa40c6	-0.48877543
29	0x3e9eb31c	0.30996025
30	0x3e0f08c8	0.13968194
31	0x3ef2d488	0.47427773
32	0x3ea8f9ae	0.3300299
33	0xbee94052	-0.45556885
34	0xbef3682e	-0.4754042
35	0xbe76f43c	-0.24116606
36	0x3ee0cbee	0.43905586
37	0xbdaa9110	-0.0832845
38	0x3e5b1d80	0.21397972
39	0xbe6deea8	-0.23235571
40	0x3efb311a	0.490609
41	0xbe58a05c	-0.21154922
42	0x3ebffb12	0.3749624
43	0x3bc20380	0.0059208274
44	0xbe86dd82	-0.26340872
45	0x3e83967a	0.25700742
46	0xbe87e3d4	-0.26541007
47	0x3e1694e4	0.14705235
48	0xbe13d7fc	-0.1443786
49	0xbd608800	-0.0548172
50	0xbef61d88	-0.48069406
51	0xbe741cbc	-0.23839086
52	0x3e8aea10	0.271317
53	0xbdf8e940	-0.12153864
54	0x3efefd1a	0.49802476
55	0x3ecd34e6	0.4007942
56	0xbcbfca20	-0.02341181
57	0xbeaae02c	-0.33374155
58	0x3e9be4f2	0.3044811
59	0x3e1ee720	0.15517855
60	0xbea57bc4	-0.32320988
61	0x3ea6488e	0.3247723
62	0x3e9b6b06	0.3035509
63	0x3ee30b8c	0.44344747
64	0xbe8f80d6	-0.28027982
65	0xbda88e78	-0.08230299
66	0xbc1eb1c0	-0.009685934
67	0x3d959018	0.07302874
68	0xbec24878	-0.37945914
69	0xbeb5a9d0	-0.3548112
70	0x3e8b43e2	0.27200228
71	0xbdf01ea8	-0.11724597
72	0x3e7a1930	0.24423671
73	0x3ce98340	0.028504968
74	0x3e281cd0	0.16417241
75	0x3de12a80	0.10994434
76	0x3e3a29b4	0.18179971
77	0x3e7dcdcc	0.24785537
78	0xbeed15ae	-0.46305603
79	0x3e80dba4	0.25167572
80	0xbeb3ffe2	-0.3515616
81	0xbec12780	-0.3772545
82	0x3cf91880	0.03040719
83	0xbdae7f38	-0.08520359
84	0x3e965ade	0.293662
85	0xbe94423c	-0.28956783
86	0xbee39452	-0.44449097
87	0x3eba4f0e	0.3638844
88	0xbd97d730	-0.07414091
89	0x3e8ffd32	0.2812286
90	0x3e2499a0	0.16074228
91	0xbebff7d4	-0.37493765
92	0x3dcdb848	0.100449145
93	0x3df5f618	0.12009829
94	0xbeab6832	-0.33477932
95	0xbe72ee08	-0.23723614
96	0x3e2e945c	0.17048782
97	0x3db76be8	0.08956128
98	0xbe59ca70	-0.2126863
99	0xbe1afd94	-0.15135795
100	0x3eea774a	0.45794135
101	0xbdbd7638	-0.09251064
102	0x3e9054a6	0.28189582
103	0x3e5db298	0.2165016
104	0xbea57af0	-0.32320356
105	0xbed9b5c0	-0.42521477
106	0x3ef5bb44	0.47994435
107	0x3cd5e140	0.026108384
108	0x3eaf7a2e	0.34272903
109	0x3dd43478	0.1036157
110	0x3e24abbc	0.16081136
111	0x3ebf38ae	0.3734793
112	0x3ef2be32	0.47410733
113	0xbea9e072	-0.3317905
114	0x3d800798	0.062514484
115	0x3ebf0ab8	0.37312865
116	0x3eb97494	0.36221755
117	0x3e9f097c	0.31061924
118	0xbeb945a4	-0.36185944
119	0xbeb858c0	-0.3600521
120	0xbe9ad250	-0.3023858
121	0x3d80a4b8	0.062814176
122	0x3eff256e	0.49833244
123	0xbea1b57e	-0.3158378
124	0x3e886ae2	0.26644045
125	0xbe8db166	-0.27674407
126	0xbef0b1fa	-0.47010785
127	0xbdd9a400	-0.10626984
128	0x3e937ff0	0.28808546
129	0x3eeda9fa	0.46418744
130	0xbe9efc66	-0.3105194
131	0x3dde3830	0.10850561
132	0x3edce468	0.4314301
133	0x3ea9a3aa	0.33132678
134	0x3e9f8b8c	0.31161153
135	0x3eb5ec04	0.35531628
136	0x3ea1ec98	0.3162582
137	0x3e043f6c	0.12914819
138	0xbeaf0ed6	-0.34191006
139	0xbed6fa6a	-0.41987926
140	0xbe6a9be4	-0.2291103
141	0xbd6e7b30	-0.05822295
142	0xbe9cea70	-0.30647612
143	0x3e3b512c	0.18292683
144	0x3e1e7530	0.15474391
145	0xbde7dea8	-0.11321765
146	0x3e44c850	0.19217038
147	0x3e257878	0.16159236
148	0x3e9c4c48	0.30526948
149	0x3eac66ce	0.33672184
150	0xbe2d63e4	-0.16932636
151	0x3efa1e5a	0.4885128
152	0xbd6cc3c0	-0.05780387
153	0xbc8cb8e0	-0.017177999
154	0xbef1a220	-0.47194004
155	0xbea4c408	-0.3218081
156	0xbe958e5c	-0.29210174
157	0xbe5afe80	-0.21386147
158	0x3eb6021a	0.35548478
159	0xbe274fd8	-0.16339052
160	0xbebf4dd2	-0.3736406
161	0x3e44fdf0	0.19237494
162	0x3e23ed44	0.16008478
163	0x3ea5cf0e	0.32384533
164	0xbe84790e	-0.25873607
165	0x3dde04c0	0.1084075
166	0xbe3a64d8	-0.18202531
167	0xbde61120	-0.11233735
168	0xbecc02d8	-0.3984592
169	0xbe695980	-0.22788048
170	0xbe1ccdd0	-0.15312886
171	0x3e5af304	0.21381766
172	0x3dbb12f0	0.091344714
173	0x3dfcf1e0	0.123508215
174	0x3eff83d2	0.49905258
175	0x3ef98130	0.48731375
176	0x3eae9aa4	0.34102356
177	0x3c826e60	0.015921772
178	0xbeb1193e	-0.3458957
179	0x3ec81104	0.39075482
180	0xbe000850	-0.12503171
181	0xbd259240	-0.040422678
182	0xbedc8b32	-0.43074948
183	0xbdca44f0	-0.0987643
184	0xbea51dec	-0.3224939
185	0x3eeb3d6c	0.459453
186	0xbedd5140	-0.4322605
187	0xbec78c2e	-0.38974136
188	0xbc8b15c0	-0.016978145
189	0xbe8a6c54	-0.27035773
190	0x3e373318	0.17890584
191	0xbe4514f8	-0.1924628
192	0xbe707ae4	-0.23484379
193	0x3ce7fce0	0.028318822
194	0x3eb95160	0.36194897
195	0xbeb41394	-0.35171187
196	0x3e70703c	0.23480314
197	0x3ea4770a	0.3212207
198	0x3efa6b22	0.4890986
199	0xbeb32eac	-0.34996545
200	0x3df800a0	0.12109494
201	0xbebd4b14	-0.36971343
202	0x3eda8f60	0.4268751
203	0xbe469ba8	-0.19395316
204	0x3e9a33ca	0.30117637
205	0x3c73e340	0.014885724
206	0xbd1f80f0	-0.038941324
207	0xbc82b1c0	-0.015953898
208	0x3dae1308	0.08499724
209	0x3e715ad4	0.23569804
210	0x3da43aa0	0.08018994
211	0x3e1c3028	0.15252745
212	0xbee64740	-0.44976234
213	0x3eba816e	0.36426872
214	0x3edf327a	0.43593198
215	0x3ed39c70	0.4133029
216	0x3ebd3db2	0.36961132
217	0xbeb8bcd6	-0.3608157
218	0xbe3dcc64	-0.18535
219	0x3ee1b8c0	0.44086266
220	0xbec2fc0e	-0.38082927
221	0x3ee83fa6	0.4536106
222	0xbec957ce	-0.39324802
223	0xbeb4541e	-0.35220426
224	0x3e7a4e38	0.244439
225	0xbeb7eee6	-0.35924453
226	0xbdea9960	-0.11455035
227	0x3eba3ce8	0.36374593
228	0x3ecac656	0.39604443
229	0x3ef21d0c	0.47287786
230	0xbdcfc998	-0.10145873
231	0xbec6fa90	-0.3886304
232	0x3efc0f76	0.49230546
233	0xbdda2388	-0.10651308
234	0xbe52a7a0	-0.20571756
235	0x3df99fd8	0.12188691
236	0xbeb306ee	-0.34966224
237	0x3ea84384	0.3286401
238	0x3ea0718e	0.31336635
239	0xbecb2196	-0.39674062
240	0xbed24576	-0.4106862
241	0xbd3365c0	-0.04379821
242	0x3e570d94	0.21001273
243	0xbc6d4200	-0.014481068
244	0xbe81cfd6	-0.2535388
245	0x3c3b4a00	0.011431217
246	0xbef09f66	-0.4699661
247	0xbeb4ee4a	-0.3533805
248	0xbeaa6a9e	-0.33284467
249	0x3ed2d2e2	0.41176516
250	0x3ee1aa5e	0.44075292
251	0xbe2de8cc	-0.16983336
252	0x3cb7b500	0.022425175
253	0x3e645738	0.22298896
254	0x3d7562d0	0.059908688
255	0xbe803152	-0.25037628

bias f4 [128]
0	0xbebf69ca	-0.37385398
1	0x3eb33290	0.34999514
2	0x3e933438	0.28750777
3	0xbefb92fc	-0.49135578
4	0xbec8f23a	-0.39247304
5	0xbea8cce6	-0.32968825
6	0xbe8a94ae	-0.2706656
7	0x3d7fb790	0.06243092
8	0xbefd25b8	-0.4944284
9	0xbebdca38	-0.37068343
10	0x3e69d2a0	0.22834253
11	0xbe27afb8	-0.16375625
12	0xbe4bbc7c	-0.1989612
13	0xbed3c8b4	-0.41364062
14	0x3e4f84fc	0.20265573
15	0x3d109f30	0.035308063
16	0xbe45e748	-0.19326508
17	0xbe9cc530	-0.30619192
18	0x3dd9c6c8	0.10633618
19	0x3e0b4f9c	0.13604587
20	0x3e6341c0	0.2219305
21	0x3e1827fc	0.14859003
22	0xbd9c34d8	-0.07627267
23	0xbec62bfc	-0.38705432
24	0x3ea2f8c4	0.31830418
25	0xbb8c7200	-0.004286051
26	0xbeaa2264	-0.33229363
27	0x3edcc596	0.43119496
28	0x3e8ebb74	0.2787739
29	0xbec932ac	-0.39296472
30	0xbe7fb398	-0.24970853
31	0xbe2e3c60	-0.17015219
32	0xbe93c8d6	-0.28864163
33	0x3e6f18e8	0.23349345
34	0xbeb6a102	-0.35669714
35	0x3eedeb20	0.4646845
36	0xbe53a090	-0.20666718
37	0x3e971c4a	0.2951377
38	0x3c8b7d20	0.017027438
39	0xbe612c4c	-0.21989554
40	0x3eaaf3d0	0.3338914
41	0xbec3562c	-0.3815168
42	0xbe8771ea	-0.26454097
43	0x3d757960	0.059930205
44	0x3ecb140c	0.39663732
45	0xbe5b5e80	-0.21422768
46	0xbe9be2e4	-0.3044654
47	0xbea36f38	-0.3192079
48	0xbe61baa4	-0.22043854
49	0xbe30dcd4	-0.17271739
50	0xbdee82e8	-0.11646062
51	0xbe91a282	-0.28444296
52	0x3e2005ec	0.15627259
53	0x3b851000	0.0040607452
54	0xbea74324	-0.32668412
55	0xbe92314a	-0.2855323
56	0x3dd8d588	0.10587603
57	0xbbea0d00	-0.007142663
58	0x3eb52ef4	0.35387385
59	0xbd9b3c00	-0.075798035
60	0xbecf62d4	-0.40505087
61	0xbebd573e	-0.36980623
62	0xbe1648e8	-0.14676249
63	0xbde2cae0	-0.110738516
64	0x3d69b920	0.057061315
65	0xbde5a728	-0.11213523
66	0x3e3cea70	0.18448806
67	0xbe2a486c	-0.16629189
68	0x3ebbe468	0.36697698
69	0x3deb3330	0.114843726
70	0xbe1d6838	-0.15371788
71	0x3ee425bc	0.4456004
72	0x3e02b5e4	0.12764698
73	0xbeadf99c	-0.339795
74	0xbe8e79a4	-0.2782718
75	0x3ea0840e	0.3135075
76	0x3e69d754	0.22836047
77	0x3ec7e220	0.39039707
78	0xbd1d5190	-0.038407862
79	0x3eb30d3a	0.3497103
80	0x3e7e8e2c	0.24858922
81	0x3e1e56f4	0.15462857
82	0xbded0028	-0.115722954
83	0x3ef6c7f4	0.48199427
84	0x3dcf3870	0.101181865
85	0xbe041a60	-0.12900686
86	0xbbe8f100	-0.0071088076
87	0x3efba910	0.49152422
88	0x3eabf150	0.33582544
89	0xbd17c500	-0.03705311
90	0x3efaf93c	0.49018276
91	0x3e60d65c	0.21956772
92	0xbe884c7c	-0.26620853
93	0xbee8fa48	-0.4550345
94	0x3e94c580	0.2905693
95	0x3ef015ce	0.46891636
96	0xbe9526e8	-0.29131246
97	0x3e524a44	0.20536143
98	0x3cae5f40	0.021285653
99	0xbddaf2f8	-0.10690874
100	0xbe0b37d8	-0.13595521
101	0x3e0e7070	0.13910079
102	0x3de1bf48	0.11022812
103	0x3eace796	0.33770436
104	0x3e3b6e14	0.1830371
105	0x3e68fd44	0.22752863
106	0x3ee1d50a	0.44107848
107	0x3e1f6de4	0.15569264
108	0x3d980150	0.07422125
109	0xbe3a66a8	-0.18203223
110	0x3ebbbf68	0.3666947
111	0x3d9739c8	0.07384068
112	0x3ea50270	0.32228422
113	0x3ef7349c	0.48282325
114	0xbde50548	-0.11182648
115	0x3eb43ff4	0.35205042
116	0xbdcff458	-0.10154027
117	0x3ee705a2	0.45121485
118	0x3ec97f14	0.39354765
119	0xbe3784e0	-0.17921782
120	0x3c92e600	0.017931938
121	0xbe5f982c	-0.21835393
122	0xbe4f13b4	-0.2022236
123	0xbdcf53a0	-0.10123372
124	0xbb5f6700	-0.0034088492
125	0xbe327acc	-0.17429656
126	0xbef1a9e0	-0.47199917
127	0xbe9ad5f8	-0.3024137

weight f4 [128, 128]
0	0xbbf78050	-0.007553138
1	0xbce725be	-0.028216239
2	0x3d8673fd	0.06565092
3	0x3d93248f	0.071847074
4	0x3d66a42a	0.056308903
5	0x3d203b4a	0.039119042
6	0xbd8f816a	-0.07007106
7	0x3dab0549	0.083506174
8	0xbd9f841d	-0.077888705
9	0xbcee0b9c	-0.02905827
10	0xbd7ecef4	-0.062209085
11	0x3d02306a	0.031784452
12	0xbd96a106	-0.073549315
13	0xbd327ba9	-0.043574963
14	0xbd65f89b	-0.05614529
15	0xbd5e8a3f	-0.05433106
16	0xbd2901a2	-0.041261323
17	0x3db1f201	0.08688737
18	0xbbec90b0	-0.0072193965
19	0x3cdcb828	0.026943281
20	0xbdb3b1eb	-0.087741695
21	0x3da0f26f	0.078587405
22	0xbc9dac20	-0.019247115
23	0xbda6211e	-0.08111785
24	0x3d79809a	0.06091366
25	0xbcc3c93c	-0.023899667
26	0x3da463b3	0.080268286
27	0xbd75e886	-0.060036205
28	0xbda81072	-0.08206262
29	0xbd87fdd0	-0.06640208
30	0x3d1cd3ca	0.038287915
31	0xbc2267f0	-0.009912476
32	0xbda7b326	-0.08188467
33	0x3c864198	0.0163887
34	0xbbb89db0	-0.005634032
35	0x3d02cb26	0.03193202
36	0xbd38296d	-0.04496138
37	0xbd813a46	-0.06309943
38	0x3d76c276	0.060244046
39	0xbd2e3698	-0.042532533
40	0x3d7eabae	0.062175445
41	0x3d92c583	0.071665786
42	0xbd7d2f7e	-0.06181287
43	0xbd26ea16	-0.040750585
44	0x3c2e5470	0.010640249
45	0xbdaaad4f	-0.08333837
46	0x3cde5ea4	0.027144738
47	0xbd16d906	-0.036828063
48	0xbd208517	-0.039189424
49	0xbd8bf0a6	-0.068330094
50	0x3d295e4e	0.0413497
51	0xbd66b545	-0.056325216
52	0xbd90b068	-0.07064897
53	0xbcbe6a28	-0.023243979
54	0xbd498c30	-0.04920596
55	0xbdaffc93	-0.085930966
56	0x3d11e824	0.035621777
57	0xbd09be4a	-0.03362874
58	0x3d7d987a	0.06191299
59	0x3d7ed862	0.062218077
60	0xbd66e5cb	-0.05637149
61	0xbd530f00	-0.051527977
62	0xbd008216	-0.03137406
63	0x3d5410e2	0.051773913
64	0xbb476640	-0.0030425936
65	0xbd01561f	-0.031576272
66	0x3d6046a6	0.054754876
67	0x3dabab45	0.083822764
68	0x3d85d3c1	0.065345295
69	0xbd8a6d2e	-0.067591056
70	0xbc9663f4	-0.018358208
71	0xbc8ae308	-0.01695396
72	0x3d9a7b7f	0.07543086
73	0xbd3b3fda	-0.04571519
74	0xbd4f7ecd	-0.050658036
75	0x3ab54280	0.0013829023
76	0xbca833c8	-0.020532504
77	0x3d0909b8	0.033456534
78	0x3c3006a0	0.010743767
79	0xbd582805	-0.05277254
80	0x3d83a0c3	0.06427147
81	0x3d615c7e	0.055019848
82	0x3c9e9028	0.019355848
83	0xbda3d852	-0.08000244
84	0x3d2a2102	0.041535385
85	0x3d708fa6	0.058730744
86	0x3cc99578	0.024607405
87	0xbd0bf191	-0.034165923
88	0x3bc23f00	0.0059279203
89	0xbd0b14a0	-0.033955216
90	0x3daa6be1	0.083213575
91	0x3daecb8f	0.085349195
92	0xbc28c280	-0.010300279
93	0xbd739425	-0.059467454
94	0x3d54f85e	0.051994674
95	0x3d38c732	0.045111842
96	0x3d3fe87a	0.046852566
97	0xbd883561	-0.06650806
98	0x3cf58654	0.02997128
99	0xbd1a8007	-0.037719753
100	0xbd9f1b80	-0.07768917
101	0xbd7ccda0	-0.061719537
102	0x3d197876	0.037468396
103	0x3d078a20	0.03309071
104	0xbd9edfea	-0.07757552
105	0x3d4d4dbe	0.05012297
106	0x3d8ab449	0.06772668
107	0x3d896ab7	0.06709807
108	0x3d4c6c26	0.049907826
109	0xbc635470	-0.013875112
110	0x3d7296f6	0.059226
111	0x3d8db763	0.06919744
112	0x3d3cb95a	0.046075203
113	0xbd8232be	-0.063573346
114	0xbcfcb54a	-0.030848164
115	0x3d8f6827	0.07002287
116	0x3d8a013d	0.067385174
117	0x3d67025a	0.056398727
118	0xbd17515a	-0.036942817
119	0xbc8f66f8	-0.017505154
120	0xbd86dc73	-0.06585016
121	0xbd4e5381	-0.050372604
122	0x3d8af4e1	0.06784988
123	0xbd9493ac	-0.07254729
124	0xbcb2f014	-0.021842994
125	0x3c99b2f4	0.01876209
126	0xbd593a47	-0.053034093
127	0x3ca8c86c	0.020603381
128	0xbc68cc18	-0.014208816
129	0x3d10c9b0	0.035348594
130	0xbd8ae948	-0.06782776
131	0x3c47d9e8	0.012197949
132	0xbda50a37	-0.08058589
133	0x3d609b26	0.05483546
134	0x3dafd637	0.0858578
135	0xbd01383c	-0.03154777
136	0x3c562390	0.013070002
137	0xbd3a86ad	-0.045538593
138	0xbd67973c	-0.056540713
139	0xbd375b4b	-0.044764798
140	0xbd2c795f	-0.042107936
141	0x3c897220	0.016778052
142	0xbc25ff70	-0.010131702
143	0x3bcb1410	0.00619746
144	0xbd8ab882	-0.06773473
145	0xbd637482	-0.055531032
146	0xbd9cb64f	-0.0765196
147	0xbd821b45	-0.063528575
148	0x3d9796b1	0.07401789
149	0x3d06819e	0.032838456
150	0xbdaca351	-0.08429588
151	0xbc71b400	-0.014752388
152	0x3be87220	0.007093683
153	0x3d4168f2	0.047219224
154	0x3da7e32b	0.08197626
155	0x3caed8dc	0.021343641
156	0x3d7f085a	0.062263824
157	0xbd00d44f	-0.031452473
158	0xbb3d44c0	-0.002888009
159	0xbd5a8cf3	-0.053357076
160	0x3ca6ce54	0.020362057
161	0x3da71747	0.08158737
162	0x3d635a46	0.055506013
163	0x3db42103	0.08795359
164	0xbd23216d	-0.0398268
165	0xbc353258	-0.011059366
166	0x3c955ba0	0.018232167
167	0x3d9188db	0.07106181
168	0xbda66681	-0.0812502
169	0xbd31cd1b	-0.043408494
170	0x3c5211f0	0.012821659
171	0xbd51427a	-0.051088788
172	0x3d073e50	0.03301841
173	0xbbc574b0	-0.006025873
174	0xbcbba0f0	-0.02290389
175	0x3d422a16	0.047403418
176	0x3d815e91	0.06316865
177	0x3db0134f	0.08597433
178	0x3d23f22e	0.040025882
179	0xbb1e69a0	-0.0024171844
180	0x3d9400ab	0.0722669
181	0x3d90101b	0.07034322
182	0xbd3571fd	-0.04429816
183	0x3d24e862	0.04026068
184	0x3c29b0d8	0.010357104
185	0xbd1c7687	-0.038198974
186	0xbcac6fb0	-0.02104935
187	0xbcaafa78	-0.020871386
188	0xbd7d5858	-0.06185183
189	0xbcdcf4d4	-0.026972212
190	0x3cf3a848	0.029743329
191	0x3d84e3b3	0.06488743
192	0x3bdc0120	0.0067140013
193	0xbdaf4ca6	-0.085595414
194	0x3d3fbd7e	0.046811573
195	0xbcdb1848	-0.026744977
196	0x3da1a8d7	0.07893532
197	0xbdaeea55	-0.08540789
198	0xbca968f4	-0.020679928
199	0x3d8c6273	0.06854715
200	0x3d1c9e46	0.03823688
201	0xbd349fc1	-0.044097666
202	0xbd9cbef6	-0.076536104
203	0xba78dd00	-0.0009493381
204	0x3d0bdc0a	0.034145392
205	0xbd96481f	-0.07337975
206	0xbd977a44	-0.07396367
207	0xba91d700	-0.0011126697
208	0xbc947fd4	-0.01812736
209	0x3d68b27a	0.056810834
210	0xbdaf6557	-0.08564251
211	0xbc665610	-0.014058605
212	0xbd8c46f0	-0.06849468
213	0xbc52ec30	-0.012873694
214	0xbd38f94b	-0.04515962
215	0x3ce3e1d0	0.027817637
216	0xbd976ec2	-0.07394172
217	0xbd8e66a0	-0.06953168
218	0xbd4d7420	-0.050159574
219	0xbd9e8b1f	-0.07741379
220	0x3d648b16	0.055796705
221	0xbc4f3f28	-0.012649335
222	0xbd4924cf	-0.04910737
223	0x3d7db0da	0.061936237
224	0xbca446bc	-0.02005326
225	0x3d3b3e32	0.04571361
226	0xbce074d2	-0.027399454
227	0xbd97731f	-0.073950045
228	0x3c9f06f8	0.019412503
229	0x3d617036	0.055038653
230	0xbdb07fe7	-0.086181454
231	0x3c16bf60	0.009200901
232	0x3c905110	0.017616779
233	0x3c263668	0.010144807
234	0xbb0f57e0	-0.0021872446
235	0xbce11370	-0.027475089
236	0xbd8c8824	-0.06861904
237	0x3c6c33a0	0.014416605
238	0xbd732690	-0.059362948
239	0xbd959119	-0.07303066
240	0xbce87796	-0.028377336
241	0xbd77d5f9	-0.060506795
242	0x3cddee10	0.027091056
243	0x3d80f0bb	0.06295916
244	0x3d8caec9	0.06869275
245	0xbd606645	-0.05478503
246	0x3d4561d2	0.04818899
247	0x3d80a27f	0.06280994
248	0x3a81f5c0	0.0009915158
249	0x3d18bd6e	0.03729003
250	0x3d4cdb3e	0.050013773
251	0x3d8a81ab	0.067630135
252	0x3d41b79a	0.047294237
253	0x3d1a88ce	0.037728123
254	0xbd096956	-0.03354772
255	0xbd49d9ac	-0.049279854

bias f4 [128]
0	0x3d32c24a	0.04364232
1	0xbd5fc65e	-0.054632537
2	0xbc6ff7b8	-0.014646463
3	0xbd9d2c7a	-0.07674499
4	0xbd407133	-0.046982955
5	0x3d5fb2aa	0.054613747
6	0x3a51d100	0.0008003861
7	0x3ca2d0c4	0.019874938
8	0x3d16b936	0.036797725
9	0x3d0941d0	0.03351003
10	0xbc59ebe8	-0.013300873
11	0xbcf0a292	-0.029374395
12	0x3c163d68	0.009169914
13	0x3da72503	0.08161356
14	0x3cc544e8	0.024080709
15	0xbc5ad0a8	-0.013355412
16	0x3d5998b2	0.053124137
17	0xbd82eb0b	-0.06392487
18	0xbd671f8c	-0.05642657
19	0xbd3142c1	-0.043276552
20	0x3dac52c1	0.084142216
21	0x3a8ea780	0.0010883659
22	0xbd8588f3	-0.065202616
23	0x3d587d52	0.05285389
24	0x3dac2a07	0.084064536
25	0x3d2d529a	0.042315103
26	0x3add0d00	0.0016864836
27	0xbd18fcb0	-0.037350357
28	0x3c0ecff8	0.008716576
29	0x3cf626f8	0.030047879
30	0xbd13f7ee	-0.036125116
31	0xbd416a69	-0.04722062
32	0x3c3beeb8	0.011470489
33	0x3d4ad016	0.049514852
34	0xbcf4be58	-0.02987592
35	0xbafa43c0	-0.0019093677
36	0xbd82a648	-0.06379372
37	0x3c4a4308	0.012345083
38	0xbd362b92	-0.044475146
39	0x3d9b6f93	0.075896405
40	0x3d44a34a	0.048007287
41	0xbd809be8	-0.06279737
42	0xbd7b79a4	-0.061395302
43	0xbd850cd9	-0.06496591
44	0xbd9f1b43	-0.07768872
45	0x3d896b25	0.06709889
46	0xbc2c1650	-0.010503367
47	0x3d6e35d2	0.058156796
48	0x3d589e06	0.052885078
49	0xbcab055c	-0.020876579
50	0x3d7a7f36	0.061156474
51	0x3c5cb7a8	0.013471521
52	0x3d9917c1	0.07475234
53	0x3c859348	0.01630558
54	0x3d1427ba	0.0361707
55	0x3d970031	0.073730834
56	0xbc1dafd0	-0.0096244365
57	0x3d40270a	0.04691223
58	0x39e80f00	0.00044261664
59	0xbd9fd9e2	-0.0780523
60	0x3d482902	0.048867233
61	0xbd77575b	-0.060386043
62	0xbb4113e0	-0.002946131
63	0x3da02577	0.07819646
64	0xbcbc264c	-0.02296748
65	0xbda3961e	-0.07987617
66	0x3d878f09	0.06619079
67	0x3ceecec4	0.029151328
68	0x3d981c75	0.07427303
69	0x3d49b9e2	0.049249537
70	0xbdafa605	-0.085765876
71	0x3d349e42	0.04409624
72	0xbd8c1a00	-0.068408966
73	0x3c1da3e0	0.00962159
74	0xbda6f65c	-0.08152458
75	0x3d95f0d7	0.07321327
76	0x3dad9871	0.084763415
77	0x3bb5b9f0	0.005545847
78	0xbcd6e49e	-0.02623206
79	0x3d5a3776	0.053275548
80	0x3da2fba5	0.07958154
81	0xbc0bb5c8	-0.008527227
82	0x3d5c06c6	0.053717397
83	0x3bc21830	0.0059232935
84	0xbd4e38d0	-0.05034715
85	0x3da05291	0.07828248
86	0xbd5a8eb8	-0.053358763
87	0xbd7b1bac	-0.061305687
88	0x3d60a172	0.054841466
89	0x3d0ac0f8	0.033875436
90	0x3d37525a	0.04475627
91	0xbd6ae380	-0.057345867
92	0x3ccfde68	0.025374606
93	0x3d0c1a0a	0.03420452
94	0x3cba3424	0.02272994
95	0xbd9afc8c	-0.07567701
96	0x3d01eb4e	0.031718545
97	0x3d06e550	0.032933533
98	0xbd411ca7	-0.047146466
99	0xbd05c8c0	-0.032662153
100	0xbdb2174a	-0.08695848
101	0x3d9ef2a5	0.077611245
102	0x3b92d390	0.0044807866
103	0xbd36fae8	-0.044672877
104	0x3d854c27	0.065086655
105	0xbd93d10e	-0.072176084
106	0x3c821db8	0.015883312
107	0xbd0ce1e7	-0.034395125
108	0xbc2abfc0	-0.010421693
109	0x3bb14650	0.005409993
110	0xbc184d70	-0.009295806
111	0x3d83ee3b	0.06441923
112	0x3d7529f2	0.059854455
113	0x3d0f3fee	0.034973077
114	0xbca2fb2c	-0.019895159
115	0xbcf39276	-0.029732924
116	0xbd15a05f	-0.036529895
117	0x38b14400	8.452684e-05
118	0x3cdf9780	0.02729392
119	0x3d8fd9c9	0.07023961
120	0xbdb495bc	-0.08817622
121	0xbd9e8df3	-0.077419184
122	0xbb6c6ec0	-0.0036076754
123	0x3d8f034d	0.069830514
124	0x3d3f3106	0.04667761
125	0xbd200b61	-0.03907335
126	0x3d1dd692	0.03853471
127	0x3d40b196	0.04704436

weight f4 [128, 128]
0	0x3c77aa68	0.015116312
1	0x3d5490de	0.05189597
2	0x3db1950b	0.08671006
3	0x3d223e2a	0.039610066
4	0xbd60803f	-0.054809805
5	0x3cfa1f4c	0.030532502
6	0x3ba3e130	0.0050012097
7	0x3d9f3563	0.077738546
8	0x3d5c25ce	0.05374699
9	0x3a142d80	0.0005652532
10	0x3c129c08	0.008948334
11	0x3d1fe2ba	0.039034583
12	0x3db4765b	0.08811637
13	0x3d52e2ca	0.051485814
14	0x3c8a1054	0.016853489
15	0x3d5065e6	0.050878428
16	0x3d5ed496	0.054401956
17	0x3d81b99f	0.063342325
18	0xbbdb75f0	-0.006697409
19	0x3d082858	0.0332416
20	0xbbfb7390	-0.0076736882
21	0x3d8b7867	0.06810074
22	0xbd1d3312	-0.038378783
23	0x3c494008	0.012283333
24	0xbd19ca07	-0.037546184
25	0xbc33b168	-0.01096759
26	0x3d102e52	0.035200424
27	0x3bda3a20	0.006659761
28	0xbdb3f8d4	-0.087876946
29	0x3c5b17d8	0.013372384
30	0xbd1d667e	-0.038427822
31	0x3b679a80	0.0035339892
32	0x3cee1790	0.02906397
33	0xbbc7ce10	-0.0060975626
34	0x3d31ce72	0.043409772
35	0xbda64fba	-0.081206754
36	0x3c3f49f8	0.01167535
37	0x3d91478f	0.07093727
38	0x3b83d9c0	0.0040237606
39	0x3d97366d	0.07383428
40	0xbd087466	-0.03331413
41	0x3cdc7438	0.026910886
42	0xbd93a510	-0.072092175
43	0xbc47df88	-0.01219929
44	0xbd5e2058	-0.054230064
45	0x3d23725a	0.039903976
46	0x3d1b61f2	0.037935205
47	0xbc7b2130	-0.015327737
48	0xbd5064a2	-0.05087722
49	0xbd360ade	-0.044443958
50	0x3d50559a	0.050862886
51	0xbce7bd54	-0.02828852
52	0xbdb26630	-0.08710897
53	0x3d8121b1	0.06305254
54	0x3c2f0810	0.010683075
55	0x3d6d3b1e	0.057917707
56	0x3d16074a	0.036628045
57	0xbc3c1120	-0.011478692
58	0xbd992ed4	-0.07479635
59	0xbba3e7b0	-0.0050019845
60	0xbbb23ca0	-0.005439356
61	0x3cca0738	0.024661645
62	0xbdad91db	-0.08475085
63	0xbbed8760	-0.007248804
64	0xbd928110	-0.07153523
65	0xbd3cfb8d	-0.046138335
66	0xbdaa32f1	-0.083104976
67	0x3d85caa3	0.065327905
68	0x3d9cbe43	0.07653477
69	0xbd2ce466	-0.042210005
70	0xbd18310d	-0.037156153
71	0x3d462b8e	0.04838138
72	0xbb13e2a0	-0.00225655
73	0xbc9ad91c	-0.018902354
74	0xbc56a1b8	-0.01310008
75	0xbda99fc1	-0.08282424
76	0xbd75cbda	-0.06000886
77	0x3d71446a	0.058903135
78	0xbd74502b	-0.059646767
79	0x3d4ce31a	0.05002127
80	0xbd12b2ea	-0.035815157
81	0xbd7826fb	-0.06058405
82	0xbd2be7f9	-0.041969273
83	0x3d60306e	0.054733686
84	0xbdabd387	-0.08389955
85	0x3d1285bc	0.03577207
86	0x3cca4164	0.024689384
87	0x3cf3230c	0.029679798
88	0xbd9d4e17	-0.0768091
89	0xbd85a50d	-0.065256216
90	0xbc886fa8	-0.016654804
91	0xbd019905	-0.03164007
92	0xbcf2f2f2	-0.029656861
93	0x3cef3b90	0.029203206
94	0x3d2cd19e	0.042192094
95	0x3d8e4f2f	0.06948697
96	0xbd35099f	-0.04419863
97	0xbd466975	-0.048440415
98	0x3da7a8f7	0.08186524
99	0xbc0fb880	-0.008772016
100	0xbccd8438	-0.02508746
101	0x3d4c4632	0.04987163
102	0xbd85b8bb	-0.06529375
103	0x3d120ae6	0.035654925
104	0xbd14d500	-0.036335945
105	0xbaf98c00	-0.0019038916
106	0xbd157455	-0.036487896
107	0xbd8a4fc9	-0.06753499
108	0xbc3a02d0	-0.01135321
109	0x3c942bb8	0.018087253
110	0xbd2a4382	-0.041568287
111	0x3c4b5ea0	0.012412697
112	0xbd9b1d06	-0.07573895
113	0xbd72d836	-0.059288226
114	0x3d153256	0.036424957
115	0x3d8bdd5b	0.068293296
116	0x3d3d7da6	0.046262406
117	0xbd6e5a16	-0.05819138
118	0x3d72a182	0.059236057
119	0xbd6a0f0c	-0.057143256
120	0x3d2826e6	0.04105272
121	0x3c7a3eb8	0.015273742
122	0xbcad9dd8	-0.02119343
123	0xbd9a577b	-0.07536217
124	0xbd9bf8da	-0.07615824
125	0xbdb15ee6	-0.086606786
126	0xbc5c64e0	-0.013451785
127	0x3d90c329	0.07068474
128	0x3d03ca06	0.032175086
129	0x3d9280d7	0.071534805
130	0xbd9d296d	-0.07673917
131	0x3d72ce1e	0.0592786
132	0xbc886bb8	-0.016652927
133	0x3d311392	0.043231554
134	0xbd8672b0	-0.06564844
135	0xbd797790	-0.06090504
136	0x3d912d93	0.07088771
137	0x3d6e0a82	0.05811549
138	0xbd6c075b	-0.057624202
139	0xbd8dff59	-0.06933469
140	0xbccc9d90	-0.024977475
141	0x3db1e8f7	0.08687013
142	0x3d953813	0.07286086
143	0xbd1a8a86	-0.037729762
144	0x3c464110	0.012100473
145	0x3d46757a	0.048451878
146	0xbd8d72c8	-0.069066584
147	0xbc95451c	-0.01822143
148	0x3d8a721d	0.06760047
149	0x3d1e50b2	0.038651176
150	0x3d16e812	0.036842413
151	0x3d9e89fb	0.077411614
152	0x3d1e43ae	0.038638763
153	0xbdb471a5	-0.088107385
154	0xbd53c137	-0.051697936
155	0xbd09a56b	-0.03360502
156	0xbd98bf5a	-0.074583724
157	0x3d68497a	0.056710698
158	0x3b3f42e0	0.0029184148
159	0x3d9cf38f	0.076636426
160	0xbc175828	-0.009237327
161	0x3cc9b660	0.024623096
162	0xbcae9ba0	-0.021314442
163	0x3da40a8b	0.080098234
164	0x3d79bdd6	0.060972057
165	0xbcae3150	-0.021263748
166	0x3a3dc480	0.00072390586
167	0xbc8b35e0	-0.016993463
168	0xbd310eb1	-0.0432269
169	0xbdb0ebd6	-0.08638732
170	0x3d36e282	0.04464961
171	0x3d6838a6	0.05669465
172	0xbd7de84b	-0.06198911
173	0x3d78fd2e	0.060788326
174	0xbd884e25	-0.0665553
175	0xbd98ec90	-0.07466996
176	0x3c945ad0	0.018109709
177	0x3c497288	0.012295373
178	0xbcf765e0	-0.030199945
179	0xbc4b47e8	-0.0124072805
180	0x3c671cc8	0.014105983
181	0xbd4ef7bb	-0.050529223
182	0x3d8f966b	0.07011112
183	0xbd5a8965	-0.053353686
184	0xbca65904	-0.020306118
185	0xbdb1633a	-0.08661504
186	0xbcdb612e	-0.026779737
187	0x3c2852e0	0.010273665
188	0xbd0b26d6	-0.033972584
189	0xbd93ed64	-0.07223013
190	0xbce2c9ee	-0.027684178
191	0xbd51591a	-0.051110364
192	0x3dadd1b9	0.08487267
193	0x3db2aac9	0.08723981
194	0xbb1626a0	-0.0022911206
195	0xbd112ab4	-0.035441115
196	0x3d50820a	0.050905265
197	0xbc833158	-0.01601474
198	0x3d9052b3	0.070470236
199	0x3d58815a	0.052857734
200	0x3d8790df	0.06619429
201	0x3da780e3	0.0817888
202	0xbcb9bed4	-0.022674002
203	0xbda3f54a	-0.080057696
204	0xbcb6d2c0	-0.02231729
205	0xbdace590	-0.08442223
206	0x3d356aea	0.044291414
207	0xbca102ac	-0.019654594
208	0x3d62e696	0.055395685
209	0xbd8515ee	-0.064983234
210	0x3cee444c	0.0290853
211	0x3cc655a0	0.024210751
212	0x3d9ec573	0.07752504
213	0xbd803822	-0.062607065
214	0x3caf2ec8	0.021384612
215	0xbd4229ea	-0.047403254
216	0xbcaa7004	-0.020805366
217	0x3d8d0b21	0.06886888
218	0xbd0b5e8d	-0.034025718
219	0x3d3e8d86	0.046521686
220	0x3ca6840c	0.020326637
221	0x3ab8d240	0.0014100745
222	0x3d978165	0.07397727
223	0x3c53da98	0.012930535
224	0xbd7af408	-0.061267883
225	0x3da5a7eb	0.080886684
226	0x3d7a47ae	0.061103515
227	0xbd0b21c3	-0.033967745
228	0x3d766906	0.060158752
229	0xbc75fc10	-0.01501371
230	0x3cd70258	0.026246235
231	0x3bdd9b30	0.0067628846
232	0xbd96e18f	-0.07367241
233	0x3dadf00d	0.08493052
234	0x3d8776c3	0.06614449
235	0xbda103b6	-0.07862036
236	0xbdb039f8	-0.08604807
237	0x3daf1dfd	0.08550642
238	0x3d15aff0	0.03654474
239	0xbc5ed740	-0.013601124
240	0xbcfa72a8	-0.03057225
241	0x3d8f8e5b	0.07009574
242	0x3d69fb0e	0.05712419
243	0xbdb363db	-0.0875928
244	0xbd0b8af5	-0.034068067
245	0xbd348a25	-0.044077057
246	0xbda53ad4	-0.08067861
247	0xbc53cf28	-0.012927808
248	0x3d090762	0.033454306
249	0xbcad3d4c	-0.021147393
250	0xbd7b8d00	-0.061413765
251	0xbc8d8c54	-0.017278828
252	0xbca3e954	-0.02000872
253	0xbd57446f	-0.052555498
254	0x3cb2b6cc	0.02181568
255	0xbd96d3cf	-0.07364618

bias f4 [128]
0	0x3d32ae96	0.04362353
1	0x3d770126	0.06030383
2	0x3daa245b	0.083077155
3	0x3d112830	0.035438716
4	0xbd005de7	-0.031339552
5	0x3c785ce0	0.015158862
6	0x3d97d759	0.07414121
7	0xbbfde540	-0.007748276
8	0xbd98c083	-0.07458594
9	0xbd4a8b0c	-0.04944901
10	0xbc698bd0	-0.014254525
11	0x3ba40610	0.0050056055
12	0xbd262aa9	-0.040568028
13	0x3d3598f2	0.044335313
14	0x3d76b322	0.060229428
15	0xbcc8d9e4	-0.02451796
16	0x3cebc060	0.028778255
17	0x3cce9874	0.02521918
18	0x3d171b02	0.03689099
19	0x3d168002	0.03674317
20	0xbc09b210	-0.00840427
21	0x3d26b9a2	0.040704377
22	0xbcc63de4	-0.024199434
23	0x3daff5eb	0.08591827
24	0xbd825c36	-0.06365244
25	0x3db2cbc7	0.08730274
26	0x3d31016a	0.04321424
27	0xbd4d83c0	-0.050174475
28	0xbd9dd134	-0.07705918
29	0x3c212048	0.009834357
30	0xbc9df8e4	-0.01928372
31	0x3d8fff6f	0.07031142
32	0xbab27d40	-0.001361765
33	0x3cdcf078	0.026970133
34	0xbd8b3eb9	-0.06799073
35	0xbd4085dc	-0.04700266
36	0x3c090ed8	0.008365355
37	0xbdae2044	-0.08502248
38	0x3d86d7a1	0.06584097
39	0xba027100	-0.0004975945
40	0x3cdfee14	0.027335204
41	0x3d8d9773	0.06913652
42	0xbcdb7fb8	-0.0267943
43	0xbd8dbf2f	-0.06921231
44	0xbd25d243	-0.040483724
45	0xbc021840	-0.007940352
46	0xbd1e1366	-0.03859272
47	0xbabf9100	-0.0014615357
48	0xbdb28696	-0.087170765
49	0x3d0a2036	0.033722125
50	0x3d757e4e	0.059934907
51	0xbd60b161	-0.05485666
52	0x3d900a75	0.070332445
53	0x3cea9884	0.028637178
54	0xbd80c5d4	-0.06287733
55	0x3acc5bc0	0.0015591308
56	0xbbb2fd80	-0.0054623485
57	0xbcbffc68	-0.023435786
58	0xbbb8c040	-0.0056381524
59	0xbd07083b	-0.032966834
60	0xbd2eb240	-0.04265046
61	0x3c21b998	0.009870909
62	0xbd96814f	-0.073488824
63	0x3d398306	0.04529097
64	0xbd5b230b	-0.053500216
65	0xbc888444	-0.016664632
66	0xbd8e6498	-0.069527805
67	0xbd8ddaae	-0.069264755
68	0x3ce3d664	0.02781219
69	0x3c4feae0	0.012690276
70	0x3cd5a0dc	0.02607768
71	0xbbcf4740	-0.0063256323
72	0xbd7221a2	-0.059114106
73	0x3d6832ee	0.056689195
74	0x3d679696	0.056540094
75	0x3cd999ec	0.026562653
76	0xbd87ce9c	-0.066312045
77	0x3cbda3f8	0.023149475
78	0x3d48d45e	0.049030654
79	0x3db27285	0.08713249
80	0xbc430708	-0.011903532
81	0x3d579e56	0.052641235
82	0xbd0b882c	-0.03406541
83	0xbd31720d	-0.043321658
84	0xbceac770	-0.028659552
85	0x3d93fb21	0.072256334
86	0xbd939388	-0.07205874
87	0xbccafc20	-0.024778426
88	0x3d74801a	0.05969248
89	0x3d0c532e	0.034259014
90	0xbc8bdcb0	-0.017073005
91	0xbc6347f0	-0.013872132
92	0x3c49e1f0	0.012321934
93	0x3d7b79e6	0.06139555
94	0x3c64c288	0.0139623955
95	0xbd56c5f9	-0.052434895
96	0xbd73bd3c	-0.05950664
97	0xbcffd660	-0.031230152
98	0x3da98d11	0.082788594
99	0xbc3d3950	-0.011549309
100	0x3d83a8cb	0.06428679
101	0x3d8fe40b	0.070259176
102	0x3d804fcf	0.06265222
103	0x3d2ee076	0.04269453
104	0xbbdf8ac0	-0.00682196
105	0xbd454f5e	-0.048171394
106	0xbd1f14f4	-0.03883834
107	0xbd025d65	-0.03182735
108	0xbda67941	-0.08128596
109	0xbd4dc8ef	-0.050240453
110	0xbc95b864	-0.0182764
111	0xbd75de2e	-0.06002634
112	0x3b12d6a0	0.0022405759
113	0x3d85f8d3	0.065416
114	0xbd6f0672	-0.058355756
115	0xbbefa610	-0.0073134974
116	0xbac83b00	-0.0015276372
117	0x3ce66b10	0.028127223
118	0xbbc5b1c0	-0.0060331523
119	0x3d74730e	0.059680037
120	0x3c1a5f18	0.009422086
121	0xbcbea91c	-0.023273997
122	0x3d8408b5	0.06446973
123	0xbd506c33	-0.050884437
124	0x3d8d4ad3	0.06899037
125	0xbd371657	-0.04469904
126	0xbd851cfe	-0.064996704
127	0x3cf76ee4	0.030204244

weight f4 [128, 128]
0	0xbd9572c2	-0.07297279
1	0xbd9e8d4b	-0.07741793
2	0x3ce86e98	0.028373048
3	0xbc224808	-0.009904869
4	0x3b6e9100	0.0036402345
5	0xbcbdf294	-0.02318696
6	0xbd67dd32	-0.056607433
7	0xbb184ba0	-0.0023238435
8	0x3db372b1	0.0876211
9	0xbd979c98	-0.07402915
10	0x3cdd60a4	0.02702362
11	0x3d7ee5a2	0.062230714
12	0x3d893b25	0.06700734
13	0xbd120d2d	-0.035657097
14	0x3b2effc0	0.0026702732
15	0xbcf8fea0	-0.030394852
16	0x3d9e13db	0.07718631
17	0x3d97c3a5	0.07410363
18	0x3dafdaa3	0.085866235
19	0xbbee1660	-0.007265851
20	0xbc7b6748	-0.015344448
21	0xbda2d018	-0.07949847
22	0x3c5307a8	0.012880243
23	0xbb174200	-0.002308011
24	0xbc3d8d40	-0.011569321
25	0xbd571d14	-0.052517965
26	0xbdaa900b	-0.08328255
27	0x3cae5318	0.021279857
28	0x3d2aefee	0.04173272
29	0xbd55bfb6	-0.052184783
30	0x3d885d6f	0.06658446
31	0xbcb79ee4	-0.022414632
32	0x3c1c55f0	0.0095419735
33	0x3c8ff498	0.017572686
34	0xbd52941e	-0.051410787
35	0xbc2d01c0	-0.010559499
36	0xbd0cc4f2	-0.03436751
37	0xbcffc1cc	-0.03122034
38	0xbdae13f6	-0.08499901
39	0x3ccfccf4	0.025366284
40	0x3c140550	0.00903447
41	0xbd884e2b	-0.06655534
42	0x3d8b693f	0.068071835
43	0xbd7e94a4	-0.062153473
44	0xbc24abb0	-0.010050699
45	0xbda169ae	-0.07881485
46	0xbd904696	-0.07044713
47	0x3d1ded4a	0.038556375
48	0x3cb5710c	0.022148632
49	0x3d78bae2	0.0607251
50	0x3ca19438	0.019723997
51	0xbd9ae4b1	-0.07563151
52	0x3d7eab42	0.062175043
53	0xbca27504	-0.019831188
54	0xbc08b468	-0.008343793
55	0x3d182852	0.037147827
56	0x3c805e20	0.015669882
57	0xbc387870	-0.011259183
58	0xbd06322d	-0.032762695
59	0xbd1ff932	-0.03905601
60	0x3d749b32	0.05971832
61	0xbcde2cd2	-0.027120981
62	0xbd4e6247	-0.050386693
63	0xbd445eb2	-0.04794187
64	0xbb33aee0	-0.0027417466
65	0xbd953548	-0.07285553
66	0xbd8dd03b	-0.069244824
67	0x3d1e75c6	0.038686536
68	0xbd6caf6a	-0.057784475
69	0x3d1f027e	0.038820736
70	0x3c1d8d08	0.009616144
71	0x3ce53528	0.027979448
72	0x3d87dc0f	0.0663377
73	0x3cb025b8	0.02150236
74	0x3c817280	0.015801668
75	0x3d603486	0.05473759
76	0x3da713ab	0.08158048
77	0x3d9b3f4b	0.075804316
78	0x3d69cf3a	0.057082392
79	0x3cd7a7e4	0.026325174
80	0x3da26991	0.079302914
81	0x3d9ecaff	0.07753562
82	0xbd967b99	-0.07347793
83	0x3d995ce1	0.07488418
84	0xbd870b6e	-0.06593977
85	0xbd0e250a	-0.034703292
86	0x3d836d67	0.06417351
87	0x3da34cb5	0.07973615
88	0x3daf2dff	0.08553695
89	0xbd2d61b0	-0.04232949
90	0x3d61474e	0.054999642
91	0xbda3713a	-0.07980581
92	0x3d12ab84	0.0358081
93	0xbd6e2472	-0.058140226
94	0x3d86a49f	0.06574368
95	0x3d5e0196	0.05420073
96	0x3d850feb	0.06497177
97	0x3b98bb50	0.0046610013
98	0xbba60ed0	-0.0050676838
99	0xbd1a2b0b	-0.037638705
100	0xbcd87000	-0.026420593
101	0xbd55453a	-0.052067973
102	0x3db06869	0.08613665
103	0x3dad7ce9	0.0847109
104	0x3c15fda0	0.009154707
105	0x3da33165	0.07968406
106	0x3da368f9	0.07979006
107	0x3c61d630	0.013783976
108	0xbd8bdd73	-0.068293475
109	0x3cd757d4	0.026286997
110	0x3b817720	0.0039509684
111	0x3d8e8085	0.06958107
112	0x3d48ab32	0.04899139
113	0x3d94f921	0.0727408
114	0xbaa066c0	-0.0012237653
115	0x3c145500	0.009053469
116	0x3d988a4d	0.07448254
117	0x3d83f69b	0.06443521
118	0x3d5ccaee	0.053904466
119	0xbc84e7c4	-0.016223796
120	0x3cd191a0	0.025582135
121	0x3d2465ae	0.04013603
122	0xbd8263cc	-0.06366691
123	0x3d963c0f	0.07335674
124	0x3daf60ff	0.085634224
125	0xb95b5800	-0.0002091825
126	0xbd0d891a	-0.03455458
127	0x3dab88e5	0.0837572
128	0x3d129ef0	0.035796106
129	0xbd6c5011	-0.057693545
130	0xbd846540	-0.064646244
131	0xbc34ea40	-0.011042178
132	0xbd7cf16c	-0.061753675
133	0xbc4e1748	-0.012578793
134	0xbda600d2	-0.08105625
135	0xbc5bc680	-0.013414025
136	0xbd780720	-0.06055367
137	0x3bab1ff0	0.005222313
138	0xbc884090	-0.016632348
139	0xbb9a1280	-0.0047019124
140	0xbd9b7d1a	-0.075922206
141	0xbcf06d06	-0.029348861
142	0x3d86fb39	0.06590886
143	0xbca7932c	-0.02045592
144	0xbd90f6a3	-0.07078292
145	0xbd777906	-0.06041815
146	0xbcd2c154	-0.025726952
147	0xbd9f1105	-0.07766918
148	0x3da7dae5	0.08196048
149	0x3d1b0a9e	0.037851922
150	0x3c65ee68	0.014033891
151	0xbbe725a0	-0.007054046
152	0xbcf1f4ca	-0.02953567
153	0x3d0a10e8	0.03370753
154	0x3c0e5a78	0.008688562
155	0xbcd751e4	-0.026284166
156	0x3c925bb4	0.017865993
157	0xbd0964fe	-0.03354358
158	0x3d905c2d	0.07048831
159	0x3d8947b9	0.06703133
160	0x3d51c54a	0.05121354
161	0x3d85b32b	0.06528314
162	0x38871c00	6.442517e-05
163	0xbc9ea948	-0.019367829
164	0x3d327c72	0.04357571
165	0x3d879447	0.066200785
166	0xbd88cd1d	-0.06679747
167	0xbd83287e	-0.06404208
168	0xbd3107ec	-0.043220446
169	0xbb2e47a0	-0.0026592985
170	0x3af9a840	0.0019047335
171	0xbc073c50	-0.008254126
172	0xbc90982c	-0.017650686
173	0xbd507849	-0.050895963
174	0x3c2e8008	0.010650642
175	0x3a0a1a80	0.0005268231
176	0xbd34eb35	-0.044169623
177	0xbb1ca240	-0.002390042
178	0x3a9b17c0	0.001183264
179	0x3dabbc99	0.083855815
180	0x3d90e541	0.07074977
181	0xbcd5a78c	-0.02608087
182	0x3d53a01e	0.05166637
183	0xbc75c578	-0.0150006935
184	0x3cc1aed4	0.023642935
185	0x3d3bbc4e	0.04583388
186	0x3db261ef	0.087100856
187	0x3d991af7	0.07475846
188	0xbb732860	-0.0037102923
189	0x3cc33cb8	0.023832664
190	0x3d150fb0	0.036391914
191	0xbdb353d0	-0.0875622
192	0xbd3b0ab5	-0.045664508
193	0x3d1c9dca	0.038236417
194	0x3d9be529	0.07612068
195	0x3d2f27f6	0.04276272
196	0xbd8dad12	-0.06917776
197	0x3d855d7f	0.065119736
198	0xbb69cd40	-0.0035675317
199	0xbd054ce8	-0.032544047
200	0x3d21b14e	0.03947573
201	0xbd88dfb3	-0.06683292
202	0x3d33bd36	0.043881617
203	0x3c3d5b30	0.011557385
204	0x3c404960	0.011736244
205	0xbd976060	-0.07391429
206	0x3d5a8b62	0.053355582
207	0xbd5472f1	-0.05186743
208	0x3c3e3e78	0.011611573
209	0xbd574110	-0.052552283
210	0xbd43ef29	-0.047835503
211	0xbc85cf98	-0.01633434
212	0x3c9122d8	0.01771681
213	0xbd9187a9	-0.07105953
214	0xbd7b1fe8	-0.061309725
215	0xbd4eb2c1	-0.05046344
216	0x3db2aaab	0.087239586
217	0xbd275c02	-0.04085923
218	0xbcd256bc	-0.025676124
219	0xbd505798	-0.050864786
220	0x3d041b86	0.03225281
221	0xbaa71c40	-0.0012749508
222	0xbb4c6ae0	-0.0031191632
223	0x3d29081e	0.041267507
224	0x3da4c075	0.08044521
225	0xbd0fe99c	-0.035134897
226	0xbc836e74	-0.01604388
227	0x3d099c10	0.0335961
228	0xbd8cb6d9	-0.06870813
229	0xbd800cb6	-0.062524244
230	0xbd66c7bb	-0.05634282
231	0x3cfb500c	0.030677818
232	0x3d51e94e	0.051247887
233	0x3d83cbf5	0.06435386
234	0xbd815fdd	-0.063171126
235	0x3d093d2a	0.033505596
236	0x3c86df30	0.016463846
237	0x3cd5b84c	0.026088856
238	0xbcc20da8	-0.023688152
239	0xbd91d945	-0.07121519
240	0x3d61ca02	0.05512429
241	0x3d942807	0.07234197
242	0xbd5f7f20	-0.054564595
243	0xbb98d2a0	-0.0046637803
244	0xbd744da9	-0.059644375
245	0x3d3fb256	0.046800934
246	0x3c308170	0.010773048
247	0x3d84527d	0.06461046
248	0xbd26938b	-0.04066805
249	0xbc08d390	-0.008351222
250	0xbd88c15f	-0.066775076
251	0x3c2451d0	0.010029271
252	0x3d94f8d3	0.07274022
253	0x3d734872	0.05939526
254	0xbcf298d0	-0.029613882
255	0xbcd58c86	-0.026067983

bias f4 [128]
0	0x3b155560	0.0022786483
1	0x3cb1c1a8	0.021698788
2	0xbbcea4a0	-0.006306246
3	0x3d68a42e	0.0567972
4	0xbd9cb77b	-0.076521836
5	0xbca9e740	-0.020740151
6	0xbdae2c5c	-0.08504555
7	0xbd89e098	-0.06732291
8	0xbbee7240	-0.0072768033
9	0xbda2933d	-0.0793824
10	0x3c7a6d50	0.015284851
11	0x3b93e6c0	0.0045135915
12	0xbd176439	-0.036960814
13	0xba5ba180	-0.00083782524
14	0x3daafe5b	0.08349296
15	0x3d4687f6	0.048469506
16	0xbdaa9d8c	-0.08330831
17	0xbda09240	-0.07840395
18	0xbd3c659f	-0.04599535
19	0x3d0f6d54	0.035016373
20	0xbd1bce15	-0.038038332
21	0x3d2539ce	0.04033833
22	0xbdb4b4eb	-0.0882357
23	0x3b9f5cb0	0.004863344
24	0xbc3a2260	-0.011360735
25	0x3d5fbbfe	0.054622643
26	0xbd74f8a8	-0.05980745
27	0xbd8e2f11	-0.06942571
28	0xbd6725ad	-0.056432415
29	0xbd2b2ae6	-0.041788958
30	0x3daf083b	0.08546492
31	0x3c140158	0.0090335235
32	0xbd8947ff	-0.06703185
33	0xbc9f6bbc	-0.019460551
34	0xbcb5e4c4	-0.02220381
35	0xbd0bf94a	-0.034173287
36	0xbd5bcc3e	-0.053661577
37	0xbcb84ff4	-0.022499062
38	0x3b0578e0	0.0020366237
39	0x3d9aab19	0.075521655
40	0xbdac470e	-0.0841199
41	0x3c2653a0	0.010151774
42	0x3d996b7f	0.074912064
43	0x3ceac228	0.028657034
44	0x3c89bfb8	0.016815051
45	0xbda36c67	-0.079796605
46	0xbd9d9863	-0.07695081
47	0x3d983889	0.07432658
48	0x3d0d2216	0.034456335
49	0x3daf8c4d	0.08571682
50	0x3d9da687	0.07697778
51	0x3d4fe112	0.050751753
52	0x3d330436	0.043705188
53	0xbd8ab1d8	-0.06772202
54	0x3c919d98	0.017775342
55	0xbcf14a6a	-0.029454429
56	0x3c0bf400	0.008542061
57	0x3ce53c68	0.027982906
58	0x3c08b418	0.008343719
59	0x3d82fd6b	0.06395992
60	0x3d899aa1	0.06718946
61	0x3ce1bd00	0.027555943
62	0xbd5b71fd	-0.053575505
63	0xbd9f3c4c	-0.077751726
64	0xbd8d5bbc	-0.069022626
65	0xbdad3bc4	-0.08458665
66	0x3d9156d5	0.0709664
67	0x3ce7a2f8	0.028275952
68	0x3d604dc6	0.05476167
69	0xbcba907c	-0.022773974
70	0x3d53cc26	0.051708363
71	0xbce42ad8	-0.02785246
72	0x3d06b004	0.032882705
73	0x3d3345ba	0.04376767
74	0xbd8e4cd2	-0.06948246
75	0xbd6576af	-0.05602139
76	0x3d2985e2	0.041387446
77	0xbc7b68c8	-0.015344806
78	0x3d6240ae	0.055237465
79	0xbdb3651c	-0.087595195
80	0xbda40592	-0.08008875
81	0xbcd7ebf8	-0.026357636
82	0xbdb11162	-0.08645894
83	0x3bbd3aa0	0.005774811
84	0x3d52ae96	0.05143603
85	0x3c560678	0.013063066
86	0x3d25f38e	0.040515475
87	0xbceaf276	-0.028680068
88	0x3d721342	0.059100397
89	0xbceede76	-0.029158812
90	0xbda8e0d3	-0.08246007
91	0xbd7631ce	-0.06010609
92	0x3d3d181e	0.046165578
93	0x3d919ea5	0.07110337
94	0xbd6240ac	-0.055237457
95	0x3ca7a068	0.02046223
96	0xbcebcb68	-0.028783515
97	0x3d5d2ace	0.0539959
98	0x3c79abc0	0.015238702
99	0xbdac2ed4	-0.08407369
100	0x3d9546a7	0.072888665
101	0x3d0eb58c	0.034841105
102	0xbbb7e400	-0.0056118965
103	0x3da984ef	0.08277308
104	0xbbc86630	-0.0061156973
105	0x3cdeb86c	0.027187549
106	0x3d0a25b6	0.03372737
107	0xbd283b2d	-0.04107206
108	0xbd5305c1	-0.05151916
109	0x3da0065f	0.07813715
110	0x3d6e0632	0.058111377
111	0xbd47ad31	-0.048749153
112	0xbd28ae2f	-0.04118174
113	0xbd9f4291	-0.077763684
114	0x3d8b2d7f	0.06795787
115	0xbda0d705	-0.07853512
116	0x3d4ef7ca	0.05052928
117	0xbd5fdf42	-0.054656275
118	0x3d65fa8e	0.05614715
119	0x3d966655	0.07343737
120	0x3cc8339c	0.024438672
121	0x3d21ec0e	0.03953176
122	0x3bd592c0	0.006517738
123	0xbb1f2480	-0.002428323
124	0xbd9419aa	-0.072314575
125	0x3b9b9ed0	0.0047491565
126	0xbd99355b	-0.0748088
127	0xbcdec34c	-0.027192734
