src/test_model_pth/discrete/test_cartpole_pg.pth (torch, 24866 bytes, 6 tensors)

weight f4 [64, 4]
-0.185859 -0.10022629 0.29137406 0.28571418 -0.031264987 0.09728596 -0.28115347 -0.23012428
0.52717984 -0.19897932 -0.24304059 0.052554462 0.06822268 -0.037362244 0.17046699 -0.40180168
-0.13531256 -0.07510677 -0.27136278 0.0011672017 -0.051020045 0.10341902 -0.22620697 -0.13803296
0.22460148 -0.21778485 0.33171433 -0.42232275 -0.053828236 -0.22801188 0.028722268 0.16498943
-0.3306989 -0.29089576 0.16340989 0.030119317 0.22291331 -0.17756312 -0.03434976 -0.06479889
-0.16415101 0.17099643 -0.14577954 0.023033287 0.16479875 0.11822212 -0.0058128065 -0.04516177
-0.39280167 0.16953787 -0.16808955 -0.05871841 0.08910439 -0.19354802 -0.18053605 0.0808637
-0.17726524 -0.31078035 0.108882315 -0.36155546 -0.076631874 -0.097804785 0.049978763 0.13181078
0.12553619 0.21231571 0.0015373642 0.14626367 0.03997272 0.088127464 -0.2831982 0.07825949
0.0031492002 0.056561537 0.24645302 0.061627056 -0.040047675 -0.08490092 0.09322692 -0.15184765
0.01505394 0.051656466 -0.18731691 -0.15158227 0.040128678 0.041398857 -0.1969439 -0.18218556
-0.23593955 -0.15671617 -0.055039093 0.015945878 -0.15609118 0.30794156 0.047223255 -0.16429794
-0.17354006 -0.18201862 -0.0358436 -0.22308399 0.048396315 -0.14556181 -0.005296959 -0.0650302
-0.09577419 -0.065614015 -0.2996027 0.06512095 -0.08592554 0.081378594 -0.100083 -0.25794023
-0.368956 0.13894883 0.02210941 0.05918745 0.104668505 0.037686557 0.2577412 -0.011074347
0.19626857 -0.07761285 0.20839474 -0.051003013 -0.38116124 -0.2413598 -0.08244002 0.11706699
0.05871666 0.0068390695 -0.06909184 0.04557696 0.045743518 0.34331837 0.0556132 -0.2458864
0.08172313 -0.24774024 0.13064757 -0.08742362 -0.0054432494 -0.17987458 0.099549435 0.29337975
0.05312093 -0.13202769 -0.25996575 0.12286294 0.08697585 0.27900845 0.086269744 -0.20395382
0.09906345 -0.116822936 -0.121138036 -0.3060964 -0.107063085 -0.18621594 -0.1969711 0.023413291
-0.23693839 0.34242538 -0.008262943 0.27684665 -0.12629516 0.12991282 -0.12116458 -0.057126142
0.21111049 0.027904408 0.33608478 0.17449024 -0.099251285 -0.1693941 -7.040762e-05 0.27739668
0.054146923 -0.075436875 0.004960514 -0.02218954 0.0071517965 -0.28636965 0.21612288 0.010203018
-0.15353227 0.0074567646 0.29033816 -0.2524788 0.09895825 -0.19117004 -0.06676908 -0.08216701
-0.19779631 0.04592567 -0.10269928 -0.1868365 0.071307786 -0.32285547 -0.43911612 0.17483816
-0.2637218 0.095329225 -0.0018801024 -0.043099176 0.19811153 0.14534962 -0.15107028 0.24152462
0.15883036 0.030757079 -0.2932368 -0.1325461 0.10848403 0.101630904 0.10831994 0.09977358
0.16070056 -0.042232905 -0.077688955 -0.10956584 -0.24644361 -0.17720671 -0.08680841 -0.15883654
0.009643028 0.10865116 -0.036834467 0.014936513 0.095567115 0.35802463 0.0028524408 -0.077210866
0.1862638 -0.1636516 -0.07570678 0.18363918 0.18912674 0.02673295 -0.35203436 -0.20574255
-0.19637254 -0.25494638 -0.13892418 0.010677253 -0.026796903 0.25226662 -0.13669468 0.06303472
-0.16049126 -0.18263823 -0.08198289 -0.42923096 0.2935414 -0.033250343 -0.033704825 -0.041790705
00000000: d251 3ebe 7143 cdbd fb2e 953e 2149 923e
00000010: b70f 00bd dd3d c73d 59f3 8fbe b3a5 6bbe
00000020: 42f5 063f 3cc1 4bbe a2df 78be 5943 573d
00000030: 55b8 8b3d 2709 19bd e68e 2e3e f3b8 cdbe
00000040: 608f 0abe 94d1 99bd 10f0 8abe cafc 983a
00000050: 65fa 50bd 5acd d33d cda2 67be 8358 0dbe
00000060: eefd 653e fe02 5fbe 76d6 a93e b03a d8be
00000070: ff7a 5cbd f27b 69be f64a eb3c fdf2 283e
00000080: 5e51 a9be 4af0 94be ec54 273e c9bc f63c
00000090: 6343 643e 1bd3 35be 55b2 0cbd 48b5 84bd
000000a0: 3417 28be b019 2f3e 3b47 15be 4eb0 bc3c
000000b0: 01c1 283e 701e f23d 5b79 bebb 8cfb 38bd
000000c0: 4d1d c9be 569b 2d3e ab1f 2cbe b782 70bd
000000d0: 5d7c b63d 7431 46be 71de 38be de9b a53d
000000e0: 0585 35be 9a1e 9fbe b1fd de3d cc1d b9be
000000f0: 2cf1 9cbd e04d c8bd 88b6 4c3d 68f9 063e
00000100: 8f8c 003e 4a69 593e 6281 c93a 25c6 153e
00000110: 6fba 233d 2c7c b43d 5bff 90be 8346 a03d
00000120: d062 4e3b 12ad 673d 2e5e 7c3e a76c 7c3d
00000130: 0809 24bd 89e0 adbd c1ed be3d f37d 1bbe
00000140: cda4 763c bb95 533d 01d0 3fbe 6238 1bbe
00000150: f85d 243d d991 293d a9ab 49be da8e 3abe
00000160: 239a 71be 347a 20be ac70 61bd eea0 823c
00000170: 5ed6 1fbe 84aa 9d3e 2c6d 413d b83d 28be
00000180: 7cb4 31be 1763 3abe bdd0 12bd 2170 64be
00000190: 373b 463d 280e 15be 1d92 adbb 8e2e 85bd
000001a0: 4225 c4bd a460 86bd 8665 99be 225e 853d
000001b0: bbf9 afbd d2a9 a63d 51f8 ccbd be10 84be
000001c0: cde7 bcbe 9a48 0e3e cb1e b53c 8a6e 723d
000001d0: 715c d63d 385d 1a3d a8f6 833e 2e71 35bc
000001e0: a1fa 483e 7cf3 9ebd 6e65 553e 89e8 50bd
000001f0: 9127 c3be 0627 77be 50d6 a8bd d1c0 ef3d
00000200: e180 703d 461a e03b 0680 8dbd e8ae 3a3d
00000210: 8e5d 3b3d 6dc7 af3e abca 633d a5c9 7bbe
00000220: 755e a73d 9eaf 7dbe 7ac8 053e 280b b3bd
00000230: 495d b2bb 0b31 38be 93e0 cb3d df35 963e
00000240: 5595 593d 4432 07be 3b1a 85be 919f fb3d
00000250: 6520 b23d 32da 8e3e 31ae b03d 45d9 50be
00000260: c7e1 ca3d dd40 efbd 3817 f8bd abb8 9cbe
00000270: e443 dbbd 64af 3ebe cbb2 49be 3bcd bf3c
00000280: fa9f 72be 6152 af3e 4b61 07bc d8be 8d3e
00000290: 8553 01be de07 053e 2325 f8bd 1afd 69bd
000002a0: 592d 583e c997 e43c 4e13 ac3e 92ad 323e
000002b0: 4244 cbbd a675 2dbe cea7 93b8 f006 8e3e
000002c0: 2ac9 5d3d a67e 9abd cf8b a23b d7c6 b5bc
000002d0: 9e59 ea3b 0b9f 92be 514f 5d3e 8f2a 273c
000002e0: 9037 1dbe e057 f43b 34a7 943e e744 81be
000002f0: 9faa ca3d 14c2 43be 3abe 88bd 2d47 a8bd
00000300: 1e8b 4abe 8e1c 3c3d 0054 d2bd 1152 3fbe
00000310: d109 923d 504d a5be d4d3 e0be c608 333e
00000320: 8b06 87be f83b c33d c56d f6ba c388 30bd
00000330: c0dd 4a3e 88d6 143e 2bb2 1abe 3b52 773e
00000340: 6da4 223e 45f6 fb3c 2223 96be 2aba 07be
00000350: e02c de3d dd23 d03d d8d6 dd3d 1756 cc3d
00000360: b08e 243e 69fc 2cbd 631b 9fbd 0e64 e0bd
00000370: b75b 7cbe ad75 35be 9cc8 b1bd 0ca6 22be
00000380: cafd 1d3c 8084 de3d bddf 16bd 47b8 743c
00000390: b1b8 c33d 014f b73e 04f0 3a3b bb20 9ebd
000003a0: f0bb 3e3e 4994 27be 280c 9bbd e90b 3c3e
000003b0: 71aa 413e 0fff da3c d93d b4be 2dae 52be
000003c0: e215 49be 5588 82be 2442 0ebe a5ef 2e3c
000003d0: 2e85 dbbc 1729 813e b1f9 0bbe 5918 813d
000003e0: d257 24be 8405 3bbe a5e6 a7bd 29c4 dbbe
000003f0: 0f4b 963e 8331 08bd 120e 0abd bb2c 2bbd

bias f4 [64]
0.0 0.0 0.0 0.0 0.0 0.0 0.0 0.0
0.0 0.0 0.0 0.0 0.0 0.0 0.0 0.0
0.0 0.0 0.0 0.0 0.0 0.0 0.0 0.0
0.0 0.0 0.0 0.0 0.0 0.0 0.0 0.0
0.0 0.0 0.0 0.0 0.0 0.0 0.0 0.0
0.0 0.0 0.0 0.0 0.0 0.0 0.0 0.0
0.0 0.0 0.0 0.0 0.0 0.0 0.0 0.0
0.0 0.0 0.0 0.0 0.0 0.0 0.0 0.0
00000000: 0000 0000 0000 0000 0000 0000 0000 0000
00000010: 0000 0000 0000 0000 0000 0000 0000 0000
00000020: 0000 0000 0000 0000 0000 0000 0000 0000
00000030: 0000 0000 0000 0000 0000 0000 0000 0000
00000040: 0000 0000 0000 0000 0000 0000 0000 0000
00000050: 0000 0000 0000 0000 0000 0000 0000 0000
00000060: 0000 0000 0000 0000 0000 0000 0000 0000
00000070: 0000 0000 0000 0000 0000 0000 0000 0000
00000080: 0000 0000 0000 0000 0000 0000 0000 0000
00000090: 0000 0000 0000 0000 0000 0000 0000 0000
000000a0: 0000 0000 0000 0000 0000 0000 0000 0000
000000b0: 0000 0000 0000 0000 0000 0000 0000 0000
000000c0: 0000 0000 0000 0000 0000 0000 0000 0000
000000d0: 0000 0000 0000 0000 0000 0000 0000 0000
000000e0: 0000 0000 0000 0000 0000 0000 0000 0000
000000f0: 0000 0000 0000 0000 0000 0000 0000 0000

weight f4 [64, 64]
0.05614887 0.27454853 0.060053427 -0.12721618 0.13994457 -0.13825728 0.012323043 -0.09239923
0.09131159 -0.18562245 0.35107833 -0.015348976 -0.06002372 0.16925016 -0.09100687 0.2474742
0.16804028 0.018397525 0.10746238 0.22308592 -0.038174544 -0.16542071 -0.15268616 -0.042186696
0.15582596 -0.2669138 0.028577615 0.096579246 -0.120282225 -0.042425647 0.3013731 -0.17973933
0.12995182 0.13038118 -0.07863785 -0.1237863 0.13913305 0.46294165 -0.18931694 -0.13775623
-0.11894684 0.20311783 0.15709679 -0.13453154 -0.1867926 -0.22142369 -0.08932263 0.08585342
0.2321351 0.11549321 0.33540958 0.09939514 -0.18876912 -0.3253793 0.11257714 -0.053965624
0.3071983 -0.19374202 0.06378591 -0.017300395 -0.109784424 -0.3991769 -0.04056971 0.003131279
-0.11012534 0.06451485 -0.22321911 0.06018595 0.2074851 -0.24487723 0.105272375 0.014181533
0.0032856187 -0.013361828 -0.06438886 -0.26133278 -0.10126291 -0.04423635 -0.075288095 -0.020058732
0.18639904 -0.27049497 -0.024544362 0.14162599 0.30998194 0.09469712 0.12753813 -0.037666157
0.08498572 0.27754554 -0.035069875 0.03513862 0.2243753 0.2260942 -0.17269252 0.35255873
-0.16001599 0.030996323 0.36974162 -0.30118743 0.12695697 0.013379559 -0.054519154 0.25582445
0.37876412 0.15821598 0.1519562 0.089342006 -0.0770972 -0.18653715 0.0617549 0.09432089
-0.08159171 0.0256501 0.22880417 -0.07415075 0.16599183 0.08620102 0.43447247 0.112050146
0.101945594 0.006414055 -0.035222948 -0.20248334 -0.15345728 -0.111299865 0.3686875 0.11705617
-0.11249775 0.19363919 0.25956458 -0.17884962 -0.1403622 -0.08148021 -0.2611973 0.14666772
-0.16993795 -0.11156359 0.27878532 -0.16551296 -0.15833765 -0.20790768 -0.032084048 -0.094328746
-0.13335514 -0.0012210093 0.16628243 -0.4271626 -0.27263588 0.105083115 0.31056157 0.005681839
-0.14813565 -0.2179775 -0.050157435 0.23541206 0.089194775 0.3087171 0.1373519 0.3176449
0.19298199 -0.26212043 0.056555633 0.16208838 -0.08243773 -0.08940129 -0.10427921 -0.08866392
0.045927558 -0.21831247 0.28545475 -0.3398367 -0.06305543 -0.14620987 -0.17389075 -0.017641738
-0.0378518 -0.23460232 -0.031015256 -0.23903829 0.1646604 -0.027067553 -0.044392 -0.15908886
0.034087315 -0.048630897 0.004715449 -0.037669864 -0.049309805 -0.11876386 0.26858255 -0.12100683
-0.05179855 0.07760499 -0.31487733 -0.027731447 0.18981634 0.14147013 0.01050947 0.13046321
-0.027819835 -0.29791048 0.07069835 0.16064428 0.013672335 -0.21880901 -0.05357132 0.03486389
0.23614344 -0.088398114 0.07749271 -0.1764843 0.024000607 -0.09159766 0.027231373 0.06539162
-0.08803227 0.5330453 0.26217666 0.026395692 0.25683382 0.05324052 0.31493202 -0.32190377
0.35141698 0.058699794 -0.37946084 0.19232474 0.13285169 0.07272394 -0.10377659 -0.08926091
0.24348325 0.19606291 0.032717302 -0.012688008 0.20170242 0.20420693 0.028471677 -0.062222704
0.21132869 -0.14348435 -0.2422181 0.102623686 0.071225114 0.16036777 0.15678716 -0.19569348
0.014848921 -0.14824189 -0.17017707 -0.18499994 0.11072875 0.09619136 0.15093869 -0.06837206
00000000: 5cfc 653d a091 8c3e 95fa 753d f544 02be
00000010: a14d 0f3e 5193 0dbe 97e6 493c cf3b bdbd
00000020: 9201 bb3d d013 3ebe 8ac0 b33e 457a 7bbc
00000030: 6fdb 75bd ea4f 2d3e cf61 babd e069 7d3e
00000040: c012 2c3e 68b6 963c 3c15 dc3d a370 643e
00000050: e95c 1cbd 0c64 29be c359 1cbe f5cb 2cbd
00000060: d790 1f3e eda8 88be 9a1b ea3c 57cb c53d
00000070: 8756 f6bd 84c6 2dbd 934d 9a3e 960d 38be
00000080: 1712 053e a582 053e e20c a1bd ac83 fdbd
00000090: e578 0e3e b006 ed3e 4ddc 41be f80f 0dbe
000000a0: 679a f3bd 1ffe 4f3e fbdd 203e a3c2 09be
000000b0: 8f46 3fbe e4bc 62be c8ee b6bd ebd3 af3d
000000c0: d3b4 6d3e b487 ec3d ceba ab3e ae8f cb3d
000000d0: b14c 41be 1e98 a6be d88e e63d 0f0b 5dbd
000000e0: 1849 9d3e 4f64 46be 30a2 823d 8fb9 8dbc
000000f0: a8d6 e0bd ea60 ccbe 6d2c 26bd 2536 4d3b
00000100: 6589 e1bd 5d20 843d 8d93 64be 8b85 763d
00000110: f976 543e 19c1 7abe 0b99 d73d a959 683c
00000120: 8953 573b 92eb 5abc 4ede 83bd 69cd 85be
00000130: ee62 cfbd 2d31 35bd a530 9abd 3652 a4bc
00000140: 64df 3e3e 517e 8abe 4211 c9bc 6706 113e
00000150: f4b5 9e3e 90f0 c13d 5b99 023e d447 1abd
00000160: fe0c ae3d 731a 8e3e 6ea5 0fbd 83ed 0f3d
00000170: a3c2 653e 3d85 673e 4fd6 30be 9482 b43e
00000180: 3bdb 23be 00ec fd3c c64e bd3e 3d35 9abe
00000190: 0201 023e f035 5b3c 7a4f 5fbd 6cfb 823e
000001a0: 5fed c13e 5f03 223e 689a 1b3e f1f8 b63d
000001b0: 23e5 9dbd 9803 3fbe b5f2 7c3d 502b c13d
000001c0: 8e19 a7bd 2920 d23c a44b 6a3e 59dc 97bd
000001d0: c3f9 293e 298a b03d 2d73 de3e 8c7a e53d
000001e0: dac8 d03d fe2c d23b f045 10bd cb57 4fbe
000001f0: e823 1dbe 2ff1 e3bd 9cc4 bc3e 25bb ef3d
00000200: 3865 e6bd 5a49 463e a6e5 843e 5b24 37be
00000210: 1cbb 0fbe 19df a6bd a7bb 85be 1030 163e
00000220: 3704 2ebe 747b e4bd f3bc 8e3e 3b7c 29be
00000230: 4423 22be c0e5 54be 906a 03bd 6e2f c1bd
00000240: 408e 08be 460a a0ba f145 2a3e 0eb5 dabe
00000250: ee96 8bbe d135 d73d ed01 9f3e b82e ba3b
00000260: dfb0 17be 7e35 5fbe e271 4dbd dc0f 713e
00000270: c0ab b63d 2b10 9e3e faa5 0c3e 5aa2 a23e
00000280: 129d 453e a634 86be e1a6 673d 7ffa 253e
00000290: 1dd5 a8bd 0618 b7bd 5790 d5bd 6e95 b5bd
000002a0: 891e 3c3d 4e8d 5fbe 2027 923e 13ff adbe
000002b0: 3523 81bd 0ab8 15be 6b10 32be 6885 90bc
000002c0: 7d0a 1bbd 973b 70be b513 febc 74c6 74be
000002d0: bc9c 283e c6bc ddbc 63d4 35bd 31e8 22be
000002e0: 249f 0b3d 3131 47bd 0e84 9a3b b74b 1abd
000002f0: 14f9 49bd 773a f3bd a783 893e 6ed2 f7bd
00000300: b72a 54bd 5def 9e3d 9a37 a1be 0f2d e3bc
00000310: 375f 423e 8cdd 103e e92f 2c3c 2698 053e
00000320: 6ce6 e3bc b987 98be 4cca 903d ef7f 243e
00000330: ee01 603c 780f 60be 9a6d 5bbd 70cd 0e3d
00000340: 96cf 713e 120a b5bd 7fb4 9e3d 4db8 34be
00000350: ec9c c43c 8e97 bbbd 5414 df3c 0bec 853d
00000360: 434a b4bd a875 083f 053c 863e c73b d83c
00000370: b97f 833e bb12 5a3d c53e a13e 92d0 a4be
00000380: edec b33e 326f 703d b148 c2be c7f0 443e
00000390: 460a 083e 4af0 943d d288 d4bd 6dce b6bd
000003a0: ac53 793e b7c4 483e 9402 063d 5de1 4fbc
000003b0: 148b 4e3e 9f1b 513e 6f3d e93c 3cdd 7ebd
000003c0: 8c66 583e 90ed 12be 0608 78be 5e2c d23d
000003d0: 79de 913d 7337 243e d08c 203e df63 48be
000003e0: e448 733c b9cc 17be e642 2ebe a070 3dbe
000003f0: c1c5 e23d faff c43d ac8f 1a3e a706 8cbd

bias f4 [64]
0.0 0.0 0.0 0.0 0.0 0.0 0.0 0.0
0.0 0.0 0.0 0.0 0.0 0.0 0.0 0.0
0.0 0.0 0.0 0.0 0.0 0.0 0.0 0.0
0.0 0.0 0.0 0.0 0.0 0.0 0.0 0.0
0.0 0.0 0.0 0.0 0.0 0.0 0.0 0.0
0.0 0.0 0.0 0.0 0.0 0.0 0.0 0.0
0.0 0.0 0.0 0.0 0.0 0.0 0.0 0.0
0.0 0.0 0.0 0.0 0.0 0.0 0.0 0.0
00000000: 0000 0000 0000 0000 0000 0000 0000 0000
00000010: 0000 0000 0000 0000 0000 0000 0000 0000
00000020: 0000 0000 0000 0000 0000 0000 0000 0000
00000030: 0000 0000 0000 0000 0000 0000 0000 0000
00000040: 0000 0000 0000 0000 0000 0000 0000 0000
00000050: 0000 0000 0000 0000 0000 0000 0000 0000
00000060: 0000 0000 0000 0000 0000 0000 0000 0000
00000070: 0000 0000 0000 0000 0000 0000 0000 0000
00000080: 0000 0000 0000 0000 0000 0000 0000 0000
00000090: 0000 0000 0000 0000 0000 0000 0000 0000
000000a0: 0000 0000 0000 0000 0000 0000 0000 0000
000000b0: 0000 0000 0000 0000 0000 0000 0000 0000
000000c0: 0000 0000 0000 0000 0000 0000 0000 0000
000000d0: 0000 0000 0000 0000 0000 0000 0000 0000
000000e0: 0000 0000 0000 0000 0000 0000 0000 0000
000000f0: 0000 0000 0000 0000 0000 0000 0000 0000

weight f4 [2, 64]
-0.15737616 0.40158087 -0.15550785 0.1569933 -0.05263724 0.16999264 0.11534578 0.20132704
0.41408008 0.0496935 -0.031492878 0.120046526 -0.053362302 0.10362751 -0.22565448 0.06605051
0.17821929 -0.05362083 -0.07403188 -0.23867737 -0.008206479 0.2883611 0.16458434 0.14699946
-0.12232683 0.24423732 -0.3626967 0.3232251 -0.18590981 -0.09546185 0.015800606 0.2605466
-0.013440609 -0.011161277 -0.24985574 0.24819756 -0.013295308 -0.18397719 0.23224063 -0.0066414997
-0.05519624 0.08442358 -0.18286636 0.07920311 0.10671399 -0.15612142 0.24688189 0.09850952
0.22916092 0.09471677 -0.01213384 -0.13369995 0.17897132 0.13650425 -0.06973021 -0.058892682
0.14061429 0.0642188 0.33303288 -0.18167998 0.17294702 0.2196559 -0.12464181 0.03633279
0.20430486 -0.12684679 -0.2396616 -0.037328426 -0.25256568 0.09555725 -0.053111345 0.19623093
-0.04392473 -0.008698522 -0.10529723 0.043258913 -0.1744798 0.29157016 -0.16788538 0.25461027
-0.024275903 0.11380786 0.3590725 0.24326168 -0.123320244 -0.09567596 -0.023173345 0.18098035
-0.084069856 -0.33189476 -0.078041255 -0.2682859 -0.09264743 -0.41777626 0.010385298 0.058816206
0.19886068 0.008485254 0.007303614 0.19385289 -0.35007867 -0.010457318 0.18223442 0.07730646
0.07790105 -0.2142529 -0.2010685 -0.04315793 -0.021020018 0.11794808 -0.0675156 -0.22890775
-0.35954404 0.108435854 0.12091222 -0.06846595 0.01697232 0.1020506 -0.021785764 -0.19067904
0.28295767 -0.006312234 0.0830421 -0.07936836 0.15169458 -0.33491427 -0.07167395 0.24127351
00000000: 3727 21be 029c cd3e 733d 1fbe dac2 203e
00000010: 269a 57bd 8d12 2e3e 693a ec3d ad28 4e3e
00000020: 4e02 d43e 698b 4b3d adfe 00bd f4da f53d
00000030: 6e92 5abd a93a d43d f811 67be 7d45 873d
00000040: 1e7f 363e 84a1 5bbd 079e 97bd d767 74be
00000050: 7874 06bc 11a4 933e cc88 283e 0787 163e
00000060: 7d86 fabd 5919 7a3e 62b3 b9be c37d a53e
00000070: 245f 3ebe 8181 c3bd 4670 813c 5d66 853e
00000080: 0036 5cbc cadd 36bc 2fda 7fbe 8027 7e3e
00000090: 90d4 59bc 8464 3cbe 7dd0 6d3e f0a0 d9bb
000000a0: 7415 62bd 45e6 ac3d 5241 3bbe 3d35 a23d
000000b0: dd8c da3d 4bde 1fbe 9bce 7c3e 5cbf c93d
000000c0: 29a9 6a3e defa c13d 03cd 46bc a4e8 08be
000000d0: 4244 373e c5c7 0b3e b6ce 8ebd 7439 71bd
000000e0: 31fd 0f3e 2585 833d 4983 aa3e 510a 3abe
000000f0: 0619 313e 7aed 603e 3544 ffbd b1d1 143d
00000100: 4b35 513e 20e4 01be da69 75be b1e5 18bd
00000110: 4a50 81be 85b3 c33d 488b 59bd c3f0 483e
00000120: 6bea 33bd 3f84 0ebc 13a6 d7bd 4230 313d
00000130: d5aa 32be af48 953e 25ea 2bbe 475c 823e
00000140: 42de c6bc 1814 e93d 5ad8 b73e 9719 793e
00000150: 538f fcbd c2f1 c3bd 07d6 bdbc ea52 393e
00000160: d12c acbd 1cee a9be 18d4 9fbd c55c 89be
00000170: f0bd bdbd c5e6 d5be 1927 2a3c 43e9 703d
00000180: 22a2 4b3e bc05 0b3c 2853 ef3b 5f81 463e
00000190: 833d b3be 2c55 2bbc a99b 3a3e d952 9e3d
000001a0: 968a 9f3d 1d65 5bbe e7e4 4dbe 5fc6 30bd
000001b0: 2c32 acbc c38e f13d 9e45 8abd cb66 6abe
000001c0: 2816 b8be 9e13 de3d d3a0 f73d e037 8cbd
000001d0: 8909 8b3c e8ff d03d 0f78 b2bc 5e41 43be
000001e0: d4df 903e dbd6 cebb fa11 aa3d e18b a2bd
000001f0: d355 1b3e e279 abbe cbc9 92bd 6710 773e

bias f4 [2]
0.0 0.0
00000000: 0000 0000 0000 0000
