src/test_model_pth/discrete/test_cartpole_sac.pth (torch, 264692 bytes, 72 tensors)

weight f4 [64, 4]
000000 0c f7 40 3e db 78 49 be cf 86 5c 3d 6f 8c a9 3e
       0.18844241 -0.19675009 0.0538395 0.33114955
000010 dd c6 da be 57 35 c7 3e 50 5d 33 be 24 32 2d 3e
       -0.42729846 0.38907883 -0.17516065 0.16913658
000020 b6 00 ec 3b 97 65 84 bc b7 80 98 3e bc 15 fc 3d
       0.007202233 -0.016161723 0.29785702 0.12308833
000030 f0 d6 3b 3e 36 98 87 be 44 70 27 be b3 bc 04 be
       0.18343711 -0.26483315 -0.1635142 -0.12962608
000040 c0 0f 04 3d dc 33 a1 bc 88 c7 04 3f 00 0b 4e 3e
       0.032241583 -0.019678049 0.5186696 0.20121384
000050 b4 83 e2 bd 07 95 a0 be 3a 0b 70 be fa 9f ae be
       -0.11060277 -0.313637 -0.23441783 -0.34106427
000060 8e c6 6d be a9 49 44 bd 67 a2 c9 3e ad dd b8 3e
       -0.23220274 -0.04792181 0.39381716 0.36106625
000070 21 64 14 bf bd d4 a3 3e e3 0f 9f 3e c7 30 18 3f
       -0.57965285 0.31998244 0.31066808 0.5944943
000080 98 9b a9 3e 13 c5 01 bf ef aa 03 bf 45 60 82 be
       0.3312652 -0.50691336 -0.514327 -0.25464073
000090 df 54 06 3f 03 de a8 bb 41 29 ed 3d df 0f a3 be
       0.52473253 -0.005153419 0.11580134 -0.31848046
0000a0 e4 15 0b 3f 29 10 4d be 1c 8c 8d 3e c3 c3 8c bd
       0.5433028 -0.20025696 0.27645957 -0.06873276
0000b0 82 dd 86 be 7a 96 83 3e d4 e3 87 be e4 94 16 3e
       -0.26340872 0.25700742 -0.26541007 0.14705235
0000c0 1a 32 de bd 89 9a f2 bd 08 e3 13 bf e8 ac 96 be
       -0.108494 -0.118458815 -0.577683 -0.29428792
0000d0 7f fc 53 3e c7 3a 25 be 38 9f 20 3f bc 88 02 3f
       0.20701788 -0.16135703 0.6274295 0.5098989
0000e0 33 43 ca bd 47 55 9b be 2e d0 ed 3e 53 6c 8b 3e
       -0.098760985 -0.303385 0.4644789 0.27231082
0000f0 12 03 d0 be 81 96 b5 3e 17 db f1 3e 4d d0 10 3f
       -0.40627342 0.35466388 0.47237465 0.5656784
000100 9b 23 aa be 86 bb 5e bd 33 4b 20 3e 8e 3e 48 3e
       -0.3323029 -0.054378055 0.15653686 0.19555113
000110 d9 bb d2 be 2b 3b c3 be e3 47 b6 3e 22 6e 81 bd
       -0.4115894 -0.3813108 0.3560172 -0.06319834
000120 60 b2 89 3e 10 2e 8a 3d 8a b1 53 3e 33 62 06 3e
       0.26893902 0.06747067 0.20673195 0.13123398
000130 20 3c 82 3e 30 8b ad 3e fe 1e bd be 64 7f 9e 3e
       0.25436497 0.33895254 -0.36937708 0.30956566
000140 19 a5 b6 be 15 1d c1 be fe 11 8b 3d e9 7e 9a bd
       -0.35672835 -0.377175 0.06790541 -0.075437374
000150 2b c0 68 3e ce bc 8d be 0e 19 a1 be 55 74 e2 3e
       0.22729556 -0.2768311 -0.31464428 0.4422938
000160 83 67 3e bd a3 3f 9c 3e 7b ac 88 3d 96 30 e1 be
       -0.046485435 0.305173 0.06673523 -0.4398238
000170 0b af 27 3e 90 cb fd 3d d1 03 fc be f4 4c ac be
       0.16375367 0.12392342 -0.49221662 -0.3365246
000180 72 79 72 3e 15 41 01 3e 64 a3 b6 be 47 c9 82 be
       0.2367914 0.12622483 -0.35671532 -0.25544187
000190 0c ad e0 3e 2c b8 b1 3b df 46 c3 3e 25 5f 87 3e
       0.43882024 0.0054235663 0.38140008 0.26439777
0001a0 27 12 c6 be 35 b1 d9 be ca 44 1d 3f e3 6d e2 3d
       -0.38685724 -0.4251801 0.6143309 0.110561155
0001b0 88 f7 7b 3e 7d e6 14 3e 5f 45 ab 3e 42 35 fc 3e
       0.24606144 0.1454105 0.33451363 0.49259382
0001c0 2a 2a cf 3e 8f 72 a9 be f2 14 53 3e cf e3 f1 3e
       0.40461856 -0.33095214 0.20613459 0.47244117
0001d0 d6 02 d2 3e fa a7 ae 3e f8 b9 f4 be c4 5a df be
       0.4101779 0.3411253 -0.47798133 -0.43623936
0001e0 58 a1 76 be 43 b5 fb 3d 0f 69 e4 3e 30 83 be be
       -0.24084985 0.12290432 0.44611403 -0.37209463
0001f0 76 b4 a7 3e e4 5f 9c be c8 cb 17 bf 44 b0 43 be
       0.32754868 -0.3054191 -0.5929532 -0.19110209
000200 09 b0 b7 3e 07 ee 06 3f 23 01 d9 be 3b e1 8a 3c
       0.35876492 0.5270695 -0.4238368 0.016953101
000210 6b 71 a9 3e 2f 44 bc 3e 49 7d f3 3e f8 46 f3 3e
       0.33094344 0.3677077 0.47556522 0.47515082
000220 f5 02 be 3e 6a ab 0a 3e 68 75 fa be 01 9a 03 bf
       0.3711163 0.13541952 -0.489177 -0.51406866
000230 84 a1 86 be cc a9 b8 bd f9 9c 9e be 16 a5 44 3e
       -0.26295102 -0.09016761 -0.30979136 0.192036
000240 29 bf c0 3d 02 3f 84 bd a1 01 9b 3e c6 a5 5a 3e
       0.09411461 -0.0645733 0.3027468 0.213523
000250 ea 2e a0 3e 47 f5 e5 3e 1c e7 ac bd 8b 26 03 3f
       0.31285793 0.44913694 -0.08442518 0.51230687
000260 0c 56 b6 3b 6d 6e 35 bd b8 48 1a bf 07 8c c6 be
       0.005564457 -0.044294763 -0.6026721 -0.38778707
000270 19 0b 94 be 91 05 5c be 29 b6 bc 3e 5d d7 17 be
       -0.28914717 -0.21486498 0.36857727 -0.14828248
000280 07 bf cd be 19 ba 6d 3e d5 ad 78 3e 9b a0 c6 3e
       -0.40184805 0.23215522 0.24285062 0.38794407
000290 8c 91 77 be 75 0c 5c 3d c9 f5 89 be 56 65 1e be
       -0.24176615 0.053722817 -0.26945332 -0.15468344
0002a0 23 75 dd be 42 2f 81 be 1b b4 76 bd bc 6a 8b 3e
       -0.4325343 -0.25231367 -0.060230356 0.2722987
0002b0 11 5b 30 3d a6 fc fc 3d 18 6c 23 3f bb f0 18 3f
       0.043055598 0.12352876 0.6383681 0.59742326
0002c0 4a 59 91 3e b7 44 56 3d a0 75 49 be 43 95 f6 3e
       0.28388435 0.052311625 -0.19673777 0.48160753
0002d0 b8 fb c0 bc 78 a9 25 3d f6 37 12 bf 93 ac 5a be
       -0.023557529 0.04044482 -0.5711664 -0.21354894
0002e0 a3 94 80 be 33 3c e9 3e 87 01 12 bf 96 5a fc be
       -0.251134 0.4555374 -0.5703358 -0.49287862
0002f0 db f1 8c bd f2 dd b8 be 99 d3 0d 3d 6e 25 a4 be
       -0.06882068 -0.3610683 0.034625623 -0.32059807
000300 8b 0b 33 be 16 5b 32 3d a5 99 75 3e e9 52 de be
       -0.17484872 0.043543898 0.23984392 -0.4342263
000310 52 92 8d 3e cb d6 b4 3e 5c f1 c0 3e 92 7d db be
       0.27650696 0.35320124 0.37684143 -0.4286924
000320 a0 00 f8 3d 14 4b bd be 60 8f da 3e a8 9b 46 be
       0.12109494 -0.36971343 0.4268751 -0.19395316
000330 d2 36 bf 3e 93 0e 96 3c 78 7b 4c be dd 03 0c be
       0.37346512 0.018317496 -0.19968975 -0.13673349
000340 cc 50 8e 3d ba 2e a0 3e 80 fd 2b 3e 72 1c 37 3e
       0.069490045 0.3128565 0.16795921 0.17881945
000350 a0 db 05 bf ac 0c c7 3e ac 42 19 3f 1f db 04 3f
       -0.52288246 0.38876855 0.5986736 0.5189685
000360 9d 50 a1 3e 7b 52 b0 be 33 e1 4e bd a7 bb 05 3f
       0.31506816 -0.34437928 -0.050507735 0.5223946
000370 78 29 a7 be 7a 57 f9 3e c0 47 ff be 75 e4 da be
       -0.32648826 0.48699552 -0.49859428 -0.42752424
000380 a1 69 43 3e 66 d3 d1 be 6d 5c 10 ba d8 39 e6 3e
       0.19083263 -0.40981597 -0.00055069366 0.44966006
000390 03 7b e8 3e de 32 03 3f 73 4a 69 be 9a 34 f5 be
       0.4540635 0.5124949 -0.22782306 -0.47891694
0003a0 7e 6f 05 3f 9b 53 0c be 64 1e 98 be 7e 36 5d 3d
       0.5212325 -0.13703768 -0.29710686 0.054007046
0003b0 10 5f 9e be 76 9d be 3e 66 fa 5e 3e 75 1b ed be
       -0.30931902 0.37229508 0.21775207 -0.4631001
0003c0 a7 de e2 be a2 91 9c bd d1 49 45 3e 95 50 82 bc
       -0.44310495 -0.07644965 0.1926644 -0.015907565
0003d0 b0 3a 2e be c4 63 0f bb fb 1b 20 bf 12 29 ee be
       -0.17014575 -0.0021879533 -0.62542695 -0.4651571
0003e0 84 d0 6f be ce 71 e1 3e b6 a7 91 3e b6 c5 95 be
       -0.23419386 0.4403214 0.28448266 -0.29252404
0003f0 67 a8 d2 3d 66 a5 5b 3e 91 a0 c7 bd 9d f1 b8 be
       0.102860264 0.21449813 -0.097474225 -0.36121836

bias f4 [64]
000000 50 2c 97 3e d4 75 ba 3e 61 86 11 3d bd 56 6e 3d
       0.29525995 0.3641802 0.035528544 0.05818819
000010 dd 07 ee 3e b8 b1 01 3f 47 a5 3a be 92 c1 f5 3e
       0.46490374 0.506618 -0.18227111 0.47999245
000020 d0 99 41 3e b9 bd 73 be e1 9c 9d 3e 82 1f bf be
       0.18906331 -0.23802842 0.30783752 -0.37328726
000030 df 54 01 3f 2e ea 4d be 07 8c 18 3e fc d1 3e 3e
       0.5052013 -0.20108864 0.14897166 0.1863479
000040 6e 7b d8 3d 8b b8 d5 3e 28 91 2c be 05 04 f1 bd
       0.10570417 0.41742358 -0.16852248 -0.11768345
000050 b2 48 e4 be e8 0e 99 ba 7e 63 2f be b3 bd 03 3e
       -0.44586712 -0.0011677416 -0.17127797 0.12865333
000060 ff 2c a2 3b e6 4c 21 3e a3 69 df 3e 17 a7 2b 3e
       0.0049492116 0.1575199 0.43635282 0.16762958
000070 0f 43 bc bd 2c c4 36 be c6 43 c0 be 03 4b f9 3e
       -0.09192478 -0.17848271 -0.37551707 0.48690042
000080 78 f9 2c bc d5 f0 04 3e af 6f e1 3d 33 1c 94 be
       -0.010557525 0.12982495 0.1100763 -0.28927764
000090 b8 87 96 3e 2f 48 a9 3e 2e ac 01 3e a9 22 99 be
       0.2940042 0.33062884 0.12663338 -0.29909256
0000a0 79 90 02 be 81 df 66 3d 50 47 72 be 81 bb 11 be
       -0.12750424 0.056365494 -0.23660016 -0.14231683
0000b0 1d 4b b0 3a a0 a9 d8 3b 3a 28 54 3e 2c e0 a0 3c
       0.001345012 0.0066120178 0.2071847 0.019638143
0000c0 ca 50 60 3c 8b db 06 be c4 f2 e9 be cc d2 f0 3e
       0.013691137 -0.13169686 -0.45693028 0.47035825
0000d0 25 95 26 3e 73 6f e8 3e 08 64 18 bd 79 fe 66 bd
       0.16267832 0.4539753 -0.037204772 -0.056395028
0000e0 59 fc c9 be 48 2c fa bd 08 d7 ce 3e 7f 3c dd be
       -0.39450338 -0.12215477 0.4039843 -0.43210217
0000f0 d9 b6 17 be b6 5d c2 3e 3e 19 ab 3e f8 b3 75 3e
       -0.14815845 0.3796212 0.33417696 0.23994434

weight f4 [64, 64]
000000 9a 20 a9 bb 47 42 e4 3c 7e 2e 06 be 79 46 b6 3d
       -0.005161357 0.027863635 -0.13103673 0.0890016
000010 b4 50 9d 3d 5d cc 3d 3d 97 ae 15 be d2 84 5f 3c
       0.076814085 0.046337474 -0.14617382 0.013642507
000020 e3 70 bc 3c f8 d4 97 3d 4a af fd 3d 78 59 3f 3d
       0.023003047 0.074136674 0.12386949 0.046716183
000030 72 de 47 3e dd 2b 3a be c5 72 1e bc 70 c5 f4 bd
       0.1951845 -0.18180795 -0.009670918 -0.11951721
000040 2f 70 a3 bd 85 65 30 bc d4 37 41 3c 9b 87 6d bd
       -0.07980382 -0.010766392 0.011793096 -0.05799065
000050 fd bf 66 bd 6e c3 c3 bd b1 d8 bc bc 07 b3 65 3e
       -0.056335438 -0.0955876 -0.023052545 0.22431575
000060 9d 0c ad 3d 95 90 6c bd cf 67 59 bc 2e d6 00 be
       0.084496714 -0.05775507 -0.013269379 -0.12581703
000070 f7 d9 2d be e8 15 5c 3c ff 59 18 3e 6a 7d f1 3d
       -0.16977678 0.013432957 0.14878081 0.11791499
000080 7a ae 94 3c 1c 6e 08 be 39 81 36 3e b9 8b 8e 3d
       0.018149603 -0.13323253 0.17822732 0.06960244
000090 04 85 0e 3e cb 22 ad 3c 7b 65 30 3e be 32 6e bc
       0.13917929 0.021134755 0.17226212 -0.014538465
0000a0 ee b4 36 be 42 14 ba bc 80 cd 96 3d 8b 2c 0f be
       -0.17842457 -0.022714738 0.07363415 -0.13981836
0000b0 1a c8 f6 bc 70 9a 10 3e 21 2f fb bc e6 d9 74 3d
       -0.030124713 0.14121413 -0.030662121 0.059778117
0000c0 95 0b 03 3e 6b 44 47 3d a8 35 f7 bd 51 70 f5 3d
       0.12797387 0.048649233 -0.12070781 0.11984313
0000d0 f8 0b 43 b9 53 d2 73 bd 85 c1 8c 3c 27 8c df 3d
       -0.00018601108 -0.059526753 0.017182121 0.10915404
0000e0 26 2e 4e bd 3c a1 44 3e 81 78 03 3e 92 72 b8 3d
       -0.05033698 0.19202131 0.12838937 0.090062276
0000f0 9e a5 48 bc db b8 16 bc b4 59 23 3e fd 45 51 3d
       -0.012246517 -0.009199346 0.15952188 0.051092137
000100 37 00 6d bd 8b 96 e9 3d dc 6a 13 3e c9 09 21 bd
       -0.057861533 0.11405667 0.14396232 -0.039315972
000110 29 c3 aa 3b e6 d8 76 bd d5 4f b7 3d 02 9c 14 3e
       0.005211253 -0.060265444 0.089507736 0.14512637
000120 b8 6c 24 bd 62 28 a4 bd 39 61 07 3e 00 34 2f 3b
       -0.040142745 -0.08015515 0.13220681 0.0026733875
000130 90 55 9b 3d 73 55 cb 3d 10 5b 19 3e 3c 51 20 3e
       0.07584679 0.099284075 0.14976144 0.15655988
000140 e9 66 c0 bc 66 8b ba 3d 8d e6 aa 3c 75 a9 ef bc
       -0.023486571 0.091086194 0.020861888 -0.029255608
000150 73 c2 25 bc 2e ba aa bd 99 38 8c bd df b7 04 be
       -0.010117161 -0.08336292 -0.06846733 -0.12960766
000160 a0 3e 71 3d f5 e8 bf 3c 46 e8 89 bb 6f 10 05 3e
       0.058897614 0.023426512 -0.0042085974 0.1299455
000170 7c ea c8 3d 2e a6 c3 bd 70 db 02 3d 33 4c f0 3c
       0.09810349 -0.09553181 0.031947553 0.02933321
000180 9d c9 8e bd 26 75 4b 3e 4e 0a e3 bd 8d 2a 25 bc
       -0.069720484 0.19868907 -0.1108595 -0.010080946
000190 83 6b 97 bd 72 9d 2c 3e 59 f1 14 bd a2 86 da 3d
       -0.07393553 0.16856936 -0.03636298 0.106702104
0001a0 65 15 ba 3d 1f 92 29 3d 79 db 0b 3a a8 0d 0f bc
       0.09086112 0.041399118 0.0005335133 -0.008731283
0001b0 9f 16 b2 3d 4d 67 d4 bd bc e3 dc bc d3 fa 1c be
       0.08695721 -0.103712656 -0.026964061 -0.15330057
0001c0 3d 8f 24 bc 97 25 2e 3d f4 b3 38 3d ad b4 d3 bd
       -0.010043916 0.042516317 0.04509349 -0.103371955
0001d0 d0 9e fb 3d a8 15 88 3d d9 a1 00 3e 9a 31 aa 3d
       0.122861505 0.066447556 0.1256174 0.08310242
0001e0 50 dc 84 bd 63 c1 f1 3d 9f 34 f5 bd ec 1e 72 3d
       -0.06487334 0.11804464 -0.11972927 0.05911152
0001f0 f5 23 3a 3c 84 5a aa 3c 1d 15 62 bd 8f ac 7f 3d
       0.011361112 0.020795114 -0.055195916 0.062420424
000200 23 12 54 bd a9 a3 ea bd 4a a5 fa 3b 0d 8d 1d 3e
       -0.05177511 -0.11456997 0.0076490985 0.15385838
000210 37 5a 01 3e ae 4f 3d 3c f5 53 b0 3d 3a 81 8e 3d
       0.1263207 0.011554642 0.086097635 0.06958242
000220 cd ae 0d bc 84 ba 7a bd b0 ae b2 3d 98 41 8c bd
       -0.008647633 -0.06121303 0.08724725 -0.068484485
000230 9c a3 a9 3d 50 83 00 be bc 15 bf 3d 93 b2 b3 3b
       0.08283159 -0.12550092 0.093303174 0.005483934
000240 b4 88 9f bc 12 86 8e 3d 24 03 8f bd b4 82 75 bc
       -0.019474365 0.06959166 -0.06983021 -0.014984775
000250 1b 5d 1e bb d2 b3 6c bd 64 35 3c 3c cc 02 b0 3c
       -0.0024164382 -0.057788678 0.011487339 0.021485709
000260 96 f3 4a 3e d7 29 d4 3d 54 2e ec 3d 04 a5 b5 3d
       0.19819483 0.10359543 0.11532274 0.08869365
000270 01 a6 e5 bd 2f c6 bd 3d f8 37 46 3d 3c 38 7f bd
       -0.11213303 0.09266316 0.04839322 -0.06230949
000280 1b a2 aa 3d 20 7a be bd 55 d0 b9 3d 9b 2b 64 3c
       0.083317004 -0.09300637 0.09072939 0.013926412
000290 98 bf e5 3d 03 a2 93 bd e1 3f 55 bc 0a f7 e2 3d
       0.11218184 -0.07208636 -0.013015718 0.11082275
0002a0 04 62 00 3c 48 92 d7 3d 83 e9 1a 3d 9d c8 a7 bd
       0.007835869 0.10525948 0.03782035 -0.08192561
0002b0 58 9d a1 3d 68 a1 79 bc 3e 98 53 3d bb 15 01 3e
       0.07891339 -0.015236236 0.05165886 0.12605946
0002c0 8b fb 08 3e ae dc e2 bc 1a 07 ad bd f0 7b 84 3d
       0.13377206 -0.027693119 -0.0844862 0.06468952
0002d0 57 ad ea bd c4 a7 f3 bd 8f d9 d3 bd 40 9d 5f bc
       -0.11458843 -0.11897233 -0.103442304 -0.013648331
0002e0 c1 36 97 bc fa fa ea bc e4 52 01 bd c0 17 b6 bd
       -0.018458726 -0.028684128 -0.03157319 -0.08891249
0002f0 08 4d 9b 3d f7 d2 e8 3b 2e 0d a1 bd 10 6d 67 3d
       0.07583052 0.007105227 -0.07863842 0.056500494
000300 f8 0e 0f bd 2e c1 2d 3e 2d 4c 41 3e 2a f3 42 be
       -0.034926385 0.16968223 0.18876715 -0.19038072
000310 6b c4 b5 bc 2c 61 84 bd 53 00 af 3c da ad db 3d
       -0.022188386 -0.064638466 0.02136246 0.10726519
000320 df 28 28 be e8 1c cb bd 06 f5 d6 3d b8 af 27 bd
       -0.16421841 -0.09917623 0.10495953 -0.040939063
000330 3b 06 ec bc e5 93 1d bc 6f c8 fa 3d f2 96 01 3e
       -0.028811565 -0.00961778 0.12245261 0.12655237
000340 fa 4f fe 3c 4f 73 f8 bc a1 c5 44 3d 71 d7 d8 3d
       0.031043995 -0.03032842 0.048040036 0.10587967
000350 14 76 90 3d a6 20 c1 3d eb 0b 78 3d 61 71 11 be
       0.070537716 0.09430055 0.06055824 -0.14203407
000360 55 4c b1 3d a1 f6 ac 3d 92 84 cc bc ed b0 56 3e
       0.08657137 0.08445478 -0.024965558 0.2096593
000370 2e 18 14 3e fe f5 24 bd cd 96 5a bd ec 0a 06 bd
       0.14462349 -0.04027366 -0.05336647 -0.03272526
000380 52 d0 d8 3c b2 68 38 3e 1f 87 09 be c1 de 15 3e
       0.026466522 0.18008688 -0.13430451 0.14635755
000390 27 ec 97 3c 77 29 2a 3e 63 22 c4 bd 66 21 27 bd
       0.018545223 0.1661738 -0.09576871 -0.040803336
0003a0 e3 01 45 3e f6 cf 01 be 53 45 39 bc 33 a5 04 3e
       0.19239001 -0.12676987 -0.011308032 0.12953644
0003b0 66 11 45 3e a8 d9 21 be 59 dc 80 bd 1f 2e 22 be
       0.19244918 -0.15805686 -0.06292028 -0.15837906
0003c0 9d da e8 bc 67 0b 22 3d e8 82 ee bc 4e af f0 bc
       -0.028424555 0.039561655 -0.029115155 -0.029380467
0003d0 dc 5c 15 3e 2f 11 cb 3d a7 2c 56 bc d6 5f 50 bc
       0.14586204 0.09915387 -0.013072169 -0.012718162
0003e0 03 d8 a2 3d 76 f4 87 3d ae 6f 04 3e 75 69 03 3d
       0.07951357 0.06638424 0.12933227 0.032082994
0003f0 14 30 af bd 00 13 d6 bd 9d 1d 0d 3d f5 52 43 bb
       -0.08554092 -0.10452843 0.03445207 -0.0029804085

bias f4 [64]
000000 85 e6 0b 3d 80 33 55 bd 0b e6 6e bd 0e 8b 85 3d
       0.034155387 -0.052051067 -0.058324855 0.06520663
000010 63 7a b9 bc 30 81 7e 3d ce d8 be 3c 13 dd f3 bc
       -0.022641366 0.06213492 0.02329674 -0.029768502
000020 c3 df 88 3d 4d d6 06 bc 02 aa c0 bd 9a 5f 62 bc
       0.06683304 -0.008229804 -0.094074264 -0.0138167385
000030 7c 3b f5 3c 48 03 05 3e 45 d3 fa 3d f0 be 05 bd
       0.02993559 0.12989533 0.12247328 -0.032652795
000040 64 a8 73 bd 48 c7 00 3e 1b 7e e3 3d 79 d3 a4 3d
       -0.05948676 0.1257602 0.11108037 0.08048148
000050 ca 64 08 be be 35 c2 3c 86 89 ea 3d be 47 5f 3d
       -0.13319698 0.023707267 0.11452012 0.054511778
000060 86 ef d0 bd e8 e7 db b9 71 18 64 3a 4f d6 0e 3e
       -0.102019355 -0.0004194372 0.0008701152 0.1394894
000070 eb 32 7f bd 17 dd 02 3e 4f cc 34 3d 41 1e b2 3d
       -0.06230442 0.12779652 0.044140156 0.08697177
000080 b3 f7 41 bc b6 ed 9b 3d 08 88 c2 3c 0e 7c 7b bd
       -0.011838841 0.07613699 0.023746505 -0.061397605
000090 4f 8a d1 3c 5e 28 7d 3d fa ea 4b 3d 1f 59 c6 3d
       0.025578646 0.061806075 0.049784638 0.09684967
0000a0 2c ed 67 3c 4e d8 fe bd 77 b9 b4 bc db d4 58 bc
       0.014155667 -0.124436006 -0.022061093 -0.013234342
0000b0 28 c2 86 3d 91 05 73 3d 3e c5 f3 bd 80 a9 b4 bd
       0.06580001 0.05933148 -0.11902855 -0.08821392
0000c0 f5 5a 39 bd 32 c8 1e 3d 9c 35 e1 3d 8f 61 8b 3c
       -0.04525276 0.03876514 0.10996553 0.017014293
0000d0 86 46 0d 3c 05 0c e7 3d e5 4c 0b 3e 0a 5b e7 bd
       0.008622771 0.112815894 0.13603552 -0.11296661
0000e0 e1 fd 78 bd 8f c4 ff 3c 5a 14 b6 bd 35 4f f5 3c
       -0.060788993 0.031221656 -0.088906005 0.029944995
0000f0 20 b2 de 3c 2d cb b9 bc 84 3b b1 3d 28 07 bd bd
       0.027184546 -0.02267989 0.0865393 -0.092298806

weight f4 [2, 64]
000000 ad 18 ca 3c 81 7f c3 bd 6d 65 24 bd 3e ed db bd
       0.02466997 -0.09545804 -0.04013579 -0.1073861
000010 20 7c ea bd 64 de 38 3e 79 10 10 be 24 35 93 3d
       -0.11449456 0.18053585 -0.14068784 0.0718787
000020 66 fb 79 bc 1d 2d 6f bd c3 63 87 3b 05 00 04 be
       -0.015257692 -0.058392633 0.0041317656 -0.12890632
000030 ad aa 9f bd 9c 70 4f bd b0 51 b4 bd 52 2f b0 bd
       -0.07796226 -0.050644502 -0.08804643 -0.08602776
000040 89 73 06 be b0 56 28 be b0 fb 16 bd ad 3b 3a be
       -0.1313001 -0.16439319 -0.03686112 -0.18186827
000050 43 b3 a2 3d 24 04 01 be e4 b1 94 3d 9c a7 ee 3d
       0.07944348 -0.12599236 0.072604924 0.11653063
000060 e2 bd b2 bc a4 98 0b 3d 4d 64 50 3e d4 6b 48 3e
       -0.021819059 0.034081116 0.20350762 0.19572383
000070 c2 e7 06 3c 37 de 4c be ca 36 fb 3d 04 0b 06 3e
       0.008233966 -0.20006643 0.122663096 0.1309014
000080 34 a6 fb 3d 15 8b a1 3d fe 99 88 bd 3f 8b 3b be
       0.1228756 0.07887856 -0.06669997 -0.18314837
000090 9e 69 9f bd 83 35 07 be 66 ca 2e be 4d 85 af 3d
       -0.07783817 -0.13204007 -0.17069396 0.08570347
0000a0 9a e6 66 3d c8 d2 dc bd 5f b3 60 be a0 33 ff 3d
       0.056372263 -0.10782391 -0.21943425 0.124610186
0000b0 8d 98 ea bd ee 6c 0d be d0 27 a2 bd 48 46 70 bd
       -0.11454878 -0.13811085 -0.0791775 -0.058660775
0000c0 d3 32 2f 3e f9 3d fb 3d c1 17 2e 3e 60 a2 80 bd
       0.17109232 0.1226768 0.17001249 -0.062809706
0000d0 07 d1 af 3d 29 17 28 be 57 12 dc bd 58 06 90 3d
       0.08584791 -0.16415085 -0.107456855 0.0703246
0000e0 c3 2e 29 be 00 71 87 3d a7 b3 dd bd 07 76 36 be
       -0.16521744 0.0661335 -0.108252816 -0.17818461
0000f0 f8 7d 33 3d 7c 5e 65 3e c4 05 ef 3d a9 00 9b bd
       0.043821305 0.22399324 0.116710216 -0.07568485
000100 de 25 55 be 8f 1f 22 3e 23 4c f5 bd ce 29 4e 3e
       -0.20815226 0.15832351 -0.119774126 0.20133135
000110 a5 24 25 3e 8c 17 d3 bd fe 33 07 3e ab b3 5a be
       0.1612726 -0.103072256 0.13203427 -0.213576
000120 38 05 14 3e 19 9a 45 3e 29 04 39 3e a3 12 03 3e
       0.14455116 0.19297065 0.18067993 0.12800078
000130 11 5c 35 3e 23 3a 06 be 84 ad 84 3d 15 75 07 3e
       0.17710902 -0.13108115 0.06478408 0.13228257
000140 d6 6f 0b 3d 53 cd 0e 3e 15 00 f1 3d 66 d3 32 3e
       0.034042202 0.13945512 0.11767594 0.17463455
000150 5f 2a b3 bd 73 3e d6 3d 4e d7 59 be c1 f7 6d bc
       -0.08748316 0.1046113 -0.21273538 -0.014524401
000160 71 37 96 3d 8d 6a a1 bd f7 55 16 be 0f 05 3c be
       0.07334793 -0.07881651 -0.1468123 -0.18361305
000170 46 a8 4d 3e 54 b5 9f 3d e6 70 58 bd 41 c6 d0 bd
       0.20083722 0.077982575 -0.052842043 -0.10194064
000180 6d ad a4 bd dc ca 37 be 02 7a 1a bd 9a 98 7e 3c
       -0.08040891 -0.17948478 -0.037714012 0.015539313
000190 ed 7c 4f 3e 6a 86 0d 3e df a5 f2 3d 53 bf ec bc
       0.20262499 0.13820806 0.11848044 -0.028899824
0001a0 4d b5 2a be 40 ed fa 3d a8 56 a9 3c 54 03 54 be
       -0.16670723 0.12252283 0.020671204 -0.20704395
0001b0 73 f8 c6 3d 29 08 42 3e 1e 8c bb 3d 50 ea ce 3c
       0.09715357 0.18948425 0.091575846 0.025258213
0001c0 5c c2 e7 bd c5 ea f9 bd e4 98 05 be 2a 08 06 3e
       -0.11316368 -0.12202982 -0.13046604 0.13089052
0001d0 17 c5 02 be 65 e7 b3 3c cf d8 0b 3e 1c 10 25 bd
       -0.12770496 0.021960923 0.13656925 -0.040298566
0001e0 87 c7 ad 3d cb a9 f2 bd b8 5f 42 3c b3 61 d0 3d
       0.084853224 -0.11848792 0.011863641 0.10174885
0001f0 a0 9b 8a 3d 56 8d ab bd c4 4b 5b 3d 12 25 b8 3d
       0.06767964 -0.08376567 0.053539053 0.089914456

bias f4 [2]
000000 0c 67 ba 3d 2c b0 14 3d
       0.09101686 0.036300823

weight f4 [64, 4]
000000 4a e8 83 3e 54 fc 61 be a0 83 c6 bd 20 51 70 3e
       0.2576316 -0.22068912 -0.09693074 0.23468447
000010 02 02 f1 be 12 87 99 3e a8 a9 d2 bd 0a 3d 82 3e
       -0.47071844 0.29985863 -0.102862656 0.25437194
000020 78 5a 8e 3d 00 c4 7a bd 40 02 0e 3e 20 10 ca 3c
       0.06950849 -0.061222076 0.13868046 0.024665892
000030 30 ff 3a 3e e4 86 47 be 30 51 15 bd 40 60 38 bd
       0.18261409 -0.1948505 -0.03645438 -0.045013666
000040 30 6c 94 3d 00 e7 02 bb 64 c9 df 3e 50 54 1f 3e
       0.07247198 -0.0019974113 0.43708336 0.15559506
000050 08 ac 3e be 36 9d 9a be 70 a3 ab bd b0 d8 5c be
       -0.18620312 -0.30198067 -0.083807826 -0.21567035
000060 d4 11 24 be 80 1f c4 3c d4 9b 98 3e 38 25 8b 3e
       -0.16022426 0.023940802 0.29806387 0.27176833
000070 c6 40 fa be 1c b3 9e 3e c8 08 0f 3e 88 d4 f2 3e
       -0.48877543 0.30996025 0.13968194 0.47427773
000080 ae f9 a8 3e 52 40 e9 be 2e 68 f3 be 3c f4 76 be
       0.3300299 -0.45556885 -0.4754042 -0.24116606
000090 ee cb e0 3e 10 91 aa bd 80 1d 5b 3e a8 ee 6d be
       0.43905586 -0.0832845 0.21397972 -0.23235571
0000a0 1a 31 fb 3e 5c a0 58 be 12 fb bf 3e 80 03 c2 3b
       0.490609 -0.21154922 0.3749624 0.0059208274
0000b0 82 dd 86 be 7a 96 83 3e d4 e3 87 be e4 94 16 3e
       -0.26340872 0.25700742 -0.26541007 0.14705235
0000c0 fc d7 13 be 00 88 60 bd 88 1d f6 be bc 1c 74 be
       -0.1443786 -0.0548172 -0.48069406 -0.23839086
0000d0 10 ea 8a 3e 40 e9 f8 bd 1a fd fe 3e e6 34 cd 3e
       0.271317 -0.12153864 0.49802476 0.4007942
0000e0 20 ca bf bc 2c e0 aa be f2 e4 9b 3e 20 e7 1e 3e
       -0.02341181 -0.33374155 0.3044811 0.15517855
0000f0 c4 7b a5 be 8e 48 a6 3e 06 6b 9b 3e 8c 0b e3 3e
       -0.32320988 0.3247723 0.3035509 0.44344747
000100 d6 80 8f be 78 8e a8 bd c0 b1 1e bc 18 90 95 3d
       -0.28027982 -0.08230299 -0.009685934 0.07302874
000110 78 48 c2 be d0 a9 b5 be e2 43 8b 3e a8 1e f0 bd
       -0.37945914 -0.3548112 0.27200228 -0.11724597
000120 30 19 7a 3e 40 83 e9 3c d0 1c 28 3e 80 2a e1 3d
       0.24423671 0.028504968 0.16417241 0.10994434
000130 b4 29 3a 3e cc cd 7d 3e ae 15 ed be a4 db 80 3e
       0.18179971 0.24785537 -0.46305603 0.25167572
000140 e2 ff b3 be 80 27 c1 be 80 18 f9 3c 38 7f ae bd
       -0.3515616 -0.3772545 0.03040719 -0.08520359
000150 de 5a 96 3e 3c 42 94 be 52 94 e3 be 0e 4f ba 3e
       0.293662 -0.28956783 -0.44449097 0.3638844
000160 30 d7 97 bd 32 fd 8f 3e a0 99 24 3e d4 f7 bf be
       -0.07414091 0.2812286 0.16074228 -0.37493765
000170 48 b8 cd 3d 18 f6 f5 3d 32 68 ab be 08 ee 72 be
       0.100449145 0.12009829 -0.33477932 -0.23723614
000180 5c 94 2e 3e e8 6b b7 3d 70 ca 59 be 94 fd 1a be
       0.17048782 0.08956128 -0.2126863 -0.15135795
000190 4a 77 ea 3e 38 76 bd bd a6 54 90 3e 98 b2 5d 3e
       0.45794135 -0.09251064 0.28189582 0.2165016
0001a0 f0 7a a5 be c0 b5 d9 be 44 bb f5 3e 40 e1 d5 3c
       -0.32320356 -0.42521477 0.47994435 0.026108384
0001b0 2e 7a af 3e 78 34 d4 3d bc ab 24 3e ae 38 bf 3e
       0.34272903 0.1036157 0.16081136 0.3734793
0001c0 32 be f2 3e 72 e0 a9 be 98 07 80 3d b8 0a bf 3e
       0.47410733 -0.3317905 0.062514484 0.37312865
0001d0 94 74 b9 3e 7c 09 9f 3e a4 45 b9 be c0 58 b8 be
       0.36221755 0.31061924 -0.36185944 -0.3600521
0001e0 50 d2 9a be b8 a4 80 3d 6e 25 ff 3e 7e b5 a1 be
       -0.3023858 0.062814176 0.49833244 -0.3158378
0001f0 e2 6a 88 3e 66 b1 8d be fa b1 f0 be 00 a4 d9 bd
       0.26644045 -0.27674407 -0.47010785 -0.10626984
000200 f0 7f 93 3e fa a9 ed 3e 66 fc 9e be 30 38 de 3d
       0.28808546 0.46418744 -0.3105194 0.10850561
000210 68 e4 dc 3e aa a3 a9 3e 8c 8b 9f 3e 04 ec b5 3e
       0.4314301 0.33132678 0.31161153 0.35531628
000220 98 ec a1 3e 6c 3f 04 3e d6 0e af be 6a fa d6 be
       0.3162582 0.12914819 -0.34191006 -0.41987926
000230 e4 9b 6a be 30 7b 6e bd 70 ea 9c be 2c 51 3b 3e
       -0.2291103 -0.05822295 -0.30647612 0.18292683
000240 30 75 1e 3e a8 de e7 bd 50 c8 44 3e 78 78 25 3e
       0.15474391 -0.11321765 0.19217038 0.16159236
000250 48 4c 9c 3e ce 66 ac 3e e4 63 2d be 5a 1e fa 3e
       0.30526948 0.33672184 -0.16932636 0.4885128
000260 c0 c3 6c bd e0 b8 8c bc 20 a2 f1 be 08 c4 a4 be
       -0.05780387 -0.017177999 -0.47194004 -0.3218081
000270 5c 8e 95 be 80 fe 5a be 1a 02 b6 3e d8 4f 27 be
       -0.29210174 -0.21386147 0.35548478 -0.16339052
000280 d2 4d bf be f0 fd 44 3e 44 ed 23 3e 0e cf a5 3e
       -0.3736406 0.19237494 0.16008478 0.32384533
000290 0e 79 84 be c0 04 de 3d d8 64 3a be 20 11 e6 bd
       -0.25873607 0.1084075 -0.18202531 -0.11233735
0002a0 d8 02 cc be 80 59 69 be d0 cd 1c be 04 f3 5a 3e
       -0.3984592 -0.22788048 -0.15312886 0.21381766
0002b0 f0 12 bb 3d e0 f1 fc 3d d2 83 ff 3e 30 81 f9 3e
       0.091344714 0.123508215 0.49905258 0.48731375
0002c0 a4 9a ae 3e 60 6e 82 3c 3e 19 b1 be 04 11 c8 3e
       0.34102356 0.015921772 -0.3458957 0.39075482
0002d0 50 08 00 be 40 92 25 bd 32 8b dc be f0 44 ca bd
       -0.12503171 -0.040422678 -0.43074948 -0.0987643
0002e0 ec 1d a5 be 6c 3d eb 3e 40 51 dd be 2e 8c c7 be
       -0.3224939 0.459453 -0.4322605 -0.38974136
0002f0 c0 15 8b bc 54 6c 8a be 18 33 37 3e f8 14 45 be
       -0.016978145 -0.27035773 0.17890584 -0.1924628
000300 e4 7a 70 be e0 fc e7 3c 60 51 b9 3e 94 13 b4 be
       -0.23484379 0.028318822 0.36194897 -0.35171187
000310 3c 70 70 3e 0a 77 a4 3e 22 6b fa 3e ac 2e b3 be
       0.23480314 0.3212207 0.4890986 -0.34996545
000320 a0 00 f8 3d 14 4b bd be 60 8f da 3e a8 9b 46 be
       0.12109494 -0.36971343 0.4268751 -0.19395316
000330 ca 33 9a 3e 40 e3 73 3c f0 80 1f bd c0 b1 82 bc
       0.30117637 0.014885724 -0.038941324 -0.015953898
000340 08 13 ae 3d d4 5a 71 3e a0 3a a4 3d 28 30 1c 3e
       0.08499724 0.23569804 0.08018994 0.15252745
000350 40 47 e6 be 6e 81 ba 3e 7a 32 df 3e 70 9c d3 3e
       -0.44976234 0.36426872 0.43593198 0.4133029
000360 b2 3d bd 3e d6 bc b8 be 64 cc 3d be c0 b8 e1 3e
       0.36961132 -0.3608157 -0.18535 0.44086266
000370 0e fc c2 be a6 3f e8 3e ce 57 c9 be 1e 54 b4 be
       -0.38082927 0.4536106 -0.39324802 -0.35220426
000380 38 4e 7a 3e e6 ee b7 be 60 99 ea bd e8 3c ba 3e
       0.244439 -0.35924453 -0.11455035 0.36374593
000390 56 c6 ca 3e 0c 1d f2 3e 98 c9 cf bd 90 fa c6 be
       0.39604443 0.47287786 -0.10145873 -0.3886304
0003a0 76 0f fc 3e 88 23 da bd a0 a7 52 be d8 9f f9 3d
       0.49230546 -0.10651308 -0.20571756 0.12188691
0003b0 ee 06 b3 be 84 43 a8 3e 8e 71 a0 3e 96 21 cb be
       -0.34966224 0.3286401 0.31336635 -0.39674062
0003c0 76 45 d2 be c0 65 33 bd 94 0d 57 3e 00 42 6d bc
       -0.4106862 -0.04379821 0.21001273 -0.014481068
0003d0 d6 cf 81 be 00 4a 3b 3c 66 9f f0 be 4a ee b4 be
       -0.2535388 0.011431217 -0.4699661 -0.3533805
0003e0 9e 6a aa be e2 d2 d2 3e 5e aa e1 3e cc e8 2d be
       -0.33284467 0.41176516 0.44075292 -0.16983336
0003f0 00 b5 b7 3c 38 57 64 3e d0 62 75 3d 52 31 80 be
       0.022425175 0.22298896 0.059908688 -0.25037628

bias f4 [64]
000000 20 a5 93 3e 38 5f 9d 3e c0 62 ed bc 30 1d 7c bd
       0.28836918 0.3073671 -0.028977752 -0.061551273
000010 86 a3 e8 3e e8 c6 df 3e 7c 25 91 be 9c 77 fa 3e
       0.45437258 0.4370644 -0.2834891 0.4891938
000020 70 69 fd 3d 00 0d aa be 3a 23 8c 3e 82 1f bf be
       0.12373626 -0.33213043 0.27370626 -0.37328726
000030 96 86 ec 3e ba 93 a4 be d4 ce 10 3e 74 e7 1b 3e
       0.4619643 -0.32143956 0.14141399 0.15225011
000040 08 91 f3 3d 04 55 d4 3e b0 a8 54 be b4 26 58 be
       0.11892897 0.41471112 -0.20767474 -0.21108514
000050 a0 d7 dd be 40 19 a8 bc 80 8b 72 be a0 1f a4 3c
       -0.4332857 -0.020519853 -0.23686028 0.020034611
000060 20 eb d1 bd dc e0 29 3e a4 75 dd 3e 7c 14 17 3e
       -0.10249925 0.16589683 0.43253815 0.14753908
000070 90 ef 24 be 88 3c 7b be 6c 45 df be 10 69 d7 3e
       -0.16107011 -0.2453481 -0.43607652 0.42072344
000080 98 fc c1 bd 18 b3 ce 3d 00 84 97 3c f0 23 a3 be
       -0.094720066 0.10092753 0.01849556 -0.31863356
000090 a8 2c 90 3e 9a 77 8f 3e 40 46 ce 3c 62 7b 91 be
       0.2815907 0.28020936 0.025179982 -0.28414446
0000a0 5c 8d 59 be 00 a0 e1 3b 28 43 92 be 5a d6 8e be
       -0.2124533 0.0068855286 -0.2856686 -0.27897912
0000b0 40 bf 98 bd 3c 6e 13 be 50 5f fb 3d b0 93 06 be
       -0.07458353 -0.1439752 0.12274039 -0.13142276
0000c0 a0 be 87 bd c4 6b 43 be c4 f2 e9 be b6 43 df 3e
       -0.06628156 -0.19084078 -0.45693028 0.43606347
0000d0 70 5c c3 3d e6 eb e4 3e 68 07 a5 bd 14 ac 00 be
       0.095391154 0.44711226 -0.08058053 -0.12565643
0000e0 cc aa f0 be 54 5c 42 be ac e0 a7 3e f2 bc fa be
       -0.47005308 -0.18980533 0.327886 -0.4897228
0000f0 74 14 33 be 6a f8 9b 3e 5e 8b 93 3e b8 0d 3d 3e
       -0.17488271 0.30462962 0.28817266 0.18462265

weight f4 [64, 64]
000000 20 b2 ca bc d0 10 1b bc f0 76 c2 bc 70 be 3c bd
       -0.02474314 -0.009464458 -0.023738354 -0.046080053
000010 90 ab 55 3d 80 63 2e bd da d0 8f bd 18 4e e8 3c
       0.052165568 -0.04257536 -0.07022257 0.02835755
000020 d0 09 b9 bd 68 89 da bc ca d1 82 3d 78 59 3f 3d
       -0.09035075 -0.026676849 0.0638767 0.046716183
000030 4c f1 d9 3d a2 9a ae bd 80 73 8e 3a ec 31 17 bd
       0.10641727 -0.085255876 0.0010868162 -0.036912844
000040 62 2f 8f bd 82 03 90 bd c4 fd 00 3d 70 45 56 3c
       -0.069914594 -0.07031919 0.03149201 0.013078079
000050 c0 ac 82 bd ac 71 b4 bd 6c 1a d4 bd 84 e5 fa 3d
       -0.06380606 -0.08810744 -0.10356602 0.12250808
000060 40 89 ae bc f0 c8 ec bc 88 45 3c bd de 0a 80 bd
       -0.02130568 -0.028904408 -0.045964748 -0.06252073
000070 78 1d ea bd 80 49 96 bd 78 79 9c 3d a0 6f e0 3c
       -0.11431402 -0.07338238 0.07640356 0.027396977
000080 c8 9c 34 bd bc 7d 41 bd 4e 89 a3 3d 46 89 b8 3d
       -0.04409483 -0.04723905 0.07985173 0.09010558
000090 a2 a3 f6 3d 70 5a 15 3d 58 5a 77 3d a0 8d 24 bc
       0.12042929 0.0364632 0.060388893 -0.010043532
0000a0 ae aa 95 bd 6c cc fa bd 9a ed 9b 3d d0 d5 94 bc
       -0.07307945 -0.12246022 0.07613678 -0.01816836
0000b0 64 5a 52 3d c0 9c c9 3b 20 ee ee bd 40 2f 7b bd
       0.051355734 0.0061527193 -0.116665125 -0.061324358
0000c0 c8 0a 10 3d 10 42 cf bc a8 35 f7 bd a4 89 33 3d
       0.03516653 -0.025300056 -0.12070781 0.043832436
0000d0 c0 16 9d 3b 00 8c 24 bd 58 d5 4e 3d b8 2f d8 3c
       0.004793972 -0.040172577 0.05049643 0.026389942
0000e0 c0 d3 3c bd 26 fa e5 3d 12 6e 80 3d 80 93 80 3c
       -0.046100378 0.11229353 0.06270994 0.015695333
0000f0 20 a9 c4 bc 9a d7 d8 bd de a6 c5 3d d8 1d 04 bd
       -0.024006426 -0.10587998 0.09650968 -0.032255024
000100 0a 6f a5 bd 88 22 a4 3d 5c d6 35 3d 70 68 fd 3c
       -0.0807782 0.08014399 0.044393882 0.030933589
000110 08 0a cb bc ac c7 1f bd 70 c5 ad 3c f8 1a c6 3d
       -0.024785057 -0.03900878 0.02121231 0.09673113
000120 18 a4 92 3c 20 19 72 bd b0 4e fe 3d 00 34 2f 3b
       0.017900512 -0.059105992 0.12417352 0.0026733875
000130 5c 5f ca 3d b0 91 f9 3c 9e 77 e5 3d 8e b4 93 3d
       0.098814696 0.030464977 0.11204456 0.072121724
000140 08 84 82 bd 1c d4 b3 3d 00 cd 52 3a e2 7e cd bd
       -0.06372839 0.08780691 0.00080414116 -0.100339666
000150 38 93 d6 bc 96 11 e7 bd 58 a2 84 bd 0e 5c b5 bd
       -0.026193246 -0.11282651 -0.06476277 -0.08855449
000160 74 17 af 3d 58 21 d7 bc 70 ec b0 bc b8 5b 75 3d
       0.08549395 -0.026261017 -0.021597117 0.059901923
000170 74 5e 50 3d a8 f3 a8 bd 94 b0 3c 3d 58 82 59 3d
       0.050871328 -0.08249599 0.046066836 0.05310282
000180 4a 8c cb bd 6c 93 de 3d 68 c5 9b bd d0 37 48 bd
       -0.099388674 0.10867962 -0.07606012 -0.048881352
000190 10 dd d2 bd 76 fa e9 3d d0 fc c2 3c 98 8f d7 3d
       -0.102960706 0.11424725 0.023802191 0.10525435
0001a0 70 bc 05 3c ae 25 8b 3d 64 79 23 bd 06 3b cc bd
       0.008162603 0.06794296 -0.03991069 -0.09972195
0001b0 58 61 a4 3c 40 a3 36 bc e0 c8 4e bc 68 73 7b bd
       0.020065948 -0.01114732 -0.0126211345 -0.061389357
0001c0 c0 96 29 3b c0 09 13 3d f4 b3 38 3d 76 39 ce bd
       0.0025877208 0.03589797 0.04509349 -0.100695536
0001d0 88 5b 77 3d 10 9a 52 3c 56 91 b0 3d 34 eb b4 3d
       0.060390025 0.012854114 0.08621471 0.08833924
0001e0 90 9a c9 bd 8a d7 f5 3d 6e c3 fb bd 68 2a 93 3d
       -0.098439336 0.120040014 -0.12293135 0.07185823
0001f0 90 25 10 3c 6c 48 72 3d aa 6f 8a bd 02 e8 99 3d
       0.008798018 0.059151098 -0.067595795 0.07514955
000200 b8 5a 7d bd 02 47 e2 bd 78 89 2b 3d c0 1f 8c 3d
       -0.061854094 -0.110487 0.041879147 0.06841993
000210 34 c3 fd 3d c0 0a 56 bc 3c 44 f6 3d ce 76 a4 3d
       0.12390748 -0.013064086 0.120247334 0.08030473
000220 00 ef 7d bd d4 76 c5 bd c4 94 8f 3d 98 41 8c bd
       -0.061995506 -0.09641805 0.07010797 -0.068484485
000230 0c da 6a 3d 74 3f db bd 18 c5 ba 3d 9c 74 19 3d
       0.057336852 -0.10705462 0.09119624 0.037464723
000240 a0 71 6b bc 4c d1 6a 3d 22 42 b6 bd 80 da df bc
       -0.014370352 0.057328507 -0.088993326 -0.027325869
000250 80 9e a0 3a 74 ec 93 bd cc d3 02 bd 70 cd 5c bd
       0.0012254268 -0.07222834 -0.031940266 -0.053906858
000260 2e fa f3 3d 2c 7b d9 3d 84 cb dc 3d f4 3c d1 3d
       0.11912952 0.10619196 0.10781005 0.10216704
000270 48 2c f5 bd e4 43 2b 3d a8 b7 3c 3d 42 c5 bb bd
       -0.119713366 0.041812792 0.046073586 -0.09168483
000280 d4 88 4f 3d ee e8 8a bd 48 d5 a2 3c e4 96 29 3d
       0.0506676 -0.06782709 0.019877091 0.041403666
000290 b0 e6 dc 3d 26 4d 86 bd 14 6a c9 bd ba dd ec 3d
       0.10786188 -0.06557684 -0.09834686 0.115657285
0002a0 d0 eb 56 3d 30 db 78 3d 48 4d 38 3d 58 3a 35 bd
       0.052470982 0.06075591 0.044995576 -0.044245094
0002b0 16 ff 99 3d 2e 7f df bd 20 81 8e 3c c0 71 67 3d
       0.07519357 -0.109129295 0.017395556 0.056504965
0002c0 20 e9 ae 3d 88 ad 7f bd 1a 07 ad bd a8 e9 3f 3d
       0.08540559 -0.06242135 -0.0844862 0.04685369
0002d0 58 4e cb bd 8e c0 d4 bd ba 39 e6 bd 5c 49 78 bd
       -0.09927052 -0.103882894 -0.11241479 -0.060616836
0002e0 78 75 c3 bc fc 99 97 bd ac 7c 58 bd 46 af e2 bd
       -0.023859724 -0.07402417 -0.05285327 -0.11068587
0002f0 48 59 9d 3d 98 6c ea bc a4 85 a1 bd 40 4d 05 3d
       0.07683045 -0.028616235 -0.07886818 0.032544374
000300 ca 69 bf bd 90 32 b3 3d 38 34 93 3d fc 92 fb bd
       -0.093463495 0.087498784 0.07187694 -0.122838944
000310 3a f2 c8 bd e6 cc a8 bd ae 94 8a bd 90 b7 7f 3c
       -0.09811826 -0.08242206 -0.0676664 0.01560773
000320 b8 25 fd bd 38 ca bd bd a0 d2 69 3d b8 af 27 bd
       -0.1236071 -0.09267086 0.057085633 -0.040939063
000330 7c bc 4b bd b4 c8 d3 bd fc 84 4f 3d 30 9f 10 3c
       -0.0497403 -0.103410155 0.050663933 0.008827016
000340 48 e7 45 bd 30 c5 9c bd c8 c6 d9 3c 9c 4f 0b 3d
       -0.04831627 -0.07654798 0.026584044 0.03401147
000350 c0 41 63 3d fc 27 18 3d d8 34 9c bc fc 2b c6 bd
       0.055482626 0.037147507 -0.019068167 -0.09676358
000360 c4 f8 a2 3d 00 72 8c ba 64 22 aa bd 96 c5 dc 3d
       0.079576045 -0.0010715127 -0.08307341 0.10779874
000370 74 bb 8e 3d ac 32 c9 bd 98 b3 7f bd 60 3c 2e bd
       0.069693476 -0.09824118 -0.062427133 -0.042538047
000380 d6 c8 93 bd e8 18 6f 3d 02 a1 b6 bd 20 eb ed 3d
       -0.07216041 0.05837336 -0.089174286 0.11617112
000390 90 a0 53 bd 4a 1c 97 3d 20 7d 8b 3b 4c 2c 61 bd
       -0.051666796 0.073784426 0.0042568594 -0.054973885
0003a0 d0 f3 aa 3d 2c 56 c3 bd ea 71 87 bd 60 79 75 3c
       0.08347285 -0.0953792 -0.06613524 0.014982551
0003b0 0c 14 cb 3d 80 5e 5b bd e4 e2 9b bd 38 6f a3 bd
       0.09915933 -0.05355692 -0.07611635 -0.07980198
0003c0 a4 ba 61 bd d4 dc 30 bd e8 82 ee bc 82 a2 91 bd
       -0.055109635 -0.043179348 -0.029115155 -0.07111074
0003d0 ec 05 20 3d 00 10 85 3a 24 43 a7 bd 4a 31 92 bd
       0.039068148 0.0010151863 -0.08167103 -0.071383074
0003e0 88 d5 d8 3c 00 0d ea ba f4 2e b5 3d 00 3c 9b bc
       0.026469007 -0.0017856658 0.08846846 -0.018949509
0003f0 d4 62 cf bd 3e 57 bd bd e8 48 16 bd e0 ca e2 bc
       -0.10126272 -0.09245156 -0.036690623 -0.027684629

bias f4 [64]
000000 a0 f6 fc bc f0 97 70 bd 7c b1 8e bd b0 02 2f 3c
       -0.030879319 -0.05873865 -0.06967446 0.010681793
000010 00 f9 5a bc 00 67 52 3a bc ab 03 3d dc 79 e5 bd
       -0.01336503 0.00080262125 0.0321462 -0.112048835
000020 e0 6c 81 3d 28 9e a1 bc 4c c5 dc bd 8c 53 39 bd
       0.063195944 -0.019728735 -0.10779819 -0.045245692
000030 40 f3 04 3b 12 61 df 3d 2e db f8 3d 98 24 40 bd
       0.002028659 0.109071866 0.1215118 -0.0469099
000040 38 82 ae bd 10 aa c7 3d b6 6a cf 3d 1c 59 94 3d
       -0.08520931 0.09749234 0.10127775 0.07243559
000050 52 97 ec bd 78 6d ac 3c 40 92 e7 3c 94 56 19 3d
       -0.115522996 0.021048293 0.02826798 0.037436083
000060 ae 82 b0 bd 90 dd 28 3c 88 07 4a bd 4e 21 a0 3d
       -0.08618675 0.010306731 -0.04932359 0.07818852
000070 0c 55 a8 bd e2 9f d8 3d 14 fe 0f 3d 08 49 f8 3c
       -0.082193464 0.1057737 0.035154417 0.030308262
000080 04 60 68 bd c0 36 f0 bb c0 d7 fe 3c da 53 c2 bd
       -0.056732193 -0.0073307455 0.031108737 -0.0948865
000090 68 e3 89 3c ba 33 8a 3d f0 7f 4c 3d 4a 77 d6 3d
       0.016832069 0.06748147 0.0499267 0.10471971
0000a0 30 69 81 bd 4e d8 fe bd 0c 4c 48 bd e2 10 91 bd
       -0.06318891 -0.124436006 -0.04890065 -0.07083298
0000b0 18 73 92 3d a8 73 1c 3d 3e c5 f3 bd 80 a9 b4 bd
       0.07150859 0.038196236 -0.11902855 -0.08821392
0000c0 00 67 e6 bd c4 b1 27 3d 94 db 00 3d 80 de 1a 3c
       -0.112501144 0.040941015 0.031459406 0.009452462
0000d0 ec ee 10 bd 64 99 df 3d 5e 4b c4 3d 0a 5b e7 bd
       -0.035384104 0.10917929 0.09584688 -0.11296661
0000e0 10 80 a1 bd 48 88 08 3d 0a 5d ae bd 28 0b 99 3c
       -0.07885754 0.033333093 -0.085138395 0.018682078
0000f0 20 b2 de 3c 7a 56 bb bd 84 3b b1 3d 2a 33 a7 bd
       0.027184546 -0.091473535 0.0865393 -0.08164056

weight f4 [2, 64]
000000 6c d3 9f bd d8 25 a9 bc 24 cd 65 bd 10 84 26 3c
       -0.078039974 -0.020647928 -0.05610384 0.010163322
000010 5e 8a 9f bd d8 24 a1 3d 2e fc f1 bd 38 cb 23 bd
       -0.07790063 0.078683555 -0.118156776 -0.039988726
000020 c0 82 04 3d d8 b1 1a 3d 10 bc 7e 3d 38 cf 0a bd
       0.032351255 0.03776726 0.06219107 -0.033889025
000030 c0 65 bc 3c 64 b4 d4 bd 68 9d 27 bd 40 d1 8e 3b
       0.022997737 -0.10385969 -0.0409216 0.0043584406
000040 44 ba e6 bd 16 4e 8d bd 60 5a 08 3d b2 6a e0 bd
       -0.11265996 -0.06899659 0.033289313 -0.109578505
000050 74 08 bb 3d 24 ed 75 bd 00 30 4b bd 4c 74 97 3d
       0.09132472 -0.060040608 -0.049606323 0.07395229
000060 8c c8 13 bd 54 71 06 3d be 41 e0 3d 8c a3 c4 3d
       -0.03607993 0.032822922 0.10950039 0.096015066
000070 92 45 cf 3d 92 fc dd bd 1e 37 ef 3d 80 b7 2c 3d
       0.10120691 -0.108391896 0.11680435 0.042167187
000080 c4 44 24 3d 24 4b 06 bd f4 b9 93 bd c0 00 b9 bd
       0.040104643 -0.032786503 -0.07213202 -0.09033346
000090 d0 d1 05 3c 2e 5f c5 bd 46 f0 f5 bd 9c 0b b8 3d
       0.008167699 -0.09637295 -0.12008719 0.08986589
0000a0 b4 b1 3e bd c8 d2 dc bd 64 4c f7 bd 48 a1 d6 3c
       -0.04655619 -0.10782391 -0.12075117 0.026199952
0000b0 32 a7 a7 bd 90 3c 1a bd d0 27 a2 bd 48 46 70 bd
       -0.08186187 -0.037655413 -0.0791775 -0.058660775
0000c0 b2 3d 8c 3d 14 ef ff 3d 8a 39 86 3d f0 48 01 3c
       0.06847705 0.124967724 0.065539435 0.007890925
0000d0 30 6e 37 3c a4 67 c7 bd 8c a1 17 bd 58 06 90 3d
       0.011195704 -0.09736565 -0.037019297 0.0703246
0000e0 da f1 ad bd a6 44 8c 3d 6c 9b 96 bd 62 49 e9 bd
       -0.08493395 0.06849031 -0.07353863 -0.1139095
0000f0 f8 7d 33 3d 58 c6 f0 3d c4 05 ef 3d 14 88 ac bd
       0.043821305 0.11756581 0.116710216 -0.08424392
000100 1a f2 d7 bd 18 09 ab 3d 54 98 d4 bd f4 95 ab 3d
       -0.10544224 0.08351344 -0.10380617 0.08378211
000110 9a 57 ff 3d 80 e7 9f ba 3e 43 e0 3d 96 4c d0 bd
       0.124678805 -0.001219973 0.109503254 -0.101708576
000120 ae 89 c6 3d b8 44 c6 3d 9c 20 fb 3d ac 19 07 3d
       0.09694229 0.09681076 0.12262079 0.032983467
000130 04 f4 9b 3d 30 78 9f bd 28 aa 90 3c 80 9b 2b 3d
       0.07614902 -0.07786596 0.017659262 0.041896343
000140 60 59 7c 3c a8 76 34 3d 08 aa 42 3d 28 9a d1 3d
       0.015402168 0.044058472 0.047525436 0.10234481
000150 90 7f cb bd a4 59 1e 3d b2 64 b9 bd 28 d1 e5 3c
       -0.0993644 0.038659707 -0.09052409 0.028053835
000160 34 6c b3 3d d6 d6 9e bd 0c 4a 58 bd fa d5 ab bd
       0.087608725 -0.077558205 -0.05280499 -0.08390422
000170 ea e7 dc 3d 20 54 60 bc 90 71 40 bd 70 5f 58 bc
       0.107864216 -0.013691932 -0.0469833 -0.013206348
000180 80 cd 1a 3b fe e4 8a bd 10 3a 04 bd c8 42 9e bd
       0.0023621023 -0.06781958 -0.032281935 -0.07727581
000190 0c d6 ee 3d f8 00 d2 3d 58 01 8b 3d 44 6c 07 bd
       0.1166192 0.10254091 0.06787366 -0.033062235
0001a0 7a 9e 82 bd 40 ed fa 3d c6 c4 9f bd 76 7b de bd
       -0.06377883 0.12252283 -0.078012034 -0.10863392
0001b0 18 07 84 3d b4 54 b6 3d 1e 8c bb 3d 50 ea ce 3c
       0.064466655 0.089028746 0.091575846 0.025258213
0001c0 40 d2 2c bc e0 9b fe bd 48 ef d4 bc 9c 89 76 3d
       -0.010548174 -0.124320745 -0.025993004 0.06018983
0001d0 c4 4d 59 bd d4 99 37 bd 08 70 87 3d 1c 10 25 bd
       -0.05305268 -0.044824436 0.06613165 -0.040298566
0001e0 80 bd 95 3b 72 7d f7 bd 10 31 bb bc 60 7e 19 3d
       0.0045697093 -0.12084474 -0.022850543 0.037474036
0001f0 a0 9b 8a 3d 28 a5 b9 3c c4 4b 5b 3d 7e ac c9 3d
       0.06767964 0.02266176 0.053539053 0.098473534

bias f4 [2]
000000 78 40 88 3d 44 fd 78 3d
       0.066529214 0.060788408

weight f4 [64, 4]
000000 2a 36 92 3d aa c1 9b 3e de 58 7e 3f e4 d0 d5 3e
       0.07139237 0.3042119 0.9935435 0.41760933
000010 d5 42 41 be d8 d4 fb be 5f 5f c8 bc 16 ce e7 3e
       -0.1887315 -0.49185824 -0.024459539 0.4527442
000020 3d 44 ce be 01 46 ca 3d 9c 67 4d 3f ef 52 86 be
       -0.40286437 0.098766334 0.8023622 -0.26235148
000030 e8 18 80 3e f9 ab d1 3e 7e 4e 47 bf 85 d3 4d 3c
       0.25019002 0.40951517 -0.77854145 0.012562637
000040 ca e5 6e be a9 14 59 3e 4e aa 83 3f f7 8e 0b 3f
       -0.23329845 0.21199287 1.0286348 0.5451502
000050 c9 b3 1b bf aa 3d 45 3e c3 cb 0a 3f 76 eb 8d 3d
       -0.60821205 0.19261804 0.54217166 0.06929676
000060 9c a1 27 be 8c 88 52 3e 58 cc 1b be cc d3 79 3e
       -0.16370243 0.20559901 -0.1521467 0.243972
000070 dd 32 0b 3f 3d 66 45 3e a4 ed 4b bf c0 61 8f be
       0.54374486 0.19277282 -0.79659486 -0.28004265
000080 ed f4 34 3f f1 a0 4c 3e 15 dc df be a3 e6 10 bf
       0.7068623 0.1998327 -0.43722597 -0.56601924
000090 95 a0 23 3e 3f 60 f0 bd 8f 04 ff be b5 c3 cf be
       0.15979226 -0.117371075 -0.49808165 -0.40579
0000a0 d4 32 a8 3d 87 f3 ae bd 35 38 bf 3e 93 02 d7 3c
       0.0821282 -0.08542543 0.3734757 0.026246345
0000b0 33 0e 36 bf c0 e6 34 3e 2c 90 50 3f f8 67 11 3e
       -0.71115416 0.17666149 0.8146999 0.14199817
0000c0 f7 ad c7 bd 7c 9b b9 3e 5c bb 19 3f 2f 65 ed 3e
       -0.09749978 0.36251438 0.6005151 0.4636626
0000d0 c2 6e 04 3c fb 23 91 bd 12 e8 5f bf 7c bd 67 be
       0.008083047 -0.07086941 -0.87463486 -0.22630876
0000e0 ce a7 e2 bd c5 e9 96 3e 33 24 61 3e e4 13 90 3e
       -0.110671625 0.29475227 0.21986465 0.28140175
0000f0 93 28 4e 3f 05 69 8f bd a3 40 5b bf 96 e6 03 bf
       0.8053066 -0.07002453 -0.856455 -0.5152372
000100 2b c1 ee be a9 b3 6a 3d 62 5e 10 3f c1 7d 96 bc
       -0.4663175 0.057300244 0.56394017 -0.018370511
000110 0c 2e 73 be 70 c5 dd be 11 a0 35 3d 80 e5 c1 3b
       -0.23748034 -0.43314695 0.044342104 0.005917251
000120 0a 5a f3 be 02 da 2d bf 35 b9 5d bf 09 c7 04 bf
       -0.47529632 -0.6791078 -0.8661073 -0.51866204
000130 26 4c b7 bd 33 aa a1 3e 44 dd a8 3e df 49 bd 3e
       -0.08950071 0.31575164 0.32981312 0.36970422
000140 b3 6e 2c 3e 6a e0 8d be 03 8e 17 be 17 0f 21 be
       0.16839103 -0.27710277 -0.14800267 -0.15728413
000150 cc 39 25 be 12 ff 9d 3e c0 21 a7 bc a4 79 66 3e
       -0.16135329 0.30858666 -0.020401835 0.2250734
000160 df 3f 96 3d 64 03 65 3e bf 74 b0 3e dd 7e ee 3d
       0.07336401 0.22364575 0.3446407 0.11645291
000170 cb 7c 97 3e d5 e3 b8 be f3 2c 5c be 97 8e 10 3e
       0.29587397 -0.36111322 -0.21501522 0.14116894
000180 f1 24 a9 be 53 4b a1 3d f1 07 69 3f 51 16 c8 3e
       -0.33035997 0.07875695 0.9102774 0.39079526
000190 21 ec a6 be 51 6b 44 bd bb 32 ad be 7a 66 21 3e
       -0.32602027 -0.047953907 -0.33827767 0.15761748
0001a0 cc 11 26 be 58 46 9b bb f8 ff 38 3f 2c a6 df 3d
       -0.16217726 -0.0047386102 0.7226558 0.10920367
0001b0 6a 6a b7 bd 9e 4c 8e 3d d8 36 72 3f 27 6b c0 3e
       -0.08955844 0.06948207 0.94614935 0.3758175
0001c0 a3 56 d8 3e 04 e9 90 be c5 4c 6f bd 41 cf cb be
       0.422536 -0.28302777 -0.058422823 -0.3980656
0001d0 d7 22 cb 3e 98 2e 8c 3d 2d 12 b9 3e e0 28 e4 be
       0.39675018 0.068448246 0.3614668 -0.44562435
0001e0 d8 a5 cd 3e 1b b9 c8 3e 4d b8 82 bf 23 d6 85 bd
       0.4016559 0.39203724 -1.0212494 -0.06534984
0001f0 82 84 8c 3d 29 be 34 3e c5 fe 4e 3f 33 48 0e be
       0.06861211 0.17650665 0.808575 -0.1389473
000200 dc c7 dd be 29 e4 22 3e 56 cc 02 3e 52 58 ae be
       -0.43316543 0.15907349 0.1277326 -0.34051758
000210 30 8d 28 bf 28 dc e6 3e 82 ca f1 3c 59 00 d1 3e
       -0.65840435 0.4508984 0.029515509 0.40820578
000220 3a c6 39 bf 76 ee dd 3e 2e dc ed 3e fa 8f fd 3e
       -0.72568095 0.43345994 0.46457046 0.49523908
000230 a9 8a d7 3e 3d cc bc 3e 82 ca 02 be 80 11 d7 bd
       0.42097977 0.3687457 -0.12772563 -0.10501385
000240 ee d6 f0 bd c0 9e 07 be b5 d0 00 be 6f 47 8a 3e
       -0.117597446 -0.13244152 -0.12579615 0.27007625
000250 61 a7 cc be 41 e9 95 3e b4 dc 44 3e 7e 3c 8c 3d
       -0.3997145 0.2927952 0.19224817 0.068474755
000260 f3 25 21 bf 3f 5c 84 3e 5e a0 47 3f ce 1c 0c 3f
       -0.6294853 0.25851628 0.77979076 0.5473145
000270 21 63 44 3f 4c 06 a7 3e ce c8 ab be ff 75 db bd
       0.7671376 0.32621992 -0.3355164 -0.10715865
000280 25 e4 69 be 74 63 a9 3e 9d a3 47 3f 01 84 ab 3e
       -0.22840936 0.3308369 0.7798403 0.33499148
000290 2c db 83 be 25 6e 1b 3e 85 c7 8d 3e 52 37 b9 3e
       -0.25753152 0.15178736 0.27691284 0.3617502
0002a0 78 2f 88 bd 9c d4 49 bf 4e 6d 9d be 1a 57 43 be
       -0.06649679 -0.7884004 -0.30747455 -0.19076195
0002b0 ab dd ce bc 36 33 85 3e 50 1d 4f 3e 7b e9 d5 bd
       -0.025252184 0.26015633 0.20226026 -0.104449235
0002c0 38 4b 00 3c d7 75 02 bf ff 10 b4 bd e2 a9 72 3e
       0.007830434 -0.5096106 -0.08792304 0.23697618
0002d0 f6 14 ff be 87 ce 8a 3e 56 9b de 3e a4 3e b2 be
       -0.4982068 0.27110693 0.43477887 -0.34813416
0002e0 ea dd 50 3e 45 48 6e bc 70 35 92 be 91 26 20 3e
       0.20397153 -0.014543598 -0.28556395 0.15639712
0002f0 cc d9 1a bf 3c 08 90 3e 0d 69 92 3f 89 2e d3 3e
       -0.6048858 0.28131282 1.1438309 0.4124644
000300 3d ef 33 3e 90 66 a1 be a8 9c 42 3d a6 5c 8b 3e
       0.17571731 -0.3152356 0.04751268 0.27219123
000310 6c 22 c5 be 95 f8 05 3f c7 36 8a 3f dc 48 0b 3f
       -0.38502824 0.5233243 1.0797967 0.5440805
000320 51 53 31 3e a6 22 a8 be 58 cd 09 be 01 dd 12 bd
       0.17316939 -0.32838935 -0.13457239 -0.035855297
000330 40 a2 9b 3d a9 4c 3f be 87 aa 2d bf fc 42 ee be
       0.07599306 -0.18681587 -0.6783833 -0.4653548
000340 8a 23 56 bd 97 b4 03 bf 43 ab ba 3e 91 d0 7c be
       -0.052279986 -0.51447433 0.36458787 -0.24688937
000350 fd 08 c2 3d 14 82 d6 bd 5f 9b 49 be 7b 4f 0d 3e
       0.09474371 -0.10474029 -0.19688176 0.1379985
000360 a4 29 1e bf be 9f a7 3e 16 0b 03 3f 70 82 28 3e
       -0.6178229 0.3273906 0.5118879 0.16456008
000370 b8 b7 64 bd b5 df 8d 3e 20 ea 4d 3f 3a f7 ce 3e
       -0.05583927 0.27709737 0.8043537 0.40422994
000380 4b 9b d9 bd 95 f3 21 bd 19 b3 eb be 73 8a c3 3d
       -0.10625323 -0.03953894 -0.46035078 0.095478915
000390 04 74 7f be a4 1c dd 3e c5 80 5a 3f 47 1b 05 bd
       -0.249466 0.43185914 0.85352737 -0.032496717
0003a0 1c a3 e0 be 3e 0d 72 3e 58 c3 c6 3e cb 8f 1b be
       -0.43874443 0.23637864 0.3882091 -0.15191571
0003b0 d5 6a b4 bd 72 de 13 bf f3 5d ac bd be 7e 29 3e
       -0.08809439 -0.577613 -0.08416357 0.16552255
0003c0 79 74 e5 bc a8 b3 af 3e aa d9 40 be f6 58 b8 3e
       -0.02800964 0.34316754 -0.18833032 0.36005372
0003d0 0a b3 cb 3e 3d 8e bd 3d 9a 16 18 bf 1a e3 05 bf
       0.39785033 0.092556454 -0.5940949 -0.52299654
0003e0 ca 8f 68 bd 6a 9a 5c 3d 33 0d c8 3e 31 05 a3 3e
       -0.056777753 0.0538582 0.3907257 0.31839898
0003f0 77 fc 96 be 0f a8 f6 3e b9 09 3b 3e 2c ef e8 be
       -0.2948949 0.48175094 0.18265428 -0.45494974
